<?xml version="1.0" ?>
<net name="1" version="10">
	<layers>
		<layer id="0" name="3810381419897" type="Const" version="opset1">
			<data offset="0" size="4" shape="" element_type="f32"/>
			<output>
				<port id="0" precision="FP32"/>
			</output>
		</layer>
		<layer id="1" name="3811381519885" type="Const" version="opset1">
			<data offset="4" size="4" shape="" element_type="f32"/>
			<output>
				<port id="0" precision="FP32"/>
			</output>
		</layer>
		<layer id="2" name="3812381619831" type="Const" version="opset1">
			<data offset="0" size="4" shape="" element_type="f32"/>
			<output>
				<port id="0" precision="FP32"/>
			</output>
		</layer>
		<layer id="3" name="3813381718835" type="Const" version="opset1">
			<data offset="4" size="4" shape="" element_type="f32"/>
			<output>
				<port id="0" precision="FP32"/>
			</output>
		</layer>
		<layer id="4" name="2900290418478" type="Const" version="opset1">
			<data offset="8" size="4" shape="" element_type="f32"/>
			<output>
				<port id="0" precision="FP32"/>
			</output>
		</layer>
		<layer id="5" name="2901290520083" type="Const" version="opset1">
			<data offset="12" size="4" shape="" element_type="f32"/>
			<output>
				<port id="0" precision="FP32"/>
			</output>
		</layer>
		<layer id="6" name="2902290617797" type="Const" version="opset1">
			<data offset="8" size="4" shape="" element_type="f32"/>
			<output>
				<port id="0" precision="FP32"/>
			</output>
		</layer>
		<layer id="7" name="2903290720176" type="Const" version="opset1">
			<data offset="12" size="4" shape="" element_type="f32"/>
			<output>
				<port id="0" precision="FP32"/>
			</output>
		</layer>
		<layer id="8" name="4172417422945106218028" type="Const" version="opset1">
			<data offset="16" size="16" shape="4" element_type="f32"/>
			<output>
				<port id="0" precision="FP32">
					<dim>4</dim>
				</port>
			</output>
		</layer>
		<layer id="9" name="2720272418715" type="Const" version="opset1">
			<data offset="32" size="4" shape="" element_type="f32"/>
			<output>
				<port id="0" precision="FP32"/>
			</output>
		</layer>
		<layer id="10" name="2721272519612" type="Const" version="opset1">
			<data offset="36" size="4" shape="" element_type="f32"/>
			<output>
				<port id="0" precision="FP32"/>
			</output>
		</layer>
		<layer id="11" name="2722272617593" type="Const" version="opset1">
			<data offset="32" size="4" shape="" element_type="f32"/>
			<output>
				<port id="0" precision="FP32"/>
			</output>
		</layer>
		<layer id="12" name="2723272717776" type="Const" version="opset1">
			<data offset="36" size="4" shape="" element_type="f32"/>
			<output>
				<port id="0" precision="FP32"/>
			</output>
		</layer>
		<layer id="13" name="3320332417521" type="Const" version="opset1">
			<data offset="40" size="4" shape="" element_type="f32"/>
			<output>
				<port id="0" precision="FP32"/>
			</output>
		</layer>
		<layer id="14" name="3321332518727" type="Const" version="opset1">
			<data offset="44" size="4" shape="" element_type="f32"/>
			<output>
				<port id="0" precision="FP32"/>
			</output>
		</layer>
		<layer id="15" name="3322332618808" type="Const" version="opset1">
			<data offset="40" size="4" shape="" element_type="f32"/>
			<output>
				<port id="0" precision="FP32"/>
			</output>
		</layer>
		<layer id="16" name="3323332718847" type="Const" version="opset1">
			<data offset="44" size="4" shape="" element_type="f32"/>
			<output>
				<port id="0" precision="FP32"/>
			</output>
		</layer>
		<layer id="17" name="4140414223185104118541" type="Const" version="opset1">
			<data offset="48" size="16" shape="4" element_type="f32"/>
			<output>
				<port id="0" precision="FP32">
					<dim>4</dim>
				</port>
			</output>
		</layer>
		<layer id="18" name="3160316418367" type="Const" version="opset1">
			<data offset="64" size="4" shape="" element_type="f32"/>
			<output>
				<port id="0" precision="FP32"/>
			</output>
		</layer>
		<layer id="19" name="3161316517374" type="Const" version="opset1">
			<data offset="68" size="4" shape="" element_type="f32"/>
			<output>
				<port id="0" precision="FP32"/>
			</output>
		</layer>
		<layer id="20" name="3162316619411" type="Const" version="opset1">
			<data offset="64" size="4" shape="" element_type="f32"/>
			<output>
				<port id="0" precision="FP32"/>
			</output>
		</layer>
		<layer id="21" name="3163316718139" type="Const" version="opset1">
			<data offset="68" size="4" shape="" element_type="f32"/>
			<output>
				<port id="0" precision="FP32"/>
			</output>
		</layer>
		<layer id="22" name="2500250419516" type="Const" version="opset1">
			<data offset="0" size="4" shape="" element_type="f32"/>
			<output>
				<port id="0" precision="FP32"/>
			</output>
		</layer>
		<layer id="23" name="2501250518436" type="Const" version="opset1">
			<data offset="72" size="4" shape="" element_type="f32"/>
			<output>
				<port id="0" precision="FP32"/>
			</output>
		</layer>
		<layer id="24" name="2502250619345" type="Const" version="opset1">
			<data offset="0" size="4" shape="" element_type="f32"/>
			<output>
				<port id="0" precision="FP32"/>
			</output>
		</layer>
		<layer id="25" name="2503250719198" type="Const" version="opset1">
			<data offset="72" size="4" shape="" element_type="f32"/>
			<output>
				<port id="0" precision="FP32"/>
			</output>
		</layer>
		<layer id="26" name="2700270417974" type="Const" version="opset1">
			<data offset="0" size="4" shape="" element_type="f32"/>
			<output>
				<port id="0" precision="FP32"/>
			</output>
		</layer>
		<layer id="27" name="2701270519756" type="Const" version="opset1">
			<data offset="76" size="4" shape="" element_type="f32"/>
			<output>
				<port id="0" precision="FP32"/>
			</output>
		</layer>
		<layer id="28" name="2702270619981" type="Const" version="opset1">
			<data offset="0" size="4" shape="" element_type="f32"/>
			<output>
				<port id="0" precision="FP32"/>
			</output>
		</layer>
		<layer id="29" name="2703270719000" type="Const" version="opset1">
			<data offset="76" size="4" shape="" element_type="f32"/>
			<output>
				<port id="0" precision="FP32"/>
			</output>
		</layer>
		<layer id="30" name="3830383420209" type="Const" version="opset1">
			<data offset="80" size="4" shape="" element_type="f32"/>
			<output>
				<port id="0" precision="FP32"/>
			</output>
		</layer>
		<layer id="31" name="3831383519954" type="Const" version="opset1">
			<data offset="84" size="4" shape="" element_type="f32"/>
			<output>
				<port id="0" precision="FP32"/>
			</output>
		</layer>
		<layer id="32" name="3832383619555" type="Const" version="opset1">
			<data offset="80" size="4" shape="" element_type="f32"/>
			<output>
				<port id="0" precision="FP32"/>
			</output>
		</layer>
		<layer id="33" name="3833383718733" type="Const" version="opset1">
			<data offset="84" size="4" shape="" element_type="f32"/>
			<output>
				<port id="0" precision="FP32"/>
			</output>
		</layer>
		<layer id="34" name="2960296418250" type="Const" version="opset1">
			<data offset="88" size="4" shape="" element_type="f32"/>
			<output>
				<port id="0" precision="FP32"/>
			</output>
		</layer>
		<layer id="35" name="2961296519558" type="Const" version="opset1">
			<data offset="92" size="4" shape="" element_type="f32"/>
			<output>
				<port id="0" precision="FP32"/>
			</output>
		</layer>
		<layer id="36" name="2962296619855" type="Const" version="opset1">
			<data offset="88" size="4" shape="" element_type="f32"/>
			<output>
				<port id="0" precision="FP32"/>
			</output>
		</layer>
		<layer id="37" name="2963296719648" type="Const" version="opset1">
			<data offset="92" size="4" shape="" element_type="f32"/>
			<output>
				<port id="0" precision="FP32"/>
			</output>
		</layer>
		<layer id="38" name="410841102273599917845" type="Const" version="opset1">
			<data offset="96" size="16" shape="4" element_type="f32"/>
			<output>
				<port id="0" precision="FP32">
					<dim>4</dim>
				</port>
			</output>
		</layer>
		<layer id="39" name="2600260418547" type="Const" version="opset1">
			<data offset="112" size="4" shape="" element_type="f32"/>
			<output>
				<port id="0" precision="FP32"/>
			</output>
		</layer>
		<layer id="40" name="2601260518001" type="Const" version="opset1">
			<data offset="116" size="4" shape="" element_type="f32"/>
			<output>
				<port id="0" precision="FP32"/>
			</output>
		</layer>
		<layer id="41" name="2602260618301" type="Const" version="opset1">
			<data offset="112" size="4" shape="" element_type="f32"/>
			<output>
				<port id="0" precision="FP32"/>
			</output>
		</layer>
		<layer id="42" name="2603260720035" type="Const" version="opset1">
			<data offset="116" size="4" shape="" element_type="f32"/>
			<output>
				<port id="0" precision="FP32"/>
			</output>
		</layer>
		<layer id="43" name="2620262417536" type="Const" version="opset1">
			<data offset="0" size="4" shape="" element_type="f32"/>
			<output>
				<port id="0" precision="FP32"/>
			</output>
		</layer>
		<layer id="44" name="2621262517608" type="Const" version="opset1">
			<data offset="120" size="4" shape="" element_type="f32"/>
			<output>
				<port id="0" precision="FP32"/>
			</output>
		</layer>
		<layer id="45" name="2622262619633" type="Const" version="opset1">
			<data offset="0" size="4" shape="" element_type="f32"/>
			<output>
				<port id="0" precision="FP32"/>
			</output>
		</layer>
		<layer id="46" name="2623262718055" type="Const" version="opset1">
			<data offset="120" size="4" shape="" element_type="f32"/>
			<output>
				<port id="0" precision="FP32"/>
			</output>
		</layer>
		<layer id="47" name="3460346417965" type="Const" version="opset1">
			<data offset="0" size="4" shape="" element_type="f32"/>
			<output>
				<port id="0" precision="FP32"/>
			</output>
		</layer>
		<layer id="48" name="3461346517338" type="Const" version="opset1">
			<data offset="124" size="4" shape="" element_type="f32"/>
			<output>
				<port id="0" precision="FP32"/>
			</output>
		</layer>
		<layer id="49" name="3462346617755" type="Const" version="opset1">
			<data offset="0" size="4" shape="" element_type="f32"/>
			<output>
				<port id="0" precision="FP32"/>
			</output>
		</layer>
		<layer id="50" name="3463346718775" type="Const" version="opset1">
			<data offset="124" size="4" shape="" element_type="f32"/>
			<output>
				<port id="0" precision="FP32"/>
			</output>
		</layer>
		<layer id="51" name="3520352419582" type="Const" version="opset1">
			<data offset="128" size="4" shape="" element_type="f32"/>
			<output>
				<port id="0" precision="FP32"/>
			</output>
		</layer>
		<layer id="52" name="3521352518862" type="Const" version="opset1">
			<data offset="132" size="4" shape="" element_type="f32"/>
			<output>
				<port id="0" precision="FP32"/>
			</output>
		</layer>
		<layer id="53" name="3522352619315" type="Const" version="opset1">
			<data offset="128" size="4" shape="" element_type="f32"/>
			<output>
				<port id="0" precision="FP32"/>
			</output>
		</layer>
		<layer id="54" name="3523352717626" type="Const" version="opset1">
			<data offset="132" size="4" shape="" element_type="f32"/>
			<output>
				<port id="0" precision="FP32"/>
			</output>
		</layer>
		<layer id="55" name="3280328418916" type="Const" version="opset1">
			<data offset="136" size="4" shape="" element_type="f32"/>
			<output>
				<port id="0" precision="FP32"/>
			</output>
		</layer>
		<layer id="56" name="3281328520041" type="Const" version="opset1">
			<data offset="140" size="4" shape="" element_type="f32"/>
			<output>
				<port id="0" precision="FP32"/>
			</output>
		</layer>
		<layer id="57" name="3282328619465" type="Const" version="opset1">
			<data offset="136" size="4" shape="" element_type="f32"/>
			<output>
				<port id="0" precision="FP32"/>
			</output>
		</layer>
		<layer id="58" name="3283328720194" type="Const" version="opset1">
			<data offset="140" size="4" shape="" element_type="f32"/>
			<output>
				<port id="0" precision="FP32"/>
			</output>
		</layer>
		<layer id="59" name="407640782300895717275" type="Const" version="opset1">
			<data offset="144" size="16" shape="4" element_type="f32"/>
			<output>
				<port id="0" precision="FP32">
					<dim>4</dim>
				</port>
			</output>
		</layer>
		<layer id="60" name="3120312419780" type="Const" version="opset1">
			<data offset="160" size="4" shape="" element_type="f32"/>
			<output>
				<port id="0" precision="FP32"/>
			</output>
		</layer>
		<layer id="61" name="3121312518184" type="Const" version="opset1">
			<data offset="164" size="4" shape="" element_type="f32"/>
			<output>
				<port id="0" precision="FP32"/>
			</output>
		</layer>
		<layer id="62" name="3122312618202" type="Const" version="opset1">
			<data offset="160" size="4" shape="" element_type="f32"/>
			<output>
				<port id="0" precision="FP32"/>
			</output>
		</layer>
		<layer id="63" name="3123312719435" type="Const" version="opset1">
			<data offset="164" size="4" shape="" element_type="f32"/>
			<output>
				<port id="0" precision="FP32"/>
			</output>
		</layer>
		<layer id="64" name="3760376419915" type="Const" version="opset1">
			<data offset="0" size="4" shape="" element_type="f32"/>
			<output>
				<port id="0" precision="FP32"/>
			</output>
		</layer>
		<layer id="65" name="3761376518352" type="Const" version="opset1">
			<data offset="168" size="4" shape="" element_type="f32"/>
			<output>
				<port id="0" precision="FP32"/>
			</output>
		</layer>
		<layer id="66" name="3762376617569" type="Const" version="opset1">
			<data offset="0" size="4" shape="" element_type="f32"/>
			<output>
				<port id="0" precision="FP32"/>
			</output>
		</layer>
		<layer id="67" name="3763376717284" type="Const" version="opset1">
			<data offset="168" size="4" shape="" element_type="f32"/>
			<output>
				<port id="0" precision="FP32"/>
			</output>
		</layer>
		<layer id="68" name="2160216417650" type="Const" version="opset1">
			<data offset="0" size="4" shape="" element_type="f32"/>
			<output>
				<port id="0" precision="FP32"/>
			</output>
		</layer>
		<layer id="69" name="2161216518445" type="Const" version="opset1">
			<data offset="172" size="4" shape="" element_type="f32"/>
			<output>
				<port id="0" precision="FP32"/>
			</output>
		</layer>
		<layer id="70" name="2162216617461" type="Const" version="opset1">
			<data offset="0" size="4" shape="" element_type="f32"/>
			<output>
				<port id="0" precision="FP32"/>
			</output>
		</layer>
		<layer id="71" name="2163216717782" type="Const" version="opset1">
			<data offset="172" size="4" shape="" element_type="f32"/>
			<output>
				<port id="0" precision="FP32"/>
			</output>
		</layer>
		<layer id="72" name="2520252420155" type="Const" version="opset1">
			<data offset="176" size="4" shape="" element_type="f32"/>
			<output>
				<port id="0" precision="FP32"/>
			</output>
		</layer>
		<layer id="73" name="2521252518253" type="Const" version="opset1">
			<data offset="180" size="4" shape="" element_type="f32"/>
			<output>
				<port id="0" precision="FP32"/>
			</output>
		</layer>
		<layer id="74" name="2522252617737" type="Const" version="opset1">
			<data offset="176" size="4" shape="" element_type="f32"/>
			<output>
				<port id="0" precision="FP32"/>
			</output>
		</layer>
		<layer id="75" name="2523252719072" type="Const" version="opset1">
			<data offset="180" size="4" shape="" element_type="f32"/>
			<output>
				<port id="0" precision="FP32"/>
			</output>
		</layer>
		<layer id="76" name="1860186420113" type="Const" version="opset1">
			<data offset="184" size="4" shape="" element_type="f32"/>
			<output>
				<port id="0" precision="FP32"/>
			</output>
		</layer>
		<layer id="77" name="1861186519960" type="Const" version="opset1">
			<data offset="188" size="4" shape="" element_type="f32"/>
			<output>
				<port id="0" precision="FP32"/>
			</output>
		</layer>
		<layer id="78" name="1862186620068" type="Const" version="opset1">
			<data offset="184" size="4" shape="" element_type="f32"/>
			<output>
				<port id="0" precision="FP32"/>
			</output>
		</layer>
		<layer id="79" name="1863186720089" type="Const" version="opset1">
			<data offset="188" size="4" shape="" element_type="f32"/>
			<output>
				<port id="0" precision="FP32"/>
			</output>
		</layer>
		<layer id="80" name="404440462316191518748" type="Const" version="opset1">
			<data offset="192" size="16" shape="4" element_type="f32"/>
			<output>
				<port id="0" precision="FP32">
					<dim>4</dim>
				</port>
			</output>
		</layer>
		<layer id="81" name="1900190418760" type="Const" version="opset1">
			<data offset="208" size="4" shape="" element_type="f32"/>
			<output>
				<port id="0" precision="FP32"/>
			</output>
		</layer>
		<layer id="82" name="1901190519711" type="Const" version="opset1">
			<data offset="212" size="4" shape="" element_type="f32"/>
			<output>
				<port id="0" precision="FP32"/>
			</output>
		</layer>
		<layer id="83" name="1902190619132" type="Const" version="opset1">
			<data offset="208" size="4" shape="" element_type="f32"/>
			<output>
				<port id="0" precision="FP32"/>
			</output>
		</layer>
		<layer id="84" name="1903190718466" type="Const" version="opset1">
			<data offset="212" size="4" shape="" element_type="f32"/>
			<output>
				<port id="0" precision="FP32"/>
			</output>
		</layer>
		<layer id="85" name="3990399419843" type="Const" version="opset1">
			<data offset="0" size="4" shape="" element_type="f32"/>
			<output>
				<port id="0" precision="FP32"/>
			</output>
		</layer>
		<layer id="86" name="3991399518805" type="Const" version="opset1">
			<data offset="216" size="4" shape="" element_type="f32"/>
			<output>
				<port id="0" precision="FP32"/>
			</output>
		</layer>
		<layer id="87" name="3992399619867" type="Const" version="opset1">
			<data offset="0" size="4" shape="" element_type="f32"/>
			<output>
				<port id="0" precision="FP32"/>
			</output>
		</layer>
		<layer id="88" name="3993399717935" type="Const" version="opset1">
			<data offset="216" size="4" shape="" element_type="f32"/>
			<output>
				<port id="0" precision="FP32"/>
			</output>
		</layer>
		<layer id="89" name="2640264419351" type="Const" version="opset1">
			<data offset="0" size="4" shape="" element_type="f32"/>
			<output>
				<port id="0" precision="FP32"/>
			</output>
		</layer>
		<layer id="90" name="2641264517401" type="Const" version="opset1">
			<data offset="220" size="4" shape="" element_type="f32"/>
			<output>
				<port id="0" precision="FP32"/>
			</output>
		</layer>
		<layer id="91" name="2642264619936" type="Const" version="opset1">
			<data offset="0" size="4" shape="" element_type="f32"/>
			<output>
				<port id="0" precision="FP32"/>
			</output>
		</layer>
		<layer id="92" name="2643264717563" type="Const" version="opset1">
			<data offset="220" size="4" shape="" element_type="f32"/>
			<output>
				<port id="0" precision="FP32"/>
			</output>
		</layer>
		<layer id="93" name="1311131319798" type="Const" version="opset1">
			<data offset="224" size="2048" shape="1,512,1,1" element_type="f32"/>
			<output>
				<port id="0" precision="FP32">
					<dim>1</dim>
					<dim>512</dim>
					<dim>1</dim>
					<dim>1</dim>
				</port>
			</output>
		</layer>
		<layer id="94" name="3640364419525" type="Const" version="opset1">
			<data offset="2272" size="4" shape="" element_type="f32"/>
			<output>
				<port id="0" precision="FP32"/>
			</output>
		</layer>
		<layer id="95" name="3641364517962" type="Const" version="opset1">
			<data offset="2276" size="4" shape="" element_type="f32"/>
			<output>
				<port id="0" precision="FP32"/>
			</output>
		</layer>
		<layer id="96" name="3642364617383" type="Const" version="opset1">
			<data offset="2272" size="4" shape="" element_type="f32"/>
			<output>
				<port id="0" precision="FP32"/>
			</output>
		</layer>
		<layer id="97" name="3643364717995" type="Const" version="opset1">
			<data offset="2276" size="4" shape="" element_type="f32"/>
			<output>
				<port id="0" precision="FP32"/>
			</output>
		</layer>
		<layer id="98" name="2460246419879" type="Const" version="opset1">
			<data offset="0" size="4" shape="" element_type="f32"/>
			<output>
				<port id="0" precision="FP32"/>
			</output>
		</layer>
		<layer id="99" name="2461246520140" type="Const" version="opset1">
			<data offset="2280" size="4" shape="" element_type="f32"/>
			<output>
				<port id="0" precision="FP32"/>
			</output>
		</layer>
		<layer id="100" name="2462246619219" type="Const" version="opset1">
			<data offset="0" size="4" shape="" element_type="f32"/>
			<output>
				<port id="0" precision="FP32"/>
			</output>
		</layer>
		<layer id="101" name="2463246718688" type="Const" version="opset1">
			<data offset="2280" size="4" shape="" element_type="f32"/>
			<output>
				<port id="0" precision="FP32"/>
			</output>
		</layer>
		<layer id="102" name="3740374419858" type="Const" version="opset1">
			<data offset="2284" size="5568" shape="1,1392,1,1" element_type="f32"/>
			<output>
				<port id="0" precision="FP32">
					<dim>1</dim>
					<dim>1392</dim>
					<dim>1</dim>
					<dim>1</dim>
				</port>
			</output>
		</layer>
		<layer id="103" name="3741374519354" type="Const" version="opset1">
			<data offset="7852" size="5568" shape="1,1392,1,1" element_type="f32"/>
			<output>
				<port id="0" precision="FP32">
					<dim>1</dim>
					<dim>1392</dim>
					<dim>1</dim>
					<dim>1</dim>
				</port>
			</output>
		</layer>
		<layer id="104" name="3742374618409" type="Const" version="opset1">
			<data offset="2284" size="5568" shape="1,1392,1,1" element_type="f32"/>
			<output>
				<port id="0" precision="FP32">
					<dim>1</dim>
					<dim>1392</dim>
					<dim>1</dim>
					<dim>1</dim>
				</port>
			</output>
		</layer>
		<layer id="105" name="3743374718391" type="Const" version="opset1">
			<data offset="7852" size="5568" shape="1,1392,1,1" element_type="f32"/>
			<output>
				<port id="0" precision="FP32">
					<dim>1</dim>
					<dim>1392</dim>
					<dim>1</dim>
					<dim>1</dim>
				</port>
			</output>
		</layer>
		<layer id="106" name="2920292417515" type="Const" version="opset1">
			<data offset="13420" size="4" shape="" element_type="f32"/>
			<output>
				<port id="0" precision="FP32"/>
			</output>
		</layer>
		<layer id="107" name="2921292518844" type="Const" version="opset1">
			<data offset="13424" size="4" shape="" element_type="f32"/>
			<output>
				<port id="0" precision="FP32"/>
			</output>
		</layer>
		<layer id="108" name="2922292619498" type="Const" version="opset1">
			<data offset="13420" size="4" shape="" element_type="f32"/>
			<output>
				<port id="0" precision="FP32"/>
			</output>
		</layer>
		<layer id="109" name="2923292717638" type="Const" version="opset1">
			<data offset="13424" size="4" shape="" element_type="f32"/>
			<output>
				<port id="0" precision="FP32"/>
			</output>
		</layer>
		<layer id="110" name="3970397419297" type="Const" version="opset1">
			<data offset="13428" size="4" shape="" element_type="f32"/>
			<output>
				<port id="0" precision="FP32"/>
			</output>
		</layer>
		<layer id="111" name="3971397517605" type="Const" version="opset1">
			<data offset="13432" size="4" shape="" element_type="f32"/>
			<output>
				<port id="0" precision="FP32"/>
			</output>
		</layer>
		<layer id="112" name="3972397617908" type="Const" version="opset1">
			<data offset="13428" size="4" shape="" element_type="f32"/>
			<output>
				<port id="0" precision="FP32"/>
			</output>
		</layer>
		<layer id="113" name="3973397719891" type="Const" version="opset1">
			<data offset="13432" size="4" shape="" element_type="f32"/>
			<output>
				<port id="0" precision="FP32"/>
			</output>
		</layer>
		<layer id="114" name="4121412518016" type="Const" version="opset1">
			<data offset="0" size="4" shape="" element_type="f32"/>
			<output>
				<port id="0" precision="FP32"/>
			</output>
		</layer>
		<layer id="115" name="4122412618421" type="Const" version="opset1">
			<data offset="13436" size="4" shape="" element_type="f32"/>
			<output>
				<port id="0" precision="FP32"/>
			</output>
		</layer>
		<layer id="116" name="4123412717863" type="Const" version="opset1">
			<data offset="0" size="4" shape="" element_type="f32"/>
			<output>
				<port id="0" precision="FP32"/>
			</output>
		</layer>
		<layer id="117" name="4124412818100" type="Const" version="opset1">
			<data offset="13436" size="4" shape="" element_type="f32"/>
			<output>
				<port id="0" precision="FP32"/>
			</output>
		</layer>
		<layer id="118" name="2040204418271" type="Const" version="opset1">
			<data offset="2284" size="5568" shape="1,1392,1,1" element_type="f32"/>
			<output>
				<port id="0" precision="FP32">
					<dim>1</dim>
					<dim>1392</dim>
					<dim>1</dim>
					<dim>1</dim>
				</port>
			</output>
		</layer>
		<layer id="119" name="2041204519672" type="Const" version="opset1">
			<data offset="13440" size="5568" shape="1,1392,1,1" element_type="f32"/>
			<output>
				<port id="0" precision="FP32">
					<dim>1</dim>
					<dim>1392</dim>
					<dim>1</dim>
					<dim>1</dim>
				</port>
			</output>
		</layer>
		<layer id="120" name="2042204619126" type="Const" version="opset1">
			<data offset="2284" size="5568" shape="1,1392,1,1" element_type="f32"/>
			<output>
				<port id="0" precision="FP32">
					<dim>1</dim>
					<dim>1392</dim>
					<dim>1</dim>
					<dim>1</dim>
				</port>
			</output>
		</layer>
		<layer id="121" name="2043204718604" type="Const" version="opset1">
			<data offset="13440" size="5568" shape="1,1392,1,1" element_type="f32"/>
			<output>
				<port id="0" precision="FP32">
					<dim>1</dim>
					<dim>1392</dim>
					<dim>1</dim>
					<dim>1</dim>
				</port>
			</output>
		</layer>
		<layer id="122" name="3980398417821" type="Const" version="opset1">
			<data offset="19008" size="4" shape="" element_type="f32"/>
			<output>
				<port id="0" precision="FP32"/>
			</output>
		</layer>
		<layer id="123" name="3981398519627" type="Const" version="opset1">
			<data offset="19012" size="4" shape="" element_type="f32"/>
			<output>
				<port id="0" precision="FP32"/>
			</output>
		</layer>
		<layer id="124" name="3982398619726" type="Const" version="opset1">
			<data offset="19008" size="4" shape="" element_type="f32"/>
			<output>
				<port id="0" precision="FP32"/>
			</output>
		</layer>
		<layer id="125" name="3983398718676" type="Const" version="opset1">
			<data offset="19012" size="4" shape="" element_type="f32"/>
			<output>
				<port id="0" precision="FP32"/>
			</output>
		</layer>
		<layer id="126" name="2060206417395" type="Const" version="opset1">
			<data offset="19016" size="4" shape="" element_type="f32"/>
			<output>
				<port id="0" precision="FP32"/>
			</output>
		</layer>
		<layer id="127" name="2061206518169" type="Const" version="opset1">
			<data offset="19020" size="4" shape="" element_type="f32"/>
			<output>
				<port id="0" precision="FP32"/>
			</output>
		</layer>
		<layer id="128" name="2062206618802" type="Const" version="opset1">
			<data offset="19016" size="4" shape="" element_type="f32"/>
			<output>
				<port id="0" precision="FP32"/>
			</output>
		</layer>
		<layer id="129" name="2063206720191" type="Const" version="opset1">
			<data offset="19020" size="4" shape="" element_type="f32"/>
			<output>
				<port id="0" precision="FP32"/>
			</output>
		</layer>
		<layer id="130" name="1840184417641" type="Const" version="opset1">
			<data offset="0" size="4" shape="" element_type="f32"/>
			<output>
				<port id="0" precision="FP32"/>
			</output>
		</layer>
		<layer id="131" name="1841184519030" type="Const" version="opset1">
			<data offset="19024" size="4" shape="" element_type="f32"/>
			<output>
				<port id="0" precision="FP32"/>
			</output>
		</layer>
		<layer id="132" name="1842184619747" type="Const" version="opset1">
			<data offset="0" size="4" shape="" element_type="f32"/>
			<output>
				<port id="0" precision="FP32"/>
			</output>
		</layer>
		<layer id="133" name="1843184719423" type="Const" version="opset1">
			<data offset="19024" size="4" shape="" element_type="f32"/>
			<output>
				<port id="0" precision="FP32"/>
			</output>
		</layer>
		<layer id="134" name="2940294419720" type="Const" version="opset1">
			<data offset="2284" size="5568" shape="1,1392,1,1" element_type="f32"/>
			<output>
				<port id="0" precision="FP32">
					<dim>1</dim>
					<dim>1392</dim>
					<dim>1</dim>
					<dim>1</dim>
				</port>
			</output>
		</layer>
		<layer id="135" name="2941294519330" type="Const" version="opset1">
			<data offset="19028" size="5568" shape="1,1392,1,1" element_type="f32"/>
			<output>
				<port id="0" precision="FP32">
					<dim>1</dim>
					<dim>1392</dim>
					<dim>1</dim>
					<dim>1</dim>
				</port>
			</output>
		</layer>
		<layer id="136" name="2942294617356" type="Const" version="opset1">
			<data offset="2284" size="5568" shape="1,1392,1,1" element_type="f32"/>
			<output>
				<port id="0" precision="FP32">
					<dim>1</dim>
					<dim>1392</dim>
					<dim>1</dim>
					<dim>1</dim>
				</port>
			</output>
		</layer>
		<layer id="137" name="2943294718556" type="Const" version="opset1">
			<data offset="19028" size="5568" shape="1,1392,1,1" element_type="f32"/>
			<output>
				<port id="0" precision="FP32">
					<dim>1</dim>
					<dim>1392</dim>
					<dim>1</dim>
					<dim>1</dim>
				</port>
			</output>
		</layer>
		<layer id="138" name="2070207419750" type="Const" version="opset1">
			<data offset="24596" size="4" shape="" element_type="f32"/>
			<output>
				<port id="0" precision="FP32"/>
			</output>
		</layer>
		<layer id="139" name="2071207519552" type="Const" version="opset1">
			<data offset="24600" size="4" shape="" element_type="f32"/>
			<output>
				<port id="0" precision="FP32"/>
			</output>
		</layer>
		<layer id="140" name="2072207619267" type="Const" version="opset1">
			<data offset="24596" size="4" shape="" element_type="f32"/>
			<output>
				<port id="0" precision="FP32"/>
			</output>
		</layer>
		<layer id="141" name="2073207719468" type="Const" version="opset1">
			<data offset="24600" size="4" shape="" element_type="f32"/>
			<output>
				<port id="0" precision="FP32"/>
			</output>
		</layer>
		<layer id="142" name="4141414518286" type="Const" version="opset1">
			<data offset="24604" size="4" shape="" element_type="f32"/>
			<output>
				<port id="0" precision="FP32"/>
			</output>
		</layer>
		<layer id="143" name="4142414620053" type="Const" version="opset1">
			<data offset="24608" size="4" shape="" element_type="f32"/>
			<output>
				<port id="0" precision="FP32"/>
			</output>
		</layer>
		<layer id="144" name="4143414718349" type="Const" version="opset1">
			<data offset="24604" size="4" shape="" element_type="f32"/>
			<output>
				<port id="0" precision="FP32"/>
			</output>
		</layer>
		<layer id="145" name="4144414818583" type="Const" version="opset1">
			<data offset="24608" size="4" shape="" element_type="f32"/>
			<output>
				<port id="0" precision="FP32"/>
			</output>
		</layer>
		<layer id="146" name="3890389418628" type="Const" version="opset1">
			<data offset="0" size="4" shape="" element_type="f32"/>
			<output>
				<port id="0" precision="FP32"/>
			</output>
		</layer>
		<layer id="147" name="3891389520110" type="Const" version="opset1">
			<data offset="24612" size="4" shape="" element_type="f32"/>
			<output>
				<port id="0" precision="FP32"/>
			</output>
		</layer>
		<layer id="148" name="3892389618310" type="Const" version="opset1">
			<data offset="0" size="4" shape="" element_type="f32"/>
			<output>
				<port id="0" precision="FP32"/>
			</output>
		</layer>
		<layer id="149" name="3893389718145" type="Const" version="opset1">
			<data offset="24612" size="4" shape="" element_type="f32"/>
			<output>
				<port id="0" precision="FP32"/>
			</output>
		</layer>
		<layer id="150" name="3580358420137" type="Const" version="opset1">
			<data offset="2284" size="5568" shape="1,1392,1,1" element_type="f32"/>
			<output>
				<port id="0" precision="FP32">
					<dim>1</dim>
					<dim>1392</dim>
					<dim>1</dim>
					<dim>1</dim>
				</port>
			</output>
		</layer>
		<layer id="151" name="3581358518118" type="Const" version="opset1">
			<data offset="24616" size="5568" shape="1,1392,1,1" element_type="f32"/>
			<output>
				<port id="0" precision="FP32">
					<dim>1</dim>
					<dim>1392</dim>
					<dim>1</dim>
					<dim>1</dim>
				</port>
			</output>
		</layer>
		<layer id="152" name="3582358618796" type="Const" version="opset1">
			<data offset="2284" size="5568" shape="1,1392,1,1" element_type="f32"/>
			<output>
				<port id="0" precision="FP32">
					<dim>1</dim>
					<dim>1392</dim>
					<dim>1</dim>
					<dim>1</dim>
				</port>
			</output>
		</layer>
		<layer id="153" name="3583358718370" type="Const" version="opset1">
			<data offset="24616" size="5568" shape="1,1392,1,1" element_type="f32"/>
			<output>
				<port id="0" precision="FP32">
					<dim>1</dim>
					<dim>1392</dim>
					<dim>1</dim>
					<dim>1</dim>
				</port>
			</output>
		</layer>
		<layer id="154" name="4151415517407" type="Const" version="opset1">
			<data offset="30184" size="4" shape="" element_type="f32"/>
			<output>
				<port id="0" precision="FP32"/>
			</output>
		</layer>
		<layer id="155" name="4152415617272" type="Const" version="opset1">
			<data offset="30188" size="4" shape="" element_type="f32"/>
			<output>
				<port id="0" precision="FP32"/>
			</output>
		</layer>
		<layer id="156" name="4153415719372" type="Const" version="opset1">
			<data offset="30184" size="4" shape="" element_type="f32"/>
			<output>
				<port id="0" precision="FP32"/>
			</output>
		</layer>
		<layer id="157" name="4154415818559" type="Const" version="opset1">
			<data offset="30188" size="4" shape="" element_type="f32"/>
			<output>
				<port id="0" precision="FP32"/>
			</output>
		</layer>
		<layer id="158" name="2580258419201" type="Const" version="opset1">
			<data offset="30192" size="4" shape="" element_type="f32"/>
			<output>
				<port id="0" precision="FP32"/>
			</output>
		</layer>
		<layer id="159" name="2581258518244" type="Const" version="opset1">
			<data offset="30196" size="4" shape="" element_type="f32"/>
			<output>
				<port id="0" precision="FP32"/>
			</output>
		</layer>
		<layer id="160" name="2582258618883" type="Const" version="opset1">
			<data offset="30192" size="4" shape="" element_type="f32"/>
			<output>
				<port id="0" precision="FP32"/>
			</output>
		</layer>
		<layer id="161" name="2583258718160" type="Const" version="opset1">
			<data offset="30196" size="4" shape="" element_type="f32"/>
			<output>
				<port id="0" precision="FP32"/>
			</output>
		</layer>
		<layer id="162" name="3790379419048" type="Const" version="opset1">
			<data offset="0" size="4" shape="" element_type="f32"/>
			<output>
				<port id="0" precision="FP32"/>
			</output>
		</layer>
		<layer id="163" name="3791379519927" type="Const" version="opset1">
			<data offset="30200" size="4" shape="" element_type="f32"/>
			<output>
				<port id="0" precision="FP32"/>
			</output>
		</layer>
		<layer id="164" name="3792379619900" type="Const" version="opset1">
			<data offset="0" size="4" shape="" element_type="f32"/>
			<output>
				<port id="0" precision="FP32"/>
			</output>
		</layer>
		<layer id="165" name="3793379717422" type="Const" version="opset1">
			<data offset="30200" size="4" shape="" element_type="f32"/>
			<output>
				<port id="0" precision="FP32"/>
			</output>
		</layer>
		<layer id="166" name="2000200417359" type="Const" version="opset1">
			<data offset="2284" size="5568" shape="1,1392,1,1" element_type="f32"/>
			<output>
				<port id="0" precision="FP32">
					<dim>1</dim>
					<dim>1392</dim>
					<dim>1</dim>
					<dim>1</dim>
				</port>
			</output>
		</layer>
		<layer id="167" name="2001200519384" type="Const" version="opset1">
			<data offset="30204" size="5568" shape="1,1392,1,1" element_type="f32"/>
			<output>
				<port id="0" precision="FP32">
					<dim>1</dim>
					<dim>1392</dim>
					<dim>1</dim>
					<dim>1</dim>
				</port>
			</output>
		</layer>
		<layer id="168" name="2002200618031" type="Const" version="opset1">
			<data offset="2284" size="5568" shape="1,1392,1,1" element_type="f32"/>
			<output>
				<port id="0" precision="FP32">
					<dim>1</dim>
					<dim>1392</dim>
					<dim>1</dim>
					<dim>1</dim>
				</port>
			</output>
		</layer>
		<layer id="169" name="2003200719024" type="Const" version="opset1">
			<data offset="30204" size="5568" shape="1,1392,1,1" element_type="f32"/>
			<output>
				<port id="0" precision="FP32">
					<dim>1</dim>
					<dim>1392</dim>
					<dim>1</dim>
					<dim>1</dim>
				</port>
			</output>
		</layer>
		<layer id="170" name="2590259418706" type="Const" version="opset1">
			<data offset="35772" size="4" shape="" element_type="f32"/>
			<output>
				<port id="0" precision="FP32"/>
			</output>
		</layer>
		<layer id="171" name="2591259518580" type="Const" version="opset1">
			<data offset="35776" size="4" shape="" element_type="f32"/>
			<output>
				<port id="0" precision="FP32"/>
			</output>
		</layer>
		<layer id="172" name="2592259617488" type="Const" version="opset1">
			<data offset="35772" size="4" shape="" element_type="f32"/>
			<output>
				<port id="0" precision="FP32"/>
			</output>
		</layer>
		<layer id="173" name="2593259719810" type="Const" version="opset1">
			<data offset="35776" size="4" shape="" element_type="f32"/>
			<output>
				<port id="0" precision="FP32"/>
			</output>
		</layer>
		<layer id="174" name="3870387419471" type="Const" version="opset1">
			<data offset="35780" size="4" shape="" element_type="f32"/>
			<output>
				<port id="0" precision="FP32"/>
			</output>
		</layer>
		<layer id="175" name="3871387518361" type="Const" version="opset1">
			<data offset="35784" size="4" shape="" element_type="f32"/>
			<output>
				<port id="0" precision="FP32"/>
			</output>
		</layer>
		<layer id="176" name="3872387617719" type="Const" version="opset1">
			<data offset="35780" size="4" shape="" element_type="f32"/>
			<output>
				<port id="0" precision="FP32"/>
			</output>
		</layer>
		<layer id="177" name="3873387718235" type="Const" version="opset1">
			<data offset="35784" size="4" shape="" element_type="f32"/>
			<output>
				<port id="0" precision="FP32"/>
			</output>
		</layer>
		<layer id="178" name="3440344418832" type="Const" version="opset1">
			<data offset="0" size="4" shape="" element_type="f32"/>
			<output>
				<port id="0" precision="FP32"/>
			</output>
		</layer>
		<layer id="179" name="3441344518898" type="Const" version="opset1">
			<data offset="35788" size="4" shape="" element_type="f32"/>
			<output>
				<port id="0" precision="FP32"/>
			</output>
		</layer>
		<layer id="180" name="3442344617353" type="Const" version="opset1">
			<data offset="0" size="4" shape="" element_type="f32"/>
			<output>
				<port id="0" precision="FP32"/>
			</output>
		</layer>
		<layer id="181" name="3443344717518" type="Const" version="opset1">
			<data offset="35788" size="4" shape="" element_type="f32"/>
			<output>
				<port id="0" precision="FP32"/>
			</output>
		</layer>
		<layer id="182" name="2220222417587" type="Const" version="opset1">
			<data offset="2284" size="5568" shape="1,1392,1,1" element_type="f32"/>
			<output>
				<port id="0" precision="FP32">
					<dim>1</dim>
					<dim>1392</dim>
					<dim>1</dim>
					<dim>1</dim>
				</port>
			</output>
		</layer>
		<layer id="183" name="2221222517524" type="Const" version="opset1">
			<data offset="35792" size="5568" shape="1,1392,1,1" element_type="f32"/>
			<output>
				<port id="0" precision="FP32">
					<dim>1</dim>
					<dim>1392</dim>
					<dim>1</dim>
					<dim>1</dim>
				</port>
			</output>
		</layer>
		<layer id="184" name="2222222618520" type="Const" version="opset1">
			<data offset="2284" size="5568" shape="1,1392,1,1" element_type="f32"/>
			<output>
				<port id="0" precision="FP32">
					<dim>1</dim>
					<dim>1392</dim>
					<dim>1</dim>
					<dim>1</dim>
				</port>
			</output>
		</layer>
		<layer id="185" name="2223222718652" type="Const" version="opset1">
			<data offset="35792" size="5568" shape="1,1392,1,1" element_type="f32"/>
			<output>
				<port id="0" precision="FP32">
					<dim>1</dim>
					<dim>1392</dim>
					<dim>1</dim>
					<dim>1</dim>
				</port>
			</output>
		</layer>
		<layer id="186" name="3880388417902" type="Const" version="opset1">
			<data offset="41360" size="4" shape="" element_type="f32"/>
			<output>
				<port id="0" precision="FP32"/>
			</output>
		</layer>
		<layer id="187" name="3881388520008" type="Const" version="opset1">
			<data offset="41364" size="4" shape="" element_type="f32"/>
			<output>
				<port id="0" precision="FP32"/>
			</output>
		</layer>
		<layer id="188" name="3882388620020" type="Const" version="opset1">
			<data offset="41360" size="4" shape="" element_type="f32"/>
			<output>
				<port id="0" precision="FP32"/>
			</output>
		</layer>
		<layer id="189" name="3883388718064" type="Const" version="opset1">
			<data offset="41364" size="4" shape="" element_type="f32"/>
			<output>
				<port id="0" precision="FP32"/>
			</output>
		</layer>
		<layer id="190" name="4101410519504" type="Const" version="opset1">
			<data offset="0" size="4" shape="" element_type="f32"/>
			<output>
				<port id="0" precision="FP32"/>
			</output>
		</layer>
		<layer id="191" name="4102410618112" type="Const" version="opset1">
			<data offset="41368" size="4" shape="" element_type="f32"/>
			<output>
				<port id="0" precision="FP32"/>
			</output>
		</layer>
		<layer id="192" name="4103410719204" type="Const" version="opset1">
			<data offset="0" size="4" shape="" element_type="f32"/>
			<output>
				<port id="0" precision="FP32"/>
			</output>
		</layer>
		<layer id="193" name="4104410817551" type="Const" version="opset1">
			<data offset="41368" size="4" shape="" element_type="f32"/>
			<output>
				<port id="0" precision="FP32"/>
			</output>
		</layer>
		<layer id="194" name="3240324418601" type="Const" version="opset1">
			<data offset="41372" size="3264" shape="1,816,1,1" element_type="f32"/>
			<output>
				<port id="0" precision="FP32">
					<dim>1</dim>
					<dim>816</dim>
					<dim>1</dim>
					<dim>1</dim>
				</port>
			</output>
		</layer>
		<layer id="195" name="3241324518946" type="Const" version="opset1">
			<data offset="44636" size="3264" shape="1,816,1,1" element_type="f32"/>
			<output>
				<port id="0" precision="FP32">
					<dim>1</dim>
					<dim>816</dim>
					<dim>1</dim>
					<dim>1</dim>
				</port>
			</output>
		</layer>
		<layer id="196" name="3242324618289" type="Const" version="opset1">
			<data offset="41372" size="3264" shape="1,816,1,1" element_type="f32"/>
			<output>
				<port id="0" precision="FP32">
					<dim>1</dim>
					<dim>816</dim>
					<dim>1</dim>
					<dim>1</dim>
				</port>
			</output>
		</layer>
		<layer id="197" name="3243324718238" type="Const" version="opset1">
			<data offset="44636" size="3264" shape="1,816,1,1" element_type="f32"/>
			<output>
				<port id="0" precision="FP32">
					<dim>1</dim>
					<dim>816</dim>
					<dim>1</dim>
					<dim>1</dim>
				</port>
			</output>
		</layer>
		<layer id="198" name="2740274419702" type="Const" version="opset1">
			<data offset="47900" size="4" shape="" element_type="f32"/>
			<output>
				<port id="0" precision="FP32"/>
			</output>
		</layer>
		<layer id="199" name="2741274517287" type="Const" version="opset1">
			<data offset="47904" size="4" shape="" element_type="f32"/>
			<output>
				<port id="0" precision="FP32"/>
			</output>
		</layer>
		<layer id="200" name="2742274619492" type="Const" version="opset1">
			<data offset="47900" size="4" shape="" element_type="f32"/>
			<output>
				<port id="0" precision="FP32"/>
			</output>
		</layer>
		<layer id="201" name="2743274720026" type="Const" version="opset1">
			<data offset="47904" size="4" shape="" element_type="f32"/>
			<output>
				<port id="0" precision="FP32"/>
			</output>
		</layer>
		<layer id="202" name="2980298419777" type="Const" version="opset1">
			<data offset="47908" size="4" shape="" element_type="f32"/>
			<output>
				<port id="0" precision="FP32"/>
			</output>
		</layer>
		<layer id="203" name="2981298517692" type="Const" version="opset1">
			<data offset="47912" size="4" shape="" element_type="f32"/>
			<output>
				<port id="0" precision="FP32"/>
			</output>
		</layer>
		<layer id="204" name="2982298620107" type="Const" version="opset1">
			<data offset="47908" size="4" shape="" element_type="f32"/>
			<output>
				<port id="0" precision="FP32"/>
			</output>
		</layer>
		<layer id="205" name="2983298717770" type="Const" version="opset1">
			<data offset="47912" size="4" shape="" element_type="f32"/>
			<output>
				<port id="0" precision="FP32"/>
			</output>
		</layer>
		<layer id="206" name="4061406518529" type="Const" version="opset1">
			<data offset="0" size="4" shape="" element_type="f32"/>
			<output>
				<port id="0" precision="FP32"/>
			</output>
		</layer>
		<layer id="207" name="4062406617266" type="Const" version="opset1">
			<data offset="47916" size="4" shape="" element_type="f32"/>
			<output>
				<port id="0" precision="FP32"/>
			</output>
		</layer>
		<layer id="208" name="4063406719258" type="Const" version="opset1">
			<data offset="0" size="4" shape="" element_type="f32"/>
			<output>
				<port id="0" precision="FP32"/>
			</output>
		</layer>
		<layer id="209" name="4064406818907" type="Const" version="opset1">
			<data offset="47916" size="4" shape="" element_type="f32"/>
			<output>
				<port id="0" precision="FP32"/>
			</output>
		</layer>
		<layer id="210" name="4262426619690" type="Const" version="opset1">
			<data offset="41372" size="3264" shape="1,816,1,1" element_type="f32"/>
			<output>
				<port id="0" precision="FP32">
					<dim>1</dim>
					<dim>816</dim>
					<dim>1</dim>
					<dim>1</dim>
				</port>
			</output>
		</layer>
		<layer id="211" name="4263426719480" type="Const" version="opset1">
			<data offset="47920" size="3264" shape="1,816,1,1" element_type="f32"/>
			<output>
				<port id="0" precision="FP32">
					<dim>1</dim>
					<dim>816</dim>
					<dim>1</dim>
					<dim>1</dim>
				</port>
			</output>
		</layer>
		<layer id="212" name="4264426819699" type="Const" version="opset1">
			<data offset="41372" size="3264" shape="1,816,1,1" element_type="f32"/>
			<output>
				<port id="0" precision="FP32">
					<dim>1</dim>
					<dim>816</dim>
					<dim>1</dim>
					<dim>1</dim>
				</port>
			</output>
		</layer>
		<layer id="213" name="4265426919636" type="Const" version="opset1">
			<data offset="47920" size="3264" shape="1,816,1,1" element_type="f32"/>
			<output>
				<port id="0" precision="FP32">
					<dim>1</dim>
					<dim>816</dim>
					<dim>1</dim>
					<dim>1</dim>
				</port>
			</output>
		</layer>
		<layer id="214" name="2990299418430" type="Const" version="opset1">
			<data offset="51184" size="4" shape="" element_type="f32"/>
			<output>
				<port id="0" precision="FP32"/>
			</output>
		</layer>
		<layer id="215" name="2991299520080" type="Const" version="opset1">
			<data offset="51188" size="4" shape="" element_type="f32"/>
			<output>
				<port id="0" precision="FP32"/>
			</output>
		</layer>
		<layer id="216" name="2992299618313" type="Const" version="opset1">
			<data offset="51184" size="4" shape="" element_type="f32"/>
			<output>
				<port id="0" precision="FP32"/>
			</output>
		</layer>
		<layer id="217" name="2993299717431" type="Const" version="opset1">
			<data offset="51188" size="4" shape="" element_type="f32"/>
			<output>
				<port id="0" precision="FP32"/>
			</output>
		</layer>
		<layer id="218" name="2400240418337" type="Const" version="opset1">
			<data offset="51192" size="4" shape="" element_type="f32"/>
			<output>
				<port id="0" precision="FP32"/>
			</output>
		</layer>
		<layer id="219" name="2401240519639" type="Const" version="opset1">
			<data offset="51196" size="4" shape="" element_type="f32"/>
			<output>
				<port id="0" precision="FP32"/>
			</output>
		</layer>
		<layer id="220" name="2402240618163" type="Const" version="opset1">
			<data offset="51192" size="4" shape="" element_type="f32"/>
			<output>
				<port id="0" precision="FP32"/>
			</output>
		</layer>
		<layer id="221" name="2403240719870" type="Const" version="opset1">
			<data offset="51196" size="4" shape="" element_type="f32"/>
			<output>
				<port id="0" precision="FP32"/>
			</output>
		</layer>
		<layer id="222" name="2200220418400" type="Const" version="opset1">
			<data offset="0" size="4" shape="" element_type="f32"/>
			<output>
				<port id="0" precision="FP32"/>
			</output>
		</layer>
		<layer id="223" name="2201220518181" type="Const" version="opset1">
			<data offset="51200" size="4" shape="" element_type="f32"/>
			<output>
				<port id="0" precision="FP32"/>
			</output>
		</layer>
		<layer id="224" name="2202220618817" type="Const" version="opset1">
			<data offset="0" size="4" shape="" element_type="f32"/>
			<output>
				<port id="0" precision="FP32"/>
			</output>
		</layer>
		<layer id="225" name="2203220718952" type="Const" version="opset1">
			<data offset="51200" size="4" shape="" element_type="f32"/>
			<output>
				<port id="0" precision="FP32"/>
			</output>
		</layer>
		<layer id="226" name="2120212417710" type="Const" version="opset1">
			<data offset="41372" size="3264" shape="1,816,1,1" element_type="f32"/>
			<output>
				<port id="0" precision="FP32">
					<dim>1</dim>
					<dim>816</dim>
					<dim>1</dim>
					<dim>1</dim>
				</port>
			</output>
		</layer>
		<layer id="227" name="2121212519543" type="Const" version="opset1">
			<data offset="51204" size="3264" shape="1,816,1,1" element_type="f32"/>
			<output>
				<port id="0" precision="FP32">
					<dim>1</dim>
					<dim>816</dim>
					<dim>1</dim>
					<dim>1</dim>
				</port>
			</output>
		</layer>
		<layer id="228" name="2122212619540" type="Const" version="opset1">
			<data offset="41372" size="3264" shape="1,816,1,1" element_type="f32"/>
			<output>
				<port id="0" precision="FP32">
					<dim>1</dim>
					<dim>816</dim>
					<dim>1</dim>
					<dim>1</dim>
				</port>
			</output>
		</layer>
		<layer id="229" name="2123212719252" type="Const" version="opset1">
			<data offset="51204" size="3264" shape="1,816,1,1" element_type="f32"/>
			<output>
				<port id="0" precision="FP32">
					<dim>1</dim>
					<dim>816</dim>
					<dim>1</dim>
					<dim>1</dim>
				</port>
			</output>
		</layer>
		<layer id="230" name="2410241419807" type="Const" version="opset1">
			<data offset="54468" size="4" shape="" element_type="f32"/>
			<output>
				<port id="0" precision="FP32"/>
			</output>
		</layer>
		<layer id="231" name="2411241518412" type="Const" version="opset1">
			<data offset="54472" size="4" shape="" element_type="f32"/>
			<output>
				<port id="0" precision="FP32"/>
			</output>
		</layer>
		<layer id="232" name="2412241619894" type="Const" version="opset1">
			<data offset="54468" size="4" shape="" element_type="f32"/>
			<output>
				<port id="0" precision="FP32"/>
			</output>
		</layer>
		<layer id="233" name="2413241719846" type="Const" version="opset1">
			<data offset="54472" size="4" shape="" element_type="f32"/>
			<output>
				<port id="0" precision="FP32"/>
			</output>
		</layer>
		<layer id="234" name="3180318419576" type="Const" version="opset1">
			<data offset="54476" size="4" shape="" element_type="f32"/>
			<output>
				<port id="0" precision="FP32"/>
			</output>
		</layer>
		<layer id="235" name="3181318518577" type="Const" version="opset1">
			<data offset="54480" size="4" shape="" element_type="f32"/>
			<output>
				<port id="0" precision="FP32"/>
			</output>
		</layer>
		<layer id="236" name="3182318620098" type="Const" version="opset1">
			<data offset="54476" size="4" shape="" element_type="f32"/>
			<output>
				<port id="0" precision="FP32"/>
			</output>
		</layer>
		<layer id="237" name="3183318719012" type="Const" version="opset1">
			<data offset="54480" size="4" shape="" element_type="f32"/>
			<output>
				<port id="0" precision="FP32"/>
			</output>
		</layer>
		<layer id="238" name="3080308417695" type="Const" version="opset1">
			<data offset="0" size="4" shape="" element_type="f32"/>
			<output>
				<port id="0" precision="FP32"/>
			</output>
		</layer>
		<layer id="239" name="3081308519303" type="Const" version="opset1">
			<data offset="54484" size="4" shape="" element_type="f32"/>
			<output>
				<port id="0" precision="FP32"/>
			</output>
		</layer>
		<layer id="240" name="3082308619834" type="Const" version="opset1">
			<data offset="0" size="4" shape="" element_type="f32"/>
			<output>
				<port id="0" precision="FP32"/>
			</output>
		</layer>
		<layer id="241" name="3083308718283" type="Const" version="opset1">
			<data offset="54484" size="4" shape="" element_type="f32"/>
			<output>
				<port id="0" precision="FP32"/>
			</output>
		</layer>
		<layer id="242" name="2760276419534" type="Const" version="opset1">
			<data offset="41372" size="3264" shape="1,816,1,1" element_type="f32"/>
			<output>
				<port id="0" precision="FP32">
					<dim>1</dim>
					<dim>816</dim>
					<dim>1</dim>
					<dim>1</dim>
				</port>
			</output>
		</layer>
		<layer id="243" name="2761276519924" type="Const" version="opset1">
			<data offset="54488" size="3264" shape="1,816,1,1" element_type="f32"/>
			<output>
				<port id="0" precision="FP32">
					<dim>1</dim>
					<dim>816</dim>
					<dim>1</dim>
					<dim>1</dim>
				</port>
			</output>
		</layer>
		<layer id="244" name="2762276619336" type="Const" version="opset1">
			<data offset="41372" size="3264" shape="1,816,1,1" element_type="f32"/>
			<output>
				<port id="0" precision="FP32">
					<dim>1</dim>
					<dim>816</dim>
					<dim>1</dim>
					<dim>1</dim>
				</port>
			</output>
		</layer>
		<layer id="245" name="2763276718460" type="Const" version="opset1">
			<data offset="54488" size="3264" shape="1,816,1,1" element_type="f32"/>
			<output>
				<port id="0" precision="FP32">
					<dim>1</dim>
					<dim>816</dim>
					<dim>1</dim>
					<dim>1</dim>
				</port>
			</output>
		</layer>
		<layer id="246" name="3190319418667" type="Const" version="opset1">
			<data offset="57752" size="4" shape="" element_type="f32"/>
			<output>
				<port id="0" precision="FP32"/>
			</output>
		</layer>
		<layer id="247" name="3191319517827" type="Const" version="opset1">
			<data offset="57756" size="4" shape="" element_type="f32"/>
			<output>
				<port id="0" precision="FP32"/>
			</output>
		</layer>
		<layer id="248" name="3192319618325" type="Const" version="opset1">
			<data offset="57752" size="4" shape="" element_type="f32"/>
			<output>
				<port id="0" precision="FP32"/>
			</output>
		</layer>
		<layer id="249" name="3193319718019" type="Const" version="opset1">
			<data offset="57756" size="4" shape="" element_type="f32"/>
			<output>
				<port id="0" precision="FP32"/>
			</output>
		</layer>
		<layer id="250" name="4161416518298" type="Const" version="opset1">
			<data offset="57760" size="4" shape="" element_type="f32"/>
			<output>
				<port id="0" precision="FP32"/>
			</output>
		</layer>
		<layer id="251" name="4162416619684" type="Const" version="opset1">
			<data offset="57764" size="4" shape="" element_type="f32"/>
			<output>
				<port id="0" precision="FP32"/>
			</output>
		</layer>
		<layer id="252" name="4163416717752" type="Const" version="opset1">
			<data offset="57760" size="4" shape="" element_type="f32"/>
			<output>
				<port id="0" precision="FP32"/>
			</output>
		</layer>
		<layer id="253" name="4164416819678" type="Const" version="opset1">
			<data offset="57764" size="4" shape="" element_type="f32"/>
			<output>
				<port id="0" precision="FP32"/>
			</output>
		</layer>
		<layer id="254" name="3040304417959" type="Const" version="opset1">
			<data offset="0" size="4" shape="" element_type="f32"/>
			<output>
				<port id="0" precision="FP32"/>
			</output>
		</layer>
		<layer id="255" name="3041304519135" type="Const" version="opset1">
			<data offset="2280" size="4" shape="" element_type="f32"/>
			<output>
				<port id="0" precision="FP32"/>
			</output>
		</layer>
		<layer id="256" name="3042304618208" type="Const" version="opset1">
			<data offset="0" size="4" shape="" element_type="f32"/>
			<output>
				<port id="0" precision="FP32"/>
			</output>
		</layer>
		<layer id="257" name="3043304717896" type="Const" version="opset1">
			<data offset="2280" size="4" shape="" element_type="f32"/>
			<output>
				<port id="0" precision="FP32"/>
			</output>
		</layer>
		<layer id="258" name="3140314418598" type="Const" version="opset1">
			<data offset="41372" size="3264" shape="1,816,1,1" element_type="f32"/>
			<output>
				<port id="0" precision="FP32">
					<dim>1</dim>
					<dim>816</dim>
					<dim>1</dim>
					<dim>1</dim>
				</port>
			</output>
		</layer>
		<layer id="259" name="3141314520074" type="Const" version="opset1">
			<data offset="57768" size="3264" shape="1,816,1,1" element_type="f32"/>
			<output>
				<port id="0" precision="FP32">
					<dim>1</dim>
					<dim>816</dim>
					<dim>1</dim>
					<dim>1</dim>
				</port>
			</output>
		</layer>
		<layer id="260" name="3142314617836" type="Const" version="opset1">
			<data offset="41372" size="3264" shape="1,816,1,1" element_type="f32"/>
			<output>
				<port id="0" precision="FP32">
					<dim>1</dim>
					<dim>816</dim>
					<dim>1</dim>
					<dim>1</dim>
				</port>
			</output>
		</layer>
		<layer id="261" name="3143314718649" type="Const" version="opset1">
			<data offset="57768" size="3264" shape="1,816,1,1" element_type="f32"/>
			<output>
				<port id="0" precision="FP32">
					<dim>1</dim>
					<dim>816</dim>
					<dim>1</dim>
					<dim>1</dim>
				</port>
			</output>
		</layer>
		<layer id="262" name="4172417618553" type="Const" version="opset1">
			<data offset="61032" size="4" shape="" element_type="f32"/>
			<output>
				<port id="0" precision="FP32"/>
			</output>
		</layer>
		<layer id="263" name="4173417719735" type="Const" version="opset1">
			<data offset="61036" size="4" shape="" element_type="f32"/>
			<output>
				<port id="0" precision="FP32"/>
			</output>
		</layer>
		<layer id="264" name="4174417818007" type="Const" version="opset1">
			<data offset="61032" size="4" shape="" element_type="f32"/>
			<output>
				<port id="0" precision="FP32"/>
			</output>
		</layer>
		<layer id="265" name="4175417919060" type="Const" version="opset1">
			<data offset="61036" size="4" shape="" element_type="f32"/>
			<output>
				<port id="0" precision="FP32"/>
			</output>
		</layer>
		<layer id="266" name="3950395420161" type="Const" version="opset1">
			<data offset="0" size="4" shape="" element_type="f32"/>
			<output>
				<port id="0" precision="FP32"/>
			</output>
		</layer>
		<layer id="267" name="3951395518640" type="Const" version="opset1">
			<data offset="2280" size="4" shape="" element_type="f32"/>
			<output>
				<port id="0" precision="FP32"/>
			</output>
		</layer>
		<layer id="268" name="3952395617611" type="Const" version="opset1">
			<data offset="0" size="4" shape="" element_type="f32"/>
			<output>
				<port id="0" precision="FP32"/>
			</output>
		</layer>
		<layer id="269" name="3953395720146" type="Const" version="opset1">
			<data offset="2280" size="4" shape="" element_type="f32"/>
			<output>
				<port id="0" precision="FP32"/>
			</output>
		</layer>
		<layer id="270" name="2680268418166" type="Const" version="opset1">
			<data offset="61040" size="2304" shape="1,576,1,1" element_type="f32"/>
			<output>
				<port id="0" precision="FP32">
					<dim>1</dim>
					<dim>576</dim>
					<dim>1</dim>
					<dim>1</dim>
				</port>
			</output>
		</layer>
		<layer id="271" name="2681268517689" type="Const" version="opset1">
			<data offset="63344" size="2304" shape="1,576,1,1" element_type="f32"/>
			<output>
				<port id="0" precision="FP32">
					<dim>1</dim>
					<dim>576</dim>
					<dim>1</dim>
					<dim>1</dim>
				</port>
			</output>
		</layer>
		<layer id="272" name="2682268617872" type="Const" version="opset1">
			<data offset="61040" size="2304" shape="1,576,1,1" element_type="f32"/>
			<output>
				<port id="0" precision="FP32">
					<dim>1</dim>
					<dim>576</dim>
					<dim>1</dim>
					<dim>1</dim>
				</port>
			</output>
		</layer>
		<layer id="273" name="2683268717410" type="Const" version="opset1">
			<data offset="63344" size="2304" shape="1,576,1,1" element_type="f32"/>
			<output>
				<port id="0" precision="FP32">
					<dim>1</dim>
					<dim>576</dim>
					<dim>1</dim>
					<dim>1</dim>
				</port>
			</output>
		</layer>
		<layer id="274" name="3100310420059" type="Const" version="opset1">
			<data offset="65648" size="4" shape="" element_type="f32"/>
			<output>
				<port id="0" precision="FP32"/>
			</output>
		</layer>
		<layer id="275" name="3101310517620" type="Const" version="opset1">
			<data offset="65652" size="4" shape="" element_type="f32"/>
			<output>
				<port id="0" precision="FP32"/>
			</output>
		</layer>
		<layer id="276" name="3102310618607" type="Const" version="opset1">
			<data offset="65648" size="4" shape="" element_type="f32"/>
			<output>
				<port id="0" precision="FP32"/>
			</output>
		</layer>
		<layer id="277" name="3103310718490" type="Const" version="opset1">
			<data offset="65652" size="4" shape="" element_type="f32"/>
			<output>
				<port id="0" precision="FP32"/>
			</output>
		</layer>
		<layer id="278" name="3850385418865" type="Const" version="opset1">
			<data offset="65656" size="4" shape="" element_type="f32"/>
			<output>
				<port id="0" precision="FP32"/>
			</output>
		</layer>
		<layer id="279" name="3851385519741" type="Const" version="opset1">
			<data offset="65660" size="4" shape="" element_type="f32"/>
			<output>
				<port id="0" precision="FP32"/>
			</output>
		</layer>
		<layer id="280" name="3852385617992" type="Const" version="opset1">
			<data offset="65656" size="4" shape="" element_type="f32"/>
			<output>
				<port id="0" precision="FP32"/>
			</output>
		</layer>
		<layer id="281" name="3853385717590" type="Const" version="opset1">
			<data offset="65660" size="4" shape="" element_type="f32"/>
			<output>
				<port id="0" precision="FP32"/>
			</output>
		</layer>
		<layer id="282" name="2820282418757" type="Const" version="opset1">
			<data offset="0" size="4" shape="" element_type="f32"/>
			<output>
				<port id="0" precision="FP32"/>
			</output>
		</layer>
		<layer id="283" name="2821282519654" type="Const" version="opset1">
			<data offset="65664" size="4" shape="" element_type="f32"/>
			<output>
				<port id="0" precision="FP32"/>
			</output>
		</layer>
		<layer id="284" name="2822282619033" type="Const" version="opset1">
			<data offset="0" size="4" shape="" element_type="f32"/>
			<output>
				<port id="0" precision="FP32"/>
			</output>
		</layer>
		<layer id="285" name="2823282720218" type="Const" version="opset1">
			<data offset="65664" size="4" shape="" element_type="f32"/>
			<output>
				<port id="0" precision="FP32"/>
			</output>
		</layer>
		<layer id="286" name="2340234418766" type="Const" version="opset1">
			<data offset="61040" size="2304" shape="1,576,1,1" element_type="f32"/>
			<output>
				<port id="0" precision="FP32">
					<dim>1</dim>
					<dim>576</dim>
					<dim>1</dim>
					<dim>1</dim>
				</port>
			</output>
		</layer>
		<layer id="287" name="2341234518316" type="Const" version="opset1">
			<data offset="65668" size="2304" shape="1,576,1,1" element_type="f32"/>
			<output>
				<port id="0" precision="FP32">
					<dim>1</dim>
					<dim>576</dim>
					<dim>1</dim>
					<dim>1</dim>
				</port>
			</output>
		</layer>
		<layer id="288" name="2342234618505" type="Const" version="opset1">
			<data offset="61040" size="2304" shape="1,576,1,1" element_type="f32"/>
			<output>
				<port id="0" precision="FP32">
					<dim>1</dim>
					<dim>576</dim>
					<dim>1</dim>
					<dim>1</dim>
				</port>
			</output>
		</layer>
		<layer id="289" name="2343234717953" type="Const" version="opset1">
			<data offset="65668" size="2304" shape="1,576,1,1" element_type="f32"/>
			<output>
				<port id="0" precision="FP32">
					<dim>1</dim>
					<dim>576</dim>
					<dim>1</dim>
					<dim>1</dim>
				</port>
			</output>
		</layer>
		<layer id="290" name="3860386417602" type="Const" version="opset1">
			<data offset="67972" size="4" shape="" element_type="f32"/>
			<output>
				<port id="0" precision="FP32"/>
			</output>
		</layer>
		<layer id="291" name="3861386518523" type="Const" version="opset1">
			<data offset="67976" size="4" shape="" element_type="f32"/>
			<output>
				<port id="0" precision="FP32"/>
			</output>
		</layer>
		<layer id="292" name="3862386617623" type="Const" version="opset1">
			<data offset="67972" size="4" shape="" element_type="f32"/>
			<output>
				<port id="0" precision="FP32"/>
			</output>
		</layer>
		<layer id="293" name="3863386719939" type="Const" version="opset1">
			<data offset="67976" size="4" shape="" element_type="f32"/>
			<output>
				<port id="0" precision="FP32"/>
			</output>
		</layer>
		<layer id="294" name="3260326418742" type="Const" version="opset1">
			<data offset="67980" size="4" shape="" element_type="f32"/>
			<output>
				<port id="0" precision="FP32"/>
			</output>
		</layer>
		<layer id="295" name="3261326517686" type="Const" version="opset1">
			<data offset="67984" size="4" shape="" element_type="f32"/>
			<output>
				<port id="0" precision="FP32"/>
			</output>
		</layer>
		<layer id="296" name="3262326617464" type="Const" version="opset1">
			<data offset="67980" size="4" shape="" element_type="f32"/>
			<output>
				<port id="0" precision="FP32"/>
			</output>
		</layer>
		<layer id="297" name="3263326720215" type="Const" version="opset1">
			<data offset="67984" size="4" shape="" element_type="f32"/>
			<output>
				<port id="0" precision="FP32"/>
			</output>
		</layer>
		<layer id="298" name="4282428618625" type="Const" version="opset1">
			<data offset="0" size="4" shape="" element_type="f32"/>
			<output>
				<port id="0" precision="FP32"/>
			</output>
		</layer>
		<layer id="299" name="4283428718058" type="Const" version="opset1">
			<data offset="2280" size="4" shape="" element_type="f32"/>
			<output>
				<port id="0" precision="FP32"/>
			</output>
		</layer>
		<layer id="300" name="4284428817722" type="Const" version="opset1">
			<data offset="0" size="4" shape="" element_type="f32"/>
			<output>
				<port id="0" precision="FP32"/>
			</output>
		</layer>
		<layer id="301" name="4285428917869" type="Const" version="opset1">
			<data offset="2280" size="4" shape="" element_type="f32"/>
			<output>
				<port id="0" precision="FP32"/>
			</output>
		</layer>
		<layer id="302" name="1880188419729" type="Const" version="opset1">
			<data offset="61040" size="2304" shape="1,576,1,1" element_type="f32"/>
			<output>
				<port id="0" precision="FP32">
					<dim>1</dim>
					<dim>576</dim>
					<dim>1</dim>
					<dim>1</dim>
				</port>
			</output>
		</layer>
		<layer id="303" name="1881188518574" type="Const" version="opset1">
			<data offset="67988" size="2304" shape="1,576,1,1" element_type="f32"/>
			<output>
				<port id="0" precision="FP32">
					<dim>1</dim>
					<dim>576</dim>
					<dim>1</dim>
					<dim>1</dim>
				</port>
			</output>
		</layer>
		<layer id="304" name="1882188619441" type="Const" version="opset1">
			<data offset="61040" size="2304" shape="1,576,1,1" element_type="f32"/>
			<output>
				<port id="0" precision="FP32">
					<dim>1</dim>
					<dim>576</dim>
					<dim>1</dim>
					<dim>1</dim>
				</port>
			</output>
		</layer>
		<layer id="305" name="1883188717860" type="Const" version="opset1">
			<data offset="67988" size="2304" shape="1,576,1,1" element_type="f32"/>
			<output>
				<port id="0" precision="FP32">
					<dim>1</dim>
					<dim>576</dim>
					<dim>1</dim>
					<dim>1</dim>
				</port>
			</output>
		</layer>
		<layer id="306" name="3270327417956" type="Const" version="opset1">
			<data offset="70292" size="4" shape="" element_type="f32"/>
			<output>
				<port id="0" precision="FP32"/>
			</output>
		</layer>
		<layer id="307" name="3271327519123" type="Const" version="opset1">
			<data offset="70296" size="4" shape="" element_type="f32"/>
			<output>
				<port id="0" precision="FP32"/>
			</output>
		</layer>
		<layer id="308" name="3272327617785" type="Const" version="opset1">
			<data offset="70292" size="4" shape="" element_type="f32"/>
			<output>
				<port id="0" precision="FP32"/>
			</output>
		</layer>
		<layer id="309" name="3273327719594" type="Const" version="opset1">
			<data offset="70296" size="4" shape="" element_type="f32"/>
			<output>
				<port id="0" precision="FP32"/>
			</output>
		</layer>
		<layer id="310" name="2840284418385" type="Const" version="opset1">
			<data offset="70300" size="4" shape="" element_type="f32"/>
			<output>
				<port id="0" precision="FP32"/>
			</output>
		</layer>
		<layer id="311" name="2841284520005" type="Const" version="opset1">
			<data offset="70304" size="4" shape="" element_type="f32"/>
			<output>
				<port id="0" precision="FP32"/>
			</output>
		</layer>
		<layer id="312" name="2842284620170" type="Const" version="opset1">
			<data offset="70300" size="4" shape="" element_type="f32"/>
			<output>
				<port id="0" precision="FP32"/>
			</output>
		</layer>
		<layer id="313" name="2843284718973" type="Const" version="opset1">
			<data offset="70304" size="4" shape="" element_type="f32"/>
			<output>
				<port id="0" precision="FP32"/>
			</output>
		</layer>
		<layer id="314" name="3560356418256" type="Const" version="opset1">
			<data offset="0" size="4" shape="" element_type="f32"/>
			<output>
				<port id="0" precision="FP32"/>
			</output>
		</layer>
		<layer id="315" name="3561356518739" type="Const" version="opset1">
			<data offset="70308" size="4" shape="" element_type="f32"/>
			<output>
				<port id="0" precision="FP32"/>
			</output>
		</layer>
		<layer id="316" name="3562356620011" type="Const" version="opset1">
			<data offset="0" size="4" shape="" element_type="f32"/>
			<output>
				<port id="0" precision="FP32"/>
			</output>
		</layer>
		<layer id="317" name="3563356718820" type="Const" version="opset1">
			<data offset="70308" size="4" shape="" element_type="f32"/>
			<output>
				<port id="0" precision="FP32"/>
			</output>
		</layer>
		<layer id="318" name="3020302420071" type="Const" version="opset1">
			<data offset="61040" size="2304" shape="1,576,1,1" element_type="f32"/>
			<output>
				<port id="0" precision="FP32">
					<dim>1</dim>
					<dim>576</dim>
					<dim>1</dim>
					<dim>1</dim>
				</port>
			</output>
		</layer>
		<layer id="319" name="3021302517842" type="Const" version="opset1">
			<data offset="70312" size="2304" shape="1,576,1,1" element_type="f32"/>
			<output>
				<port id="0" precision="FP32">
					<dim>1</dim>
					<dim>576</dim>
					<dim>1</dim>
					<dim>1</dim>
				</port>
			</output>
		</layer>
		<layer id="320" name="3022302617950" type="Const" version="opset1">
			<data offset="61040" size="2304" shape="1,576,1,1" element_type="f32"/>
			<output>
				<port id="0" precision="FP32">
					<dim>1</dim>
					<dim>576</dim>
					<dim>1</dim>
					<dim>1</dim>
				</port>
			</output>
		</layer>
		<layer id="321" name="3023302717647" type="Const" version="opset1">
			<data offset="70312" size="2304" shape="1,576,1,1" element_type="f32"/>
			<output>
				<port id="0" precision="FP32">
					<dim>1</dim>
					<dim>576</dim>
					<dim>1</dim>
					<dim>1</dim>
				</port>
			</output>
		</layer>
		<layer id="322" name="2850285418358" type="Const" version="opset1">
			<data offset="72616" size="4" shape="" element_type="f32"/>
			<output>
				<port id="0" precision="FP32"/>
			</output>
		</layer>
		<layer id="323" name="2851285520203" type="Const" version="opset1">
			<data offset="72620" size="4" shape="" element_type="f32"/>
			<output>
				<port id="0" precision="FP32"/>
			</output>
		</layer>
		<layer id="324" name="2852285617644" type="Const" version="opset1">
			<data offset="72616" size="4" shape="" element_type="f32"/>
			<output>
				<port id="0" precision="FP32"/>
			</output>
		</layer>
		<layer id="325" name="2853285718550" type="Const" version="opset1">
			<data offset="72620" size="4" shape="" element_type="f32"/>
			<output>
				<port id="0" precision="FP32"/>
			</output>
		</layer>
		<layer id="326" name="4040404518514" type="Const" version="opset1">
			<data offset="72624" size="4" shape="" element_type="f32"/>
			<output>
				<port id="0" precision="FP32"/>
			</output>
		</layer>
		<layer id="327" name="4041404618052" type="Const" version="opset1">
			<data offset="72628" size="4" shape="" element_type="f32"/>
			<output>
				<port id="0" precision="FP32"/>
			</output>
		</layer>
		<layer id="328" name="4042404718679" type="Const" version="opset1">
			<data offset="72624" size="4" shape="" element_type="f32"/>
			<output>
				<port id="0" precision="FP32"/>
			</output>
		</layer>
		<layer id="329" name="4044404820002" type="Const" version="opset1">
			<data offset="72628" size="4" shape="" element_type="f32"/>
			<output>
				<port id="0" precision="FP32"/>
			</output>
		</layer>
		<layer id="330" name="3540354417596" type="Const" version="opset1">
			<data offset="0" size="4" shape="" element_type="f32"/>
			<output>
				<port id="0" precision="FP32"/>
			</output>
		</layer>
		<layer id="331" name="3541354518454" type="Const" version="opset1">
			<data offset="72632" size="4" shape="" element_type="f32"/>
			<output>
				<port id="0" precision="FP32"/>
			</output>
		</layer>
		<layer id="332" name="3542354617674" type="Const" version="opset1">
			<data offset="0" size="4" shape="" element_type="f32"/>
			<output>
				<port id="0" precision="FP32"/>
			</output>
		</layer>
		<layer id="333" name="3543354720197" type="Const" version="opset1">
			<data offset="72632" size="4" shape="" element_type="f32"/>
			<output>
				<port id="0" precision="FP32"/>
			</output>
		</layer>
		<layer id="334" name="2020202419966" type="Const" version="opset1">
			<data offset="61040" size="2304" shape="1,576,1,1" element_type="f32"/>
			<output>
				<port id="0" precision="FP32">
					<dim>1</dim>
					<dim>576</dim>
					<dim>1</dim>
					<dim>1</dim>
				</port>
			</output>
		</layer>
		<layer id="335" name="2021202518595" type="Const" version="opset1">
			<data offset="72636" size="2304" shape="1,576,1,1" element_type="f32"/>
			<output>
				<port id="0" precision="FP32">
					<dim>1</dim>
					<dim>576</dim>
					<dim>1</dim>
					<dim>1</dim>
				</port>
			</output>
		</layer>
		<layer id="336" name="2022202619018" type="Const" version="opset1">
			<data offset="61040" size="2304" shape="1,576,1,1" element_type="f32"/>
			<output>
				<port id="0" precision="FP32">
					<dim>1</dim>
					<dim>576</dim>
					<dim>1</dim>
					<dim>1</dim>
				</port>
			</output>
		</layer>
		<layer id="337" name="2023202719828" type="Const" version="opset1">
			<data offset="72636" size="2304" shape="1,576,1,1" element_type="f32"/>
			<output>
				<port id="0" precision="FP32">
					<dim>1</dim>
					<dim>576</dim>
					<dim>1</dim>
					<dim>1</dim>
				</port>
			</output>
		</layer>
		<layer id="338" name="4051405517368" type="Const" version="opset1">
			<data offset="74940" size="4" shape="" element_type="f32"/>
			<output>
				<port id="0" precision="FP32"/>
			</output>
		</layer>
		<layer id="339" name="4052405618655" type="Const" version="opset1">
			<data offset="74944" size="4" shape="" element_type="f32"/>
			<output>
				<port id="0" precision="FP32"/>
			</output>
		</layer>
		<layer id="340" name="4053405720164" type="Const" version="opset1">
			<data offset="74940" size="4" shape="" element_type="f32"/>
			<output>
				<port id="0" precision="FP32"/>
			</output>
		</layer>
		<layer id="341" name="4054405819231" type="Const" version="opset1">
			<data offset="74944" size="4" shape="" element_type="f32"/>
			<output>
				<port id="0" precision="FP32"/>
			</output>
		</layer>
		<layer id="342" name="3910391419579" type="Const" version="opset1">
			<data offset="0" size="4" shape="" element_type="f32"/>
			<output>
				<port id="0" precision="FP32"/>
			</output>
		</layer>
		<layer id="343" name="3911391517701" type="Const" version="opset1">
			<data offset="2280" size="4" shape="" element_type="f32"/>
			<output>
				<port id="0" precision="FP32"/>
			</output>
		</layer>
		<layer id="344" name="3912391617326" type="Const" version="opset1">
			<data offset="0" size="4" shape="" element_type="f32"/>
			<output>
				<port id="0" precision="FP32"/>
			</output>
		</layer>
		<layer id="345" name="3913391719237" type="Const" version="opset1">
			<data offset="2280" size="4" shape="" element_type="f32"/>
			<output>
				<port id="0" precision="FP32"/>
			</output>
		</layer>
		<layer id="346" name="2420242418979" type="Const" version="opset1">
			<data offset="74948" size="1152" shape="1,288,1,1" element_type="f32"/>
			<output>
				<port id="0" precision="FP32">
					<dim>1</dim>
					<dim>288</dim>
					<dim>1</dim>
					<dim>1</dim>
				</port>
			</output>
		</layer>
		<layer id="347" name="2421242519645" type="Const" version="opset1">
			<data offset="76100" size="1152" shape="1,288,1,1" element_type="f32"/>
			<output>
				<port id="0" precision="FP32">
					<dim>1</dim>
					<dim>288</dim>
					<dim>1</dim>
					<dim>1</dim>
				</port>
			</output>
		</layer>
		<layer id="348" name="2422242618787" type="Const" version="opset1">
			<data offset="74948" size="1152" shape="1,288,1,1" element_type="f32"/>
			<output>
				<port id="0" precision="FP32">
					<dim>1</dim>
					<dim>288</dim>
					<dim>1</dim>
					<dim>1</dim>
				</port>
			</output>
		</layer>
		<layer id="349" name="2423242720185" type="Const" version="opset1">
			<data offset="76100" size="1152" shape="1,288,1,1" element_type="f32"/>
			<output>
				<port id="0" precision="FP32">
					<dim>1</dim>
					<dim>288</dim>
					<dim>1</dim>
					<dim>1</dim>
				</port>
			</output>
		</layer>
		<layer id="350" name="4222422618178" type="Const" version="opset1">
			<data offset="77252" size="4" shape="" element_type="f32"/>
			<output>
				<port id="0" precision="FP32"/>
			</output>
		</layer>
		<layer id="351" name="4223422719066" type="Const" version="opset1">
			<data offset="77256" size="4" shape="" element_type="f32"/>
			<output>
				<port id="0" precision="FP32"/>
			</output>
		</layer>
		<layer id="352" name="4224422818562" type="Const" version="opset1">
			<data offset="77252" size="4" shape="" element_type="f32"/>
			<output>
				<port id="0" precision="FP32"/>
			</output>
		</layer>
		<layer id="353" name="4225422918631" type="Const" version="opset1">
			<data offset="77256" size="4" shape="" element_type="f32"/>
			<output>
				<port id="0" precision="FP32"/>
			</output>
		</layer>
		<layer id="354" name="3620362419531" type="Const" version="opset1">
			<data offset="77260" size="4" shape="" element_type="f32"/>
			<output>
				<port id="0" precision="FP32"/>
			</output>
		</layer>
		<layer id="355" name="3621362519159" type="Const" version="opset1">
			<data offset="77264" size="4" shape="" element_type="f32"/>
			<output>
				<port id="0" precision="FP32"/>
			</output>
		</layer>
		<layer id="356" name="3622362619762" type="Const" version="opset1">
			<data offset="77260" size="4" shape="" element_type="f32"/>
			<output>
				<port id="0" precision="FP32"/>
			</output>
		</layer>
		<layer id="357" name="3623362717332" type="Const" version="opset1">
			<data offset="77264" size="4" shape="" element_type="f32"/>
			<output>
				<port id="0" precision="FP32"/>
			</output>
		</layer>
		<layer id="358" name="2240224419462" type="Const" version="opset1">
			<data offset="0" size="4" shape="" element_type="f32"/>
			<output>
				<port id="0" precision="FP32"/>
			</output>
		</layer>
		<layer id="359" name="2241224520173" type="Const" version="opset1">
			<data offset="77268" size="4" shape="" element_type="f32"/>
			<output>
				<port id="0" precision="FP32"/>
			</output>
		</layer>
		<layer id="360" name="2242224619114" type="Const" version="opset1">
			<data offset="0" size="4" shape="" element_type="f32"/>
			<output>
				<port id="0" precision="FP32"/>
			</output>
		</layer>
		<layer id="361" name="2243224718586" type="Const" version="opset1">
			<data offset="77268" size="4" shape="" element_type="f32"/>
			<output>
				<port id="0" precision="FP32"/>
			</output>
		</layer>
		<layer id="362" name="3600360419156" type="Const" version="opset1">
			<data offset="74948" size="1152" shape="1,288,1,1" element_type="f32"/>
			<output>
				<port id="0" precision="FP32">
					<dim>1</dim>
					<dim>288</dim>
					<dim>1</dim>
					<dim>1</dim>
				</port>
			</output>
		</layer>
		<layer id="363" name="3601360517875" type="Const" version="opset1">
			<data offset="77272" size="1152" shape="1,288,1,1" element_type="f32"/>
			<output>
				<port id="0" precision="FP32">
					<dim>1</dim>
					<dim>288</dim>
					<dim>1</dim>
					<dim>1</dim>
				</port>
			</output>
		</layer>
		<layer id="364" name="3602360618814" type="Const" version="opset1">
			<data offset="74948" size="1152" shape="1,288,1,1" element_type="f32"/>
			<output>
				<port id="0" precision="FP32">
					<dim>1</dim>
					<dim>288</dim>
					<dim>1</dim>
					<dim>1</dim>
				</port>
			</output>
		</layer>
		<layer id="365" name="3603360719990" type="Const" version="opset1">
			<data offset="77272" size="1152" shape="1,288,1,1" element_type="f32"/>
			<output>
				<port id="0" precision="FP32">
					<dim>1</dim>
					<dim>288</dim>
					<dim>1</dim>
					<dim>1</dim>
				</port>
			</output>
		</layer>
		<layer id="366" name="3630363417914" type="Const" version="opset1">
			<data offset="78424" size="4" shape="" element_type="f32"/>
			<output>
				<port id="0" precision="FP32"/>
			</output>
		</layer>
		<layer id="367" name="3631363518826" type="Const" version="opset1">
			<data offset="78428" size="4" shape="" element_type="f32"/>
			<output>
				<port id="0" precision="FP32"/>
			</output>
		</layer>
		<layer id="368" name="3632363619714" type="Const" version="opset1">
			<data offset="78424" size="4" shape="" element_type="f32"/>
			<output>
				<port id="0" precision="FP32"/>
			</output>
		</layer>
		<layer id="369" name="3633363717758" type="Const" version="opset1">
			<data offset="78428" size="4" shape="" element_type="f32"/>
			<output>
				<port id="0" precision="FP32"/>
			</output>
		</layer>
		<layer id="370" name="4302430618049" type="Const" version="opset1">
			<data offset="78432" size="4" shape="" element_type="f32"/>
			<output>
				<port id="0" precision="FP32"/>
			</output>
		</layer>
		<layer id="371" name="4303430718517" type="Const" version="opset1">
			<data offset="78436" size="4" shape="" element_type="f32"/>
			<output>
				<port id="0" precision="FP32"/>
			</output>
		</layer>
		<layer id="372" name="4304430817455" type="Const" version="opset1">
			<data offset="78432" size="4" shape="" element_type="f32"/>
			<output>
				<port id="0" precision="FP32"/>
			</output>
		</layer>
		<layer id="373" name="4305430919822" type="Const" version="opset1">
			<data offset="78436" size="4" shape="" element_type="f32"/>
			<output>
				<port id="0" precision="FP32"/>
			</output>
		</layer>
		<layer id="374" name="2480248417890" type="Const" version="opset1">
			<data offset="0" size="4" shape="" element_type="f32"/>
			<output>
				<port id="0" precision="FP32"/>
			</output>
		</layer>
		<layer id="375" name="2481248518700" type="Const" version="opset1">
			<data offset="2280" size="4" shape="" element_type="f32"/>
			<output>
				<port id="0" precision="FP32"/>
			</output>
		</layer>
		<layer id="376" name="2482248618538" type="Const" version="opset1">
			<data offset="0" size="4" shape="" element_type="f32"/>
			<output>
				<port id="0" precision="FP32"/>
			</output>
		</layer>
		<layer id="377" name="2483248718904" type="Const" version="opset1">
			<data offset="2280" size="4" shape="" element_type="f32"/>
			<output>
				<port id="0" precision="FP32"/>
			</output>
		</layer>
		<layer id="378" name="1800180419180" type="Const" version="opset1">
			<data offset="74948" size="1152" shape="1,288,1,1" element_type="f32"/>
			<output>
				<port id="0" precision="FP32">
					<dim>1</dim>
					<dim>288</dim>
					<dim>1</dim>
					<dim>1</dim>
				</port>
			</output>
		</layer>
		<layer id="379" name="1801180518658" type="Const" version="opset1">
			<data offset="78440" size="1152" shape="1,288,1,1" element_type="f32"/>
			<output>
				<port id="0" precision="FP32">
					<dim>1</dim>
					<dim>288</dim>
					<dim>1</dim>
					<dim>1</dim>
				</port>
			</output>
		</layer>
		<layer id="380" name="1802180617851" type="Const" version="opset1">
			<data offset="74948" size="1152" shape="1,288,1,1" element_type="f32"/>
			<output>
				<port id="0" precision="FP32">
					<dim>1</dim>
					<dim>288</dim>
					<dim>1</dim>
					<dim>1</dim>
				</port>
			</output>
		</layer>
		<layer id="381" name="1803180719738" type="Const" version="opset1">
			<data offset="78440" size="1152" shape="1,288,1,1" element_type="f32"/>
			<output>
				<port id="0" precision="FP32">
					<dim>1</dim>
					<dim>288</dim>
					<dim>1</dim>
					<dim>1</dim>
				</port>
			</output>
		</layer>
		<layer id="382" name="4312431619306" type="Const" version="opset1">
			<data offset="79592" size="4" shape="" element_type="f32"/>
			<output>
				<port id="0" precision="FP32"/>
			</output>
		</layer>
		<layer id="383" name="4313431719261" type="Const" version="opset1">
			<data offset="79596" size="4" shape="" element_type="f32"/>
			<output>
				<port id="0" precision="FP32"/>
			</output>
		</layer>
		<layer id="384" name="4314431817428" type="Const" version="opset1">
			<data offset="79592" size="4" shape="" element_type="f32"/>
			<output>
				<port id="0" precision="FP32"/>
			</output>
		</layer>
		<layer id="385" name="4315431919309" type="Const" version="opset1">
			<data offset="79596" size="4" shape="" element_type="f32"/>
			<output>
				<port id="0" precision="FP32"/>
			</output>
		</layer>
		<layer id="386" name="2780278417500" type="Const" version="opset1">
			<data offset="0" size="4" shape="" element_type="f32"/>
			<output>
				<port id="0" precision="FP32"/>
			</output>
		</layer>
		<layer id="387" name="2781278518958" type="Const" version="opset1">
			<data offset="2280" size="4" shape="" element_type="f32"/>
			<output>
				<port id="0" precision="FP32"/>
			</output>
		</layer>
		<layer id="388" name="2782278619813" type="Const" version="opset1">
			<data offset="0" size="4" shape="" element_type="f32"/>
			<output>
				<port id="0" precision="FP32"/>
			</output>
		</layer>
		<layer id="389" name="2783278719501" type="Const" version="opset1">
			<data offset="2280" size="4" shape="" element_type="f32"/>
			<output>
				<port id="0" precision="FP32"/>
			</output>
		</layer>
		<layer id="390" name="2660266418457" type="Const" version="opset1">
			<data offset="79600" size="768" shape="1,192,1,1" element_type="f32"/>
			<output>
				<port id="0" precision="FP32">
					<dim>1</dim>
					<dim>192</dim>
					<dim>1</dim>
					<dim>1</dim>
				</port>
			</output>
		</layer>
		<layer id="391" name="2661266518388" type="Const" version="opset1">
			<data offset="80368" size="768" shape="1,192,1,1" element_type="f32"/>
			<output>
				<port id="0" precision="FP32">
					<dim>1</dim>
					<dim>192</dim>
					<dim>1</dim>
					<dim>1</dim>
				</port>
			</output>
		</layer>
		<layer id="392" name="2662266618277" type="Const" version="opset1">
			<data offset="79600" size="768" shape="1,192,1,1" element_type="f32"/>
			<output>
				<port id="0" precision="FP32">
					<dim>1</dim>
					<dim>192</dim>
					<dim>1</dim>
					<dim>1</dim>
				</port>
			</output>
		</layer>
		<layer id="393" name="2663266718838" type="Const" version="opset1">
			<data offset="80368" size="768" shape="1,192,1,1" element_type="f32"/>
			<output>
				<port id="0" precision="FP32">
					<dim>1</dim>
					<dim>192</dim>
					<dim>1</dim>
					<dim>1</dim>
				</port>
			</output>
		</layer>
		<layer id="394" name="3710371419969" type="Const" version="opset1">
			<data offset="81136" size="4" shape="" element_type="f32"/>
			<output>
				<port id="0" precision="FP32"/>
			</output>
		</layer>
		<layer id="395" name="3711371519972" type="Const" version="opset1">
			<data offset="81140" size="4" shape="" element_type="f32"/>
			<output>
				<port id="0" precision="FP32"/>
			</output>
		</layer>
		<layer id="396" name="3712371618355" type="Const" version="opset1">
			<data offset="81136" size="4" shape="" element_type="f32"/>
			<output>
				<port id="0" precision="FP32"/>
			</output>
		</layer>
		<layer id="397" name="3713371719177" type="Const" version="opset1">
			<data offset="81140" size="4" shape="" element_type="f32"/>
			<output>
				<port id="0" precision="FP32"/>
			</output>
		</layer>
		<layer id="398" name="1980198418637" type="Const" version="opset1">
			<data offset="81144" size="4" shape="" element_type="f32"/>
			<output>
				<port id="0" precision="FP32"/>
			</output>
		</layer>
		<layer id="399" name="1981198519957" type="Const" version="opset1">
			<data offset="81148" size="4" shape="" element_type="f32"/>
			<output>
				<port id="0" precision="FP32"/>
			</output>
		</layer>
		<layer id="400" name="1982198619804" type="Const" version="opset1">
			<data offset="81144" size="4" shape="" element_type="f32"/>
			<output>
				<port id="0" precision="FP32"/>
			</output>
		</layer>
		<layer id="401" name="1983198719378" type="Const" version="opset1">
			<data offset="81148" size="4" shape="" element_type="f32"/>
			<output>
				<port id="0" precision="FP32"/>
			</output>
		</layer>
		<layer id="402" name="3060306417680" type="Const" version="opset1">
			<data offset="0" size="4" shape="" element_type="f32"/>
			<output>
				<port id="0" precision="FP32"/>
			</output>
		</layer>
		<layer id="403" name="3061306520014" type="Const" version="opset1">
			<data offset="2280" size="4" shape="" element_type="f32"/>
			<output>
				<port id="0" precision="FP32"/>
			</output>
		</layer>
		<layer id="404" name="3062306618073" type="Const" version="opset1">
			<data offset="0" size="4" shape="" element_type="f32"/>
			<output>
				<port id="0" precision="FP32"/>
			</output>
		</layer>
		<layer id="405" name="3063306718268" type="Const" version="opset1">
			<data offset="2280" size="4" shape="" element_type="f32"/>
			<output>
				<port id="0" precision="FP32"/>
			</output>
		</layer>
		<layer id="406" name="3670367417566" type="Const" version="opset1">
			<data offset="79600" size="768" shape="1,192,1,1" element_type="f32"/>
			<output>
				<port id="0" precision="FP32">
					<dim>1</dim>
					<dim>192</dim>
					<dim>1</dim>
					<dim>1</dim>
				</port>
			</output>
		</layer>
		<layer id="407" name="3671367518886" type="Const" version="opset1">
			<data offset="81152" size="768" shape="1,192,1,1" element_type="f32"/>
			<output>
				<port id="0" precision="FP32">
					<dim>1</dim>
					<dim>192</dim>
					<dim>1</dim>
					<dim>1</dim>
				</port>
			</output>
		</layer>
		<layer id="408" name="3672367619615" type="Const" version="opset1">
			<data offset="79600" size="768" shape="1,192,1,1" element_type="f32"/>
			<output>
				<port id="0" precision="FP32">
					<dim>1</dim>
					<dim>192</dim>
					<dim>1</dim>
					<dim>1</dim>
				</port>
			</output>
		</layer>
		<layer id="409" name="3673367718613" type="Const" version="opset1">
			<data offset="81152" size="768" shape="1,192,1,1" element_type="f32"/>
			<output>
				<port id="0" precision="FP32">
					<dim>1</dim>
					<dim>192</dim>
					<dim>1</dim>
					<dim>1</dim>
				</port>
			</output>
		</layer>
		<layer id="410" name="1990199418109" type="Const" version="opset1">
			<data offset="81920" size="4" shape="" element_type="f32"/>
			<output>
				<port id="0" precision="FP32"/>
			</output>
		</layer>
		<layer id="411" name="1991199519294" type="Const" version="opset1">
			<data offset="81924" size="4" shape="" element_type="f32"/>
			<output>
				<port id="0" precision="FP32"/>
			</output>
		</layer>
		<layer id="412" name="1992199620158" type="Const" version="opset1">
			<data offset="81920" size="4" shape="" element_type="f32"/>
			<output>
				<port id="0" precision="FP32"/>
			</output>
		</layer>
		<layer id="413" name="1993199717740" type="Const" version="opset1">
			<data offset="81924" size="4" shape="" element_type="f32"/>
			<output>
				<port id="0" precision="FP32"/>
			</output>
		</layer>
		<layer id="414" name="3930393418010" type="Const" version="opset1">
			<data offset="81928" size="4" shape="" element_type="f32"/>
			<output>
				<port id="0" precision="FP32"/>
			</output>
		</layer>
		<layer id="415" name="3931393518535" type="Const" version="opset1">
			<data offset="81932" size="4" shape="" element_type="f32"/>
			<output>
				<port id="0" precision="FP32"/>
			</output>
		</layer>
		<layer id="416" name="3932393619816" type="Const" version="opset1">
			<data offset="81928" size="4" shape="" element_type="f32"/>
			<output>
				<port id="0" precision="FP32"/>
			</output>
		</layer>
		<layer id="417" name="3933393719021" type="Const" version="opset1">
			<data offset="81932" size="4" shape="" element_type="f32"/>
			<output>
				<port id="0" precision="FP32"/>
			</output>
		</layer>
		<layer id="418" name="3300330420212" type="Const" version="opset1">
			<data offset="0" size="4" shape="" element_type="f32"/>
			<output>
				<port id="0" precision="FP32"/>
			</output>
		</layer>
		<layer id="419" name="3301330518307" type="Const" version="opset1">
			<data offset="2280" size="4" shape="" element_type="f32"/>
			<output>
				<port id="0" precision="FP32"/>
			</output>
		</layer>
		<layer id="420" name="3302330619417" type="Const" version="opset1">
			<data offset="0" size="4" shape="" element_type="f32"/>
			<output>
				<port id="0" precision="FP32"/>
			</output>
		</layer>
		<layer id="421" name="3303330717599" type="Const" version="opset1">
			<data offset="2280" size="4" shape="" element_type="f32"/>
			<output>
				<port id="0" precision="FP32"/>
			</output>
		</layer>
		<layer id="422" name="4081408518085" type="Const" version="opset1">
			<data offset="79600" size="768" shape="1,192,1,1" element_type="f32"/>
			<output>
				<port id="0" precision="FP32">
					<dim>1</dim>
					<dim>192</dim>
					<dim>1</dim>
					<dim>1</dim>
				</port>
			</output>
		</layer>
		<layer id="423" name="4082408618115" type="Const" version="opset1">
			<data offset="81936" size="768" shape="1,192,1,1" element_type="f32"/>
			<output>
				<port id="0" precision="FP32">
					<dim>1</dim>
					<dim>192</dim>
					<dim>1</dim>
					<dim>1</dim>
				</port>
			</output>
		</layer>
		<layer id="424" name="4083408719042" type="Const" version="opset1">
			<data offset="79600" size="768" shape="1,192,1,1" element_type="f32"/>
			<output>
				<port id="0" precision="FP32">
					<dim>1</dim>
					<dim>192</dim>
					<dim>1</dim>
					<dim>1</dim>
				</port>
			</output>
		</layer>
		<layer id="425" name="4084408817746" type="Const" version="opset1">
			<data offset="81936" size="768" shape="1,192,1,1" element_type="f32"/>
			<output>
				<port id="0" precision="FP32">
					<dim>1</dim>
					<dim>192</dim>
					<dim>1</dim>
					<dim>1</dim>
				</port>
			</output>
		</layer>
		<layer id="426" name="3940394418976" type="Const" version="opset1">
			<data offset="82704" size="4" shape="" element_type="f32"/>
			<output>
				<port id="0" precision="FP32"/>
			</output>
		</layer>
		<layer id="427" name="3941394518949" type="Const" version="opset1">
			<data offset="82708" size="4" shape="" element_type="f32"/>
			<output>
				<port id="0" precision="FP32"/>
			</output>
		</layer>
		<layer id="428" name="3942394617788" type="Const" version="opset1">
			<data offset="82704" size="4" shape="" element_type="f32"/>
			<output>
				<port id="0" precision="FP32"/>
			</output>
		</layer>
		<layer id="429" name="3943394719183" type="Const" version="opset1">
			<data offset="82708" size="4" shape="" element_type="f32"/>
			<output>
				<port id="0" precision="FP32"/>
			</output>
		</layer>
		<layer id="430" name="2080208419888" type="Const" version="opset1">
			<data offset="0" size="4" shape="" element_type="f32"/>
			<output>
				<port id="0" precision="FP32"/>
			</output>
		</layer>
		<layer id="431" name="2081208519063" type="Const" version="opset1">
			<data offset="2280" size="4" shape="" element_type="f32"/>
			<output>
				<port id="0" precision="FP32"/>
			</output>
		</layer>
		<layer id="432" name="2082208617548" type="Const" version="opset1">
			<data offset="0" size="4" shape="" element_type="f32"/>
			<output>
				<port id="0" precision="FP32"/>
			</output>
		</layer>
		<layer id="433" name="2083208717476" type="Const" version="opset1">
			<data offset="2280" size="4" shape="" element_type="f32"/>
			<output>
				<port id="0" precision="FP32"/>
			</output>
		</layer>
		<layer id="434" name="2140214418448" type="Const" version="opset1">
			<data offset="82712" size="576" shape="1,144,1,1" element_type="f32"/>
			<output>
				<port id="0" precision="FP32">
					<dim>1</dim>
					<dim>144</dim>
					<dim>1</dim>
					<dim>1</dim>
				</port>
			</output>
		</layer>
		<layer id="435" name="2141214517833" type="Const" version="opset1">
			<data offset="83288" size="576" shape="1,144,1,1" element_type="f32"/>
			<output>
				<port id="0" precision="FP32">
					<dim>1</dim>
					<dim>144</dim>
					<dim>1</dim>
					<dim>1</dim>
				</port>
			</output>
		</layer>
		<layer id="436" name="2142214617761" type="Const" version="opset1">
			<data offset="82712" size="576" shape="1,144,1,1" element_type="f32"/>
			<output>
				<port id="0" precision="FP32">
					<dim>1</dim>
					<dim>144</dim>
					<dim>1</dim>
					<dim>1</dim>
				</port>
			</output>
		</layer>
		<layer id="437" name="2143214717467" type="Const" version="opset1">
			<data offset="83288" size="576" shape="1,144,1,1" element_type="f32"/>
			<output>
				<port id="0" precision="FP32">
					<dim>1</dim>
					<dim>144</dim>
					<dim>1</dim>
					<dim>1</dim>
				</port>
			</output>
		</layer>
		<layer id="438" name="3000300418730" type="Const" version="opset1">
			<data offset="83864" size="4" shape="" element_type="f32"/>
			<output>
				<port id="0" precision="FP32"/>
			</output>
		</layer>
		<layer id="439" name="3001300517497" type="Const" version="opset1">
			<data offset="83868" size="4" shape="" element_type="f32"/>
			<output>
				<port id="0" precision="FP32"/>
			</output>
		</layer>
		<layer id="440" name="3002300619573" type="Const" version="opset1">
			<data offset="83864" size="4" shape="" element_type="f32"/>
			<output>
				<port id="0" precision="FP32"/>
			</output>
		</layer>
		<layer id="441" name="3003300719234" type="Const" version="opset1">
			<data offset="83868" size="4" shape="" element_type="f32"/>
			<output>
				<port id="0" precision="FP32"/>
			</output>
		</layer>
		<layer id="442" name="1940194419447" type="Const" version="opset1">
			<data offset="0" size="4" shape="" element_type="f32"/>
			<output>
				<port id="0" precision="FP32"/>
			</output>
		</layer>
		<layer id="443" name="1941194519591" type="Const" version="opset1">
			<data offset="2280" size="4" shape="" element_type="f32"/>
			<output>
				<port id="0" precision="FP32"/>
			</output>
		</layer>
		<layer id="444" name="1942194617533" type="Const" version="opset1">
			<data offset="0" size="4" shape="" element_type="f32"/>
			<output>
				<port id="0" precision="FP32"/>
			</output>
		</layer>
		<layer id="445" name="1943194717434" type="Const" version="opset1">
			<data offset="2280" size="4" shape="" element_type="f32"/>
			<output>
				<port id="0" precision="FP32"/>
			</output>
		</layer>
		<layer id="446" name="4202420619909" type="Const" version="opset1">
			<data offset="83872" size="128" shape="1,32,1,1" element_type="f32"/>
			<output>
				<port id="0" precision="FP32">
					<dim>1</dim>
					<dim>32</dim>
					<dim>1</dim>
					<dim>1</dim>
				</port>
			</output>
		</layer>
		<layer id="447" name="4203420717335" type="Const" version="opset1">
			<data offset="84000" size="128" shape="1,32,1,1" element_type="f32"/>
			<output>
				<port id="0" precision="FP32">
					<dim>1</dim>
					<dim>32</dim>
					<dim>1</dim>
					<dim>1</dim>
				</port>
			</output>
		</layer>
		<layer id="448" name="4204420819993" type="Const" version="opset1">
			<data offset="83872" size="128" shape="1,32,1,1" element_type="f32"/>
			<output>
				<port id="0" precision="FP32">
					<dim>1</dim>
					<dim>32</dim>
					<dim>1</dim>
					<dim>1</dim>
				</port>
			</output>
		</layer>
		<layer id="449" name="4205420919669" type="Const" version="opset1">
			<data offset="84000" size="128" shape="1,32,1,1" element_type="f32"/>
			<output>
				<port id="0" precision="FP32">
					<dim>1</dim>
					<dim>32</dim>
					<dim>1</dim>
					<dim>1</dim>
				</port>
			</output>
		</layer>
		<layer id="450" name="2440244418091" type="Const" version="opset1">
			<data offset="84128" size="4" shape="" element_type="f32"/>
			<output>
				<port id="0" precision="FP32"/>
			</output>
		</layer>
		<layer id="451" name="2441244518784" type="Const" version="opset1">
			<data offset="84132" size="4" shape="" element_type="f32"/>
			<output>
				<port id="0" precision="FP32"/>
			</output>
		</layer>
		<layer id="452" name="2442244617806" type="Const" version="opset1">
			<data offset="84128" size="4" shape="" element_type="f32"/>
			<output>
				<port id="0" precision="FP32"/>
			</output>
		</layer>
		<layer id="453" name="2443244719657" type="Const" version="opset1">
			<data offset="84132" size="4" shape="" element_type="f32"/>
			<output>
				<port id="0" precision="FP32"/>
			</output>
		</layer>
		<layer id="454" name="input1" type="Parameter" version="opset1">
			<data shape="1,3,224,192" element_type="f32"/>
			<output>
				<port id="0" precision="FP32" names="input1">
					<dim>1</dim>
					<dim>3</dim>
					<dim>224</dim>
					<dim>192</dim>
				</port>
			</output>
		</layer>
		<layer id="455" name="data_mul_926654417269" type="Const" version="opset1">
			<data offset="84136" size="12" shape="1,3,1,1" element_type="f32"/>
			<output>
				<port id="0" precision="FP32">
					<dim>1</dim>
					<dim>3</dim>
					<dim>1</dim>
					<dim>1</dim>
				</port>
			</output>
		</layer>
		<layer id="456" name="input1/scale/Fused_Mul_" type="Multiply" version="opset1">
			<data auto_broadcast="numpy"/>
			<input>
				<port id="0">
					<dim>1</dim>
					<dim>3</dim>
					<dim>224</dim>
					<dim>192</dim>
				</port>
				<port id="1">
					<dim>1</dim>
					<dim>3</dim>
					<dim>1</dim>
					<dim>1</dim>
				</port>
			</input>
			<output>
				<port id="2" precision="FP32">
					<dim>1</dim>
					<dim>3</dim>
					<dim>224</dim>
					<dim>192</dim>
				</port>
			</output>
		</layer>
		<layer id="457" name="data_add_926854617743" type="Const" version="opset1">
			<data offset="84148" size="12" shape="1,3,1,1" element_type="f32"/>
			<output>
				<port id="0" precision="FP32">
					<dim>1</dim>
					<dim>3</dim>
					<dim>1</dim>
					<dim>1</dim>
				</port>
			</output>
		</layer>
		<layer id="458" name="input1/mean/Fused_Add_" type="Add" version="opset1">
			<data auto_broadcast="numpy"/>
			<input>
				<port id="0">
					<dim>1</dim>
					<dim>3</dim>
					<dim>224</dim>
					<dim>192</dim>
				</port>
				<port id="1">
					<dim>1</dim>
					<dim>3</dim>
					<dim>1</dim>
					<dim>1</dim>
				</port>
			</input>
			<output>
				<port id="2" precision="FP32">
					<dim>1</dim>
					<dim>3</dim>
					<dim>224</dim>
					<dim>192</dim>
				</port>
			</output>
		</layer>
		<layer id="459" name="Conv_93/WithoutBiases/fq_input_0" type="FakeQuantize" version="opset1">
			<data levels="256" auto_broadcast="numpy"/>
			<input>
				<port id="0">
					<dim>1</dim>
					<dim>3</dim>
					<dim>224</dim>
					<dim>192</dim>
				</port>
				<port id="1"/>
				<port id="2"/>
				<port id="3"/>
				<port id="4"/>
			</input>
			<output>
				<port id="5" precision="FP32">
					<dim>1</dim>
					<dim>3</dim>
					<dim>224</dim>
					<dim>192</dim>
				</port>
			</output>
		</layer>
		<layer id="460" name="20595489135/quantized1150318232" type="Const" version="opset1">
			<data offset="84160" size="864" shape="32,3,3,3" element_type="i8"/>
			<output>
				<port id="0" precision="I8">
					<dim>32</dim>
					<dim>3</dim>
					<dim>3</dim>
					<dim>3</dim>
				</port>
			</output>
		</layer>
		<layer id="461" name="20595489135/quantized/to_f32" type="Convert" version="opset1">
			<data destination_type="f32"/>
			<input>
				<port id="0">
					<dim>32</dim>
					<dim>3</dim>
					<dim>3</dim>
					<dim>3</dim>
				</port>
			</input>
			<output>
				<port id="1" precision="FP32">
					<dim>32</dim>
					<dim>3</dim>
					<dim>3</dim>
					<dim>3</dim>
				</port>
			</output>
		</layer>
		<layer id="462" name="Conv_93/WithoutBiases/fq_weights_1/zero_point1152217977" type="Const" version="opset1">
			<data offset="85024" size="128" shape="32,1,1,1" element_type="f32"/>
			<output>
				<port id="0" precision="FP32">
					<dim>32</dim>
					<dim>1</dim>
					<dim>1</dim>
					<dim>1</dim>
				</port>
			</output>
		</layer>
		<layer id="463" name="Conv_93/WithoutBiases/fq_weights_1/minus_zp" type="Subtract" version="opset1">
			<data auto_broadcast="numpy"/>
			<input>
				<port id="0">
					<dim>32</dim>
					<dim>3</dim>
					<dim>3</dim>
					<dim>3</dim>
				</port>
				<port id="1">
					<dim>32</dim>
					<dim>1</dim>
					<dim>1</dim>
					<dim>1</dim>
				</port>
			</input>
			<output>
				<port id="2" precision="FP32">
					<dim>32</dim>
					<dim>3</dim>
					<dim>3</dim>
					<dim>3</dim>
				</port>
			</output>
		</layer>
		<layer id="464" name="Conv_93/WithoutBiases/fq_weights_1/scale1151118154" type="Const" version="opset1">
			<data offset="85152" size="128" shape="32,1,1,1" element_type="f32"/>
			<output>
				<port id="0" precision="FP32">
					<dim>32</dim>
					<dim>1</dim>
					<dim>1</dim>
					<dim>1</dim>
				</port>
			</output>
		</layer>
		<layer id="465" name="Conv_93/WithoutBiases/fq_weights_1/mulpiply_by_scale" type="Multiply" version="opset1">
			<data auto_broadcast="numpy"/>
			<input>
				<port id="0">
					<dim>32</dim>
					<dim>3</dim>
					<dim>3</dim>
					<dim>3</dim>
				</port>
				<port id="1">
					<dim>32</dim>
					<dim>1</dim>
					<dim>1</dim>
					<dim>1</dim>
				</port>
			</input>
			<output>
				<port id="2" precision="FP32">
					<dim>32</dim>
					<dim>3</dim>
					<dim>3</dim>
					<dim>3</dim>
				</port>
			</output>
		</layer>
		<layer id="466" name="Conv_93/WithoutBiases" type="Convolution" version="opset1">
			<data auto_pad="explicit" strides="2,2" dilations="1,1" pads_begin="0,0" pads_end="1,1"/>
			<input>
				<port id="0">
					<dim>1</dim>
					<dim>3</dim>
					<dim>224</dim>
					<dim>192</dim>
				</port>
				<port id="1">
					<dim>32</dim>
					<dim>3</dim>
					<dim>3</dim>
					<dim>3</dim>
				</port>
			</input>
			<output>
				<port id="2" precision="FP32">
					<dim>1</dim>
					<dim>32</dim>
					<dim>112</dim>
					<dim>96</dim>
				</port>
			</output>
		</layer>
		<layer id="467" name="Conv_93/Dims540255017857" type="Const" version="opset1">
			<data offset="85280" size="128" shape="1,32,1,1" element_type="f32"/>
			<output>
				<port id="0" precision="FP32">
					<dim>1</dim>
					<dim>32</dim>
					<dim>1</dim>
					<dim>1</dim>
				</port>
			</output>
		</layer>
		<layer id="468" name="Conv_93" type="Add" version="opset1">
			<data auto_broadcast="numpy"/>
			<input>
				<port id="0">
					<dim>1</dim>
					<dim>32</dim>
					<dim>112</dim>
					<dim>96</dim>
				</port>
				<port id="1">
					<dim>1</dim>
					<dim>32</dim>
					<dim>1</dim>
					<dim>1</dim>
				</port>
			</input>
			<output>
				<port id="2" precision="FP32" names="622">
					<dim>1</dim>
					<dim>32</dim>
					<dim>112</dim>
					<dim>96</dim>
				</port>
			</output>
		</layer>
		<layer id="469" name="Clip_97" type="Clamp" version="opset1">
			<data max="6" min="0"/>
			<input>
				<port id="0">
					<dim>1</dim>
					<dim>32</dim>
					<dim>112</dim>
					<dim>96</dim>
				</port>
			</input>
			<output>
				<port id="1" precision="FP32" names="626">
					<dim>1</dim>
					<dim>32</dim>
					<dim>112</dim>
					<dim>96</dim>
				</port>
			</output>
		</layer>
		<layer id="470" name="Conv_98/WithoutBiases/fq_input_0" type="FakeQuantize" version="opset1">
			<data levels="256" auto_broadcast="numpy"/>
			<input>
				<port id="0">
					<dim>1</dim>
					<dim>32</dim>
					<dim>112</dim>
					<dim>96</dim>
				</port>
				<port id="1">
					<dim>1</dim>
					<dim>32</dim>
					<dim>1</dim>
					<dim>1</dim>
				</port>
				<port id="2">
					<dim>1</dim>
					<dim>32</dim>
					<dim>1</dim>
					<dim>1</dim>
				</port>
				<port id="3">
					<dim>1</dim>
					<dim>32</dim>
					<dim>1</dim>
					<dim>1</dim>
				</port>
				<port id="4">
					<dim>1</dim>
					<dim>32</dim>
					<dim>1</dim>
					<dim>1</dim>
				</port>
			</input>
			<output>
				<port id="5" precision="FP32">
					<dim>1</dim>
					<dim>32</dim>
					<dim>112</dim>
					<dim>96</dim>
				</port>
			</output>
		</layer>
		<layer id="471" name="15184/value1518617290" type="Const" version="opset1">
			<data offset="85408" size="40" shape="5" element_type="i64"/>
			<output>
				<port id="0" precision="I64">
					<dim>5</dim>
				</port>
			</output>
		</layer>
		<layer id="472" name="20635539137/quantized1264318763" type="Const" version="opset1">
			<data offset="85448" size="288" shape="32,1,3,3" element_type="i8"/>
			<output>
				<port id="0" precision="I8">
					<dim>32</dim>
					<dim>1</dim>
					<dim>3</dim>
					<dim>3</dim>
				</port>
			</output>
		</layer>
		<layer id="473" name="20635539137/quantized/to_f32" type="Convert" version="opset1">
			<data destination_type="f32"/>
			<input>
				<port id="0">
					<dim>32</dim>
					<dim>1</dim>
					<dim>3</dim>
					<dim>3</dim>
				</port>
			</input>
			<output>
				<port id="1" precision="FP32">
					<dim>32</dim>
					<dim>1</dim>
					<dim>3</dim>
					<dim>3</dim>
				</port>
			</output>
		</layer>
		<layer id="474" name="Conv_98/WithoutBiases/fq_weights_1/zero_point1266219408" type="Const" version="opset1">
			<data offset="85736" size="128" shape="32,1,1,1" element_type="f32"/>
			<output>
				<port id="0" precision="FP32">
					<dim>32</dim>
					<dim>1</dim>
					<dim>1</dim>
					<dim>1</dim>
				</port>
			</output>
		</layer>
		<layer id="475" name="Conv_98/WithoutBiases/fq_weights_1/minus_zp" type="Subtract" version="opset1">
			<data auto_broadcast="numpy"/>
			<input>
				<port id="0">
					<dim>32</dim>
					<dim>1</dim>
					<dim>3</dim>
					<dim>3</dim>
				</port>
				<port id="1">
					<dim>32</dim>
					<dim>1</dim>
					<dim>1</dim>
					<dim>1</dim>
				</port>
			</input>
			<output>
				<port id="2" precision="FP32">
					<dim>32</dim>
					<dim>1</dim>
					<dim>3</dim>
					<dim>3</dim>
				</port>
			</output>
		</layer>
		<layer id="476" name="Conv_98/WithoutBiases/fq_weights_1/scale1265117482" type="Const" version="opset1">
			<data offset="85864" size="128" shape="32,1,1,1" element_type="f32"/>
			<output>
				<port id="0" precision="FP32">
					<dim>32</dim>
					<dim>1</dim>
					<dim>1</dim>
					<dim>1</dim>
				</port>
			</output>
		</layer>
		<layer id="477" name="Conv_98/WithoutBiases/fq_weights_1/mulpiply_by_scale" type="Multiply" version="opset1">
			<data auto_broadcast="numpy"/>
			<input>
				<port id="0">
					<dim>32</dim>
					<dim>1</dim>
					<dim>3</dim>
					<dim>3</dim>
				</port>
				<port id="1">
					<dim>32</dim>
					<dim>1</dim>
					<dim>1</dim>
					<dim>1</dim>
				</port>
			</input>
			<output>
				<port id="2" precision="FP32">
					<dim>32</dim>
					<dim>1</dim>
					<dim>3</dim>
					<dim>3</dim>
				</port>
			</output>
		</layer>
		<layer id="478" name="15184" type="Reshape" version="opset1">
			<data special_zero="true"/>
			<input>
				<port id="0">
					<dim>32</dim>
					<dim>1</dim>
					<dim>3</dim>
					<dim>3</dim>
				</port>
				<port id="1">
					<dim>5</dim>
				</port>
			</input>
			<output>
				<port id="2" precision="FP32">
					<dim>32</dim>
					<dim>1</dim>
					<dim>1</dim>
					<dim>3</dim>
					<dim>3</dim>
				</port>
			</output>
		</layer>
		<layer id="479" name="Conv_98/WithoutBiases" type="GroupConvolution" version="opset1">
			<data auto_pad="explicit" strides="1,1" dilations="1,1" pads_begin="1,1" pads_end="1,1"/>
			<input>
				<port id="0">
					<dim>1</dim>
					<dim>32</dim>
					<dim>112</dim>
					<dim>96</dim>
				</port>
				<port id="1">
					<dim>32</dim>
					<dim>1</dim>
					<dim>1</dim>
					<dim>3</dim>
					<dim>3</dim>
				</port>
			</input>
			<output>
				<port id="2" precision="FP32">
					<dim>1</dim>
					<dim>32</dim>
					<dim>112</dim>
					<dim>96</dim>
				</port>
			</output>
		</layer>
		<layer id="480" name="Conv_98/Dims566655519687" type="Const" version="opset1">
			<data offset="85992" size="128" shape="1,32,1,1" element_type="f32"/>
			<output>
				<port id="0" precision="FP32">
					<dim>1</dim>
					<dim>32</dim>
					<dim>1</dim>
					<dim>1</dim>
				</port>
			</output>
		</layer>
		<layer id="481" name="Conv_98" type="Add" version="opset1">
			<data auto_broadcast="numpy"/>
			<input>
				<port id="0">
					<dim>1</dim>
					<dim>32</dim>
					<dim>112</dim>
					<dim>96</dim>
				</port>
				<port id="1">
					<dim>1</dim>
					<dim>32</dim>
					<dim>1</dim>
					<dim>1</dim>
				</port>
			</input>
			<output>
				<port id="2" precision="FP32" names="627">
					<dim>1</dim>
					<dim>32</dim>
					<dim>112</dim>
					<dim>96</dim>
				</port>
			</output>
		</layer>
		<layer id="482" name="Clip_102" type="Clamp" version="opset1">
			<data max="6" min="0"/>
			<input>
				<port id="0">
					<dim>1</dim>
					<dim>32</dim>
					<dim>112</dim>
					<dim>96</dim>
				</port>
			</input>
			<output>
				<port id="1" precision="FP32" names="631">
					<dim>1</dim>
					<dim>32</dim>
					<dim>112</dim>
					<dim>96</dim>
				</port>
			</output>
		</layer>
		<layer id="483" name="Conv_103/WithoutBiases/fq_input_0" type="FakeQuantize" version="opset1">
			<data levels="256" auto_broadcast="numpy"/>
			<input>
				<port id="0">
					<dim>1</dim>
					<dim>32</dim>
					<dim>112</dim>
					<dim>96</dim>
				</port>
				<port id="1"/>
				<port id="2"/>
				<port id="3"/>
				<port id="4"/>
			</input>
			<output>
				<port id="5" precision="FP32">
					<dim>1</dim>
					<dim>32</dim>
					<dim>112</dim>
					<dim>96</dim>
				</port>
			</output>
		</layer>
		<layer id="484" name="20675589139/quantized1105318709" type="Const" version="opset1">
			<data offset="86120" size="768" shape="24,32,1,1" element_type="i8"/>
			<output>
				<port id="0" precision="I8">
					<dim>24</dim>
					<dim>32</dim>
					<dim>1</dim>
					<dim>1</dim>
				</port>
			</output>
		</layer>
		<layer id="485" name="20675589139/quantized/to_f32" type="Convert" version="opset1">
			<data destination_type="f32"/>
			<input>
				<port id="0">
					<dim>24</dim>
					<dim>32</dim>
					<dim>1</dim>
					<dim>1</dim>
				</port>
			</input>
			<output>
				<port id="1" precision="FP32">
					<dim>24</dim>
					<dim>32</dim>
					<dim>1</dim>
					<dim>1</dim>
				</port>
			</output>
		</layer>
		<layer id="486" name="Conv_103/WithoutBiases/fq_weights_1/zero_point1107218919" type="Const" version="opset1">
			<data offset="86888" size="96" shape="24,1,1,1" element_type="f32"/>
			<output>
				<port id="0" precision="FP32">
					<dim>24</dim>
					<dim>1</dim>
					<dim>1</dim>
					<dim>1</dim>
				</port>
			</output>
		</layer>
		<layer id="487" name="Conv_103/WithoutBiases/fq_weights_1/minus_zp" type="Subtract" version="opset1">
			<data auto_broadcast="numpy"/>
			<input>
				<port id="0">
					<dim>24</dim>
					<dim>32</dim>
					<dim>1</dim>
					<dim>1</dim>
				</port>
				<port id="1">
					<dim>24</dim>
					<dim>1</dim>
					<dim>1</dim>
					<dim>1</dim>
				</port>
			</input>
			<output>
				<port id="2" precision="FP32">
					<dim>24</dim>
					<dim>32</dim>
					<dim>1</dim>
					<dim>1</dim>
				</port>
			</output>
		</layer>
		<layer id="488" name="Conv_103/WithoutBiases/fq_weights_1/scale1106119906" type="Const" version="opset1">
			<data offset="86984" size="96" shape="24,1,1,1" element_type="f32"/>
			<output>
				<port id="0" precision="FP32">
					<dim>24</dim>
					<dim>1</dim>
					<dim>1</dim>
					<dim>1</dim>
				</port>
			</output>
		</layer>
		<layer id="489" name="Conv_103/WithoutBiases/fq_weights_1/mulpiply_by_scale" type="Multiply" version="opset1">
			<data auto_broadcast="numpy"/>
			<input>
				<port id="0">
					<dim>24</dim>
					<dim>32</dim>
					<dim>1</dim>
					<dim>1</dim>
				</port>
				<port id="1">
					<dim>24</dim>
					<dim>1</dim>
					<dim>1</dim>
					<dim>1</dim>
				</port>
			</input>
			<output>
				<port id="2" precision="FP32">
					<dim>24</dim>
					<dim>32</dim>
					<dim>1</dim>
					<dim>1</dim>
				</port>
			</output>
		</layer>
		<layer id="490" name="Conv_103/WithoutBiases" type="Convolution" version="opset1">
			<data auto_pad="explicit" strides="1,1" dilations="1,1" pads_begin="0,0" pads_end="0,0"/>
			<input>
				<port id="0">
					<dim>1</dim>
					<dim>32</dim>
					<dim>112</dim>
					<dim>96</dim>
				</port>
				<port id="1">
					<dim>24</dim>
					<dim>32</dim>
					<dim>1</dim>
					<dim>1</dim>
				</port>
			</input>
			<output>
				<port id="2" precision="FP32">
					<dim>1</dim>
					<dim>24</dim>
					<dim>112</dim>
					<dim>96</dim>
				</port>
			</output>
		</layer>
		<layer id="491" name="Conv_103/Dims567256017653" type="Const" version="opset1">
			<data offset="87080" size="96" shape="1,24,1,1" element_type="f32"/>
			<output>
				<port id="0" precision="FP32">
					<dim>1</dim>
					<dim>24</dim>
					<dim>1</dim>
					<dim>1</dim>
				</port>
			</output>
		</layer>
		<layer id="492" name="Conv_103" type="Add" version="opset1">
			<data auto_broadcast="numpy"/>
			<input>
				<port id="0">
					<dim>1</dim>
					<dim>24</dim>
					<dim>112</dim>
					<dim>96</dim>
				</port>
				<port id="1">
					<dim>1</dim>
					<dim>24</dim>
					<dim>1</dim>
					<dim>1</dim>
				</port>
			</input>
			<output>
				<port id="2" precision="FP32" names="632">
					<dim>1</dim>
					<dim>24</dim>
					<dim>112</dim>
					<dim>96</dim>
				</port>
			</output>
		</layer>
		<layer id="493" name="Conv_105/WithoutBiases/fq_input_0" type="FakeQuantize" version="opset1">
			<data levels="256" auto_broadcast="numpy"/>
			<input>
				<port id="0">
					<dim>1</dim>
					<dim>24</dim>
					<dim>112</dim>
					<dim>96</dim>
				</port>
				<port id="1"/>
				<port id="2"/>
				<port id="3"/>
				<port id="4"/>
			</input>
			<output>
				<port id="5" precision="FP32">
					<dim>1</dim>
					<dim>24</dim>
					<dim>112</dim>
					<dim>96</dim>
				</port>
			</output>
		</layer>
		<layer id="494" name="20715629141/quantized1195319792" type="Const" version="opset1">
			<data offset="87176" size="3456" shape="144,24,1,1" element_type="i8"/>
			<output>
				<port id="0" precision="I8">
					<dim>144</dim>
					<dim>24</dim>
					<dim>1</dim>
					<dim>1</dim>
				</port>
			</output>
		</layer>
		<layer id="495" name="20715629141/quantized/to_f32" type="Convert" version="opset1">
			<data destination_type="f32"/>
			<input>
				<port id="0">
					<dim>144</dim>
					<dim>24</dim>
					<dim>1</dim>
					<dim>1</dim>
				</port>
			</input>
			<output>
				<port id="1" precision="FP32">
					<dim>144</dim>
					<dim>24</dim>
					<dim>1</dim>
					<dim>1</dim>
				</port>
			</output>
		</layer>
		<layer id="496" name="Conv_105/WithoutBiases/fq_weights_1/zero_point1197218697" type="Const" version="opset1">
			<data offset="90632" size="576" shape="144,1,1,1" element_type="f32"/>
			<output>
				<port id="0" precision="FP32">
					<dim>144</dim>
					<dim>1</dim>
					<dim>1</dim>
					<dim>1</dim>
				</port>
			</output>
		</layer>
		<layer id="497" name="Conv_105/WithoutBiases/fq_weights_1/minus_zp" type="Subtract" version="opset1">
			<data auto_broadcast="numpy"/>
			<input>
				<port id="0">
					<dim>144</dim>
					<dim>24</dim>
					<dim>1</dim>
					<dim>1</dim>
				</port>
				<port id="1">
					<dim>144</dim>
					<dim>1</dim>
					<dim>1</dim>
					<dim>1</dim>
				</port>
			</input>
			<output>
				<port id="2" precision="FP32">
					<dim>144</dim>
					<dim>24</dim>
					<dim>1</dim>
					<dim>1</dim>
				</port>
			</output>
		</layer>
		<layer id="498" name="Conv_105/WithoutBiases/fq_weights_1/scale1196120032" type="Const" version="opset1">
			<data offset="91208" size="576" shape="144,1,1,1" element_type="f32"/>
			<output>
				<port id="0" precision="FP32">
					<dim>144</dim>
					<dim>1</dim>
					<dim>1</dim>
					<dim>1</dim>
				</port>
			</output>
		</layer>
		<layer id="499" name="Conv_105/WithoutBiases/fq_weights_1/mulpiply_by_scale" type="Multiply" version="opset1">
			<data auto_broadcast="numpy"/>
			<input>
				<port id="0">
					<dim>144</dim>
					<dim>24</dim>
					<dim>1</dim>
					<dim>1</dim>
				</port>
				<port id="1">
					<dim>144</dim>
					<dim>1</dim>
					<dim>1</dim>
					<dim>1</dim>
				</port>
			</input>
			<output>
				<port id="2" precision="FP32">
					<dim>144</dim>
					<dim>24</dim>
					<dim>1</dim>
					<dim>1</dim>
				</port>
			</output>
		</layer>
		<layer id="500" name="Conv_105/WithoutBiases" type="Convolution" version="opset1">
			<data auto_pad="explicit" strides="1,1" dilations="1,1" pads_begin="0,0" pads_end="0,0"/>
			<input>
				<port id="0">
					<dim>1</dim>
					<dim>24</dim>
					<dim>112</dim>
					<dim>96</dim>
				</port>
				<port id="1">
					<dim>144</dim>
					<dim>24</dim>
					<dim>1</dim>
					<dim>1</dim>
				</port>
			</input>
			<output>
				<port id="2" precision="FP32">
					<dim>1</dim>
					<dim>144</dim>
					<dim>112</dim>
					<dim>96</dim>
				</port>
			</output>
		</layer>
		<layer id="501" name="Conv_105/Dims530056417503" type="Const" version="opset1">
			<data offset="91784" size="576" shape="1,144,1,1" element_type="f32"/>
			<output>
				<port id="0" precision="FP32">
					<dim>1</dim>
					<dim>144</dim>
					<dim>1</dim>
					<dim>1</dim>
				</port>
			</output>
		</layer>
		<layer id="502" name="Conv_105" type="Add" version="opset1">
			<data auto_broadcast="numpy"/>
			<input>
				<port id="0">
					<dim>1</dim>
					<dim>144</dim>
					<dim>112</dim>
					<dim>96</dim>
				</port>
				<port id="1">
					<dim>1</dim>
					<dim>144</dim>
					<dim>1</dim>
					<dim>1</dim>
				</port>
			</input>
			<output>
				<port id="2" precision="FP32" names="634">
					<dim>1</dim>
					<dim>144</dim>
					<dim>112</dim>
					<dim>96</dim>
				</port>
			</output>
		</layer>
		<layer id="503" name="Clip_109" type="Clamp" version="opset1">
			<data max="6" min="0"/>
			<input>
				<port id="0">
					<dim>1</dim>
					<dim>144</dim>
					<dim>112</dim>
					<dim>96</dim>
				</port>
			</input>
			<output>
				<port id="1" precision="FP32" names="638">
					<dim>1</dim>
					<dim>144</dim>
					<dim>112</dim>
					<dim>96</dim>
				</port>
			</output>
		</layer>
		<layer id="504" name="Conv_203/WithoutBiases/fq_input_0" type="FakeQuantize" version="opset1">
			<data levels="256" auto_broadcast="numpy"/>
			<input>
				<port id="0">
					<dim>1</dim>
					<dim>144</dim>
					<dim>112</dim>
					<dim>96</dim>
				</port>
				<port id="1">
					<dim>1</dim>
					<dim>144</dim>
					<dim>1</dim>
					<dim>1</dim>
				</port>
				<port id="2">
					<dim>1</dim>
					<dim>144</dim>
					<dim>1</dim>
					<dim>1</dim>
				</port>
				<port id="3">
					<dim>1</dim>
					<dim>144</dim>
					<dim>1</dim>
					<dim>1</dim>
				</port>
				<port id="4">
					<dim>1</dim>
					<dim>144</dim>
					<dim>1</dim>
					<dim>1</dim>
				</port>
			</input>
			<output>
				<port id="5" precision="FP32">
					<dim>1</dim>
					<dim>144</dim>
					<dim>112</dim>
					<dim>96</dim>
				</port>
			</output>
		</layer>
		<layer id="505" name="15188/value1519020050" type="Const" version="opset1">
			<data offset="92360" size="40" shape="5" element_type="i64"/>
			<output>
				<port id="0" precision="I64">
					<dim>5</dim>
				</port>
			</output>
		</layer>
		<layer id="506" name="20755679143/quantized1273319357" type="Const" version="opset1">
			<data offset="92400" size="1296" shape="144,1,3,3" element_type="i8"/>
			<output>
				<port id="0" precision="I8">
					<dim>144</dim>
					<dim>1</dim>
					<dim>3</dim>
					<dim>3</dim>
				</port>
			</output>
		</layer>
		<layer id="507" name="20755679143/quantized/to_f32" type="Convert" version="opset1">
			<data destination_type="f32"/>
			<input>
				<port id="0">
					<dim>144</dim>
					<dim>1</dim>
					<dim>3</dim>
					<dim>3</dim>
				</port>
			</input>
			<output>
				<port id="1" precision="FP32">
					<dim>144</dim>
					<dim>1</dim>
					<dim>3</dim>
					<dim>3</dim>
				</port>
			</output>
		</layer>
		<layer id="508" name="Conv_203/WithoutBiases/fq_weights_1/zero_point1275219342" type="Const" version="opset1">
			<data offset="93696" size="576" shape="144,1,1,1" element_type="f32"/>
			<output>
				<port id="0" precision="FP32">
					<dim>144</dim>
					<dim>1</dim>
					<dim>1</dim>
					<dim>1</dim>
				</port>
			</output>
		</layer>
		<layer id="509" name="Conv_203/WithoutBiases/fq_weights_1/minus_zp" type="Subtract" version="opset1">
			<data auto_broadcast="numpy"/>
			<input>
				<port id="0">
					<dim>144</dim>
					<dim>1</dim>
					<dim>3</dim>
					<dim>3</dim>
				</port>
				<port id="1">
					<dim>144</dim>
					<dim>1</dim>
					<dim>1</dim>
					<dim>1</dim>
				</port>
			</input>
			<output>
				<port id="2" precision="FP32">
					<dim>144</dim>
					<dim>1</dim>
					<dim>3</dim>
					<dim>3</dim>
				</port>
			</output>
		</layer>
		<layer id="510" name="Conv_203/WithoutBiases/fq_weights_1/scale1274118811" type="Const" version="opset1">
			<data offset="94272" size="576" shape="144,1,1,1" element_type="f32"/>
			<output>
				<port id="0" precision="FP32">
					<dim>144</dim>
					<dim>1</dim>
					<dim>1</dim>
					<dim>1</dim>
				</port>
			</output>
		</layer>
		<layer id="511" name="Conv_203/WithoutBiases/fq_weights_1/mulpiply_by_scale" type="Multiply" version="opset1">
			<data auto_broadcast="numpy"/>
			<input>
				<port id="0">
					<dim>144</dim>
					<dim>1</dim>
					<dim>3</dim>
					<dim>3</dim>
				</port>
				<port id="1">
					<dim>144</dim>
					<dim>1</dim>
					<dim>1</dim>
					<dim>1</dim>
				</port>
			</input>
			<output>
				<port id="2" precision="FP32">
					<dim>144</dim>
					<dim>1</dim>
					<dim>3</dim>
					<dim>3</dim>
				</port>
			</output>
		</layer>
		<layer id="512" name="15188" type="Reshape" version="opset1">
			<data special_zero="true"/>
			<input>
				<port id="0">
					<dim>144</dim>
					<dim>1</dim>
					<dim>3</dim>
					<dim>3</dim>
				</port>
				<port id="1">
					<dim>5</dim>
				</port>
			</input>
			<output>
				<port id="2" precision="FP32">
					<dim>144</dim>
					<dim>1</dim>
					<dim>1</dim>
					<dim>3</dim>
					<dim>3</dim>
				</port>
			</output>
		</layer>
		<layer id="513" name="Conv_203/WithoutBiases" type="GroupConvolution" version="opset1">
			<data auto_pad="explicit" strides="2,2" dilations="1,1" pads_begin="0,0" pads_end="1,1"/>
			<input>
				<port id="0">
					<dim>1</dim>
					<dim>144</dim>
					<dim>112</dim>
					<dim>96</dim>
				</port>
				<port id="1">
					<dim>144</dim>
					<dim>1</dim>
					<dim>1</dim>
					<dim>3</dim>
					<dim>3</dim>
				</port>
			</input>
			<output>
				<port id="2" precision="FP32">
					<dim>1</dim>
					<dim>144</dim>
					<dim>56</dim>
					<dim>48</dim>
				</port>
			</output>
		</layer>
		<layer id="514" name="Conv_203/Dims560056919312" type="Const" version="opset1">
			<data offset="94848" size="576" shape="1,144,1,1" element_type="f32"/>
			<output>
				<port id="0" precision="FP32">
					<dim>1</dim>
					<dim>144</dim>
					<dim>1</dim>
					<dim>1</dim>
				</port>
			</output>
		</layer>
		<layer id="515" name="Conv_203" type="Add" version="opset1">
			<data auto_broadcast="numpy"/>
			<input>
				<port id="0">
					<dim>1</dim>
					<dim>144</dim>
					<dim>56</dim>
					<dim>48</dim>
				</port>
				<port id="1">
					<dim>1</dim>
					<dim>144</dim>
					<dim>1</dim>
					<dim>1</dim>
				</port>
			</input>
			<output>
				<port id="2" precision="FP32" names="732">
					<dim>1</dim>
					<dim>144</dim>
					<dim>56</dim>
					<dim>48</dim>
				</port>
			</output>
		</layer>
		<layer id="516" name="Clip_207" type="Clamp" version="opset1">
			<data max="6" min="0"/>
			<input>
				<port id="0">
					<dim>1</dim>
					<dim>144</dim>
					<dim>56</dim>
					<dim>48</dim>
				</port>
			</input>
			<output>
				<port id="1" precision="FP32" names="736">
					<dim>1</dim>
					<dim>144</dim>
					<dim>56</dim>
					<dim>48</dim>
				</port>
			</output>
		</layer>
		<layer id="517" name="Conv_208/WithoutBiases/fq_input_0" type="FakeQuantize" version="opset1">
			<data levels="256" auto_broadcast="numpy"/>
			<input>
				<port id="0">
					<dim>1</dim>
					<dim>144</dim>
					<dim>56</dim>
					<dim>48</dim>
				</port>
				<port id="1"/>
				<port id="2"/>
				<port id="3"/>
				<port id="4"/>
			</input>
			<output>
				<port id="5" precision="FP32">
					<dim>1</dim>
					<dim>144</dim>
					<dim>56</dim>
					<dim>48</dim>
				</port>
			</output>
		</layer>
		<layer id="518" name="20795729145/quantized1282318142" type="Const" version="opset1">
			<data offset="95424" size="4608" shape="32,144,1,1" element_type="i8"/>
			<output>
				<port id="0" precision="I8">
					<dim>32</dim>
					<dim>144</dim>
					<dim>1</dim>
					<dim>1</dim>
				</port>
			</output>
		</layer>
		<layer id="519" name="20795729145/quantized/to_f32" type="Convert" version="opset1">
			<data destination_type="f32"/>
			<input>
				<port id="0">
					<dim>32</dim>
					<dim>144</dim>
					<dim>1</dim>
					<dim>1</dim>
				</port>
			</input>
			<output>
				<port id="1" precision="FP32">
					<dim>32</dim>
					<dim>144</dim>
					<dim>1</dim>
					<dim>1</dim>
				</port>
			</output>
		</layer>
		<layer id="520" name="Conv_208/WithoutBiases/fq_weights_1/zero_point1284218589" type="Const" version="opset1">
			<data offset="100032" size="128" shape="32,1,1,1" element_type="f32"/>
			<output>
				<port id="0" precision="FP32">
					<dim>32</dim>
					<dim>1</dim>
					<dim>1</dim>
					<dim>1</dim>
				</port>
			</output>
		</layer>
		<layer id="521" name="Conv_208/WithoutBiases/fq_weights_1/minus_zp" type="Subtract" version="opset1">
			<data auto_broadcast="numpy"/>
			<input>
				<port id="0">
					<dim>32</dim>
					<dim>144</dim>
					<dim>1</dim>
					<dim>1</dim>
				</port>
				<port id="1">
					<dim>32</dim>
					<dim>1</dim>
					<dim>1</dim>
					<dim>1</dim>
				</port>
			</input>
			<output>
				<port id="2" precision="FP32">
					<dim>32</dim>
					<dim>144</dim>
					<dim>1</dim>
					<dim>1</dim>
				</port>
			</output>
		</layer>
		<layer id="522" name="Conv_208/WithoutBiases/fq_weights_1/scale1283117413" type="Const" version="opset1">
			<data offset="100160" size="128" shape="32,1,1,1" element_type="f32"/>
			<output>
				<port id="0" precision="FP32">
					<dim>32</dim>
					<dim>1</dim>
					<dim>1</dim>
					<dim>1</dim>
				</port>
			</output>
		</layer>
		<layer id="523" name="Conv_208/WithoutBiases/fq_weights_1/mulpiply_by_scale" type="Multiply" version="opset1">
			<data auto_broadcast="numpy"/>
			<input>
				<port id="0">
					<dim>32</dim>
					<dim>144</dim>
					<dim>1</dim>
					<dim>1</dim>
				</port>
				<port id="1">
					<dim>32</dim>
					<dim>1</dim>
					<dim>1</dim>
					<dim>1</dim>
				</port>
			</input>
			<output>
				<port id="2" precision="FP32">
					<dim>32</dim>
					<dim>144</dim>
					<dim>1</dim>
					<dim>1</dim>
				</port>
			</output>
		</layer>
		<layer id="524" name="Conv_208/WithoutBiases" type="Convolution" version="opset1">
			<data auto_pad="explicit" strides="1,1" dilations="1,1" pads_begin="0,0" pads_end="0,0"/>
			<input>
				<port id="0">
					<dim>1</dim>
					<dim>144</dim>
					<dim>56</dim>
					<dim>48</dim>
				</port>
				<port id="1">
					<dim>32</dim>
					<dim>144</dim>
					<dim>1</dim>
					<dim>1</dim>
				</port>
			</input>
			<output>
				<port id="2" precision="FP32">
					<dim>1</dim>
					<dim>32</dim>
					<dim>56</dim>
					<dim>48</dim>
				</port>
			</output>
		</layer>
		<layer id="525" name="Conv_208/Dims549857419549" type="Const" version="opset1">
			<data offset="100288" size="128" shape="1,32,1,1" element_type="f32"/>
			<output>
				<port id="0" precision="FP32">
					<dim>1</dim>
					<dim>32</dim>
					<dim>1</dim>
					<dim>1</dim>
				</port>
			</output>
		</layer>
		<layer id="526" name="Conv_208" type="Add" version="opset1">
			<data auto_broadcast="numpy"/>
			<input>
				<port id="0">
					<dim>1</dim>
					<dim>32</dim>
					<dim>56</dim>
					<dim>48</dim>
				</port>
				<port id="1">
					<dim>1</dim>
					<dim>32</dim>
					<dim>1</dim>
					<dim>1</dim>
				</port>
			</input>
			<output>
				<port id="2" precision="FP32" names="737">
					<dim>1</dim>
					<dim>32</dim>
					<dim>56</dim>
					<dim>48</dim>
				</port>
			</output>
		</layer>
		<layer id="527" name="Add_222/fq_input_1" type="FakeQuantize" version="opset1">
			<data levels="256" auto_broadcast="numpy"/>
			<input>
				<port id="0">
					<dim>1</dim>
					<dim>32</dim>
					<dim>56</dim>
					<dim>48</dim>
				</port>
				<port id="1"/>
				<port id="2"/>
				<port id="3"/>
				<port id="4"/>
			</input>
			<output>
				<port id="5" precision="FP32">
					<dim>1</dim>
					<dim>32</dim>
					<dim>56</dim>
					<dim>48</dim>
				</port>
			</output>
		</layer>
		<layer id="528" name="20835769147/quantized1291317662" type="Const" version="opset1">
			<data offset="100416" size="6144" shape="192,32,1,1" element_type="i8"/>
			<output>
				<port id="0" precision="I8">
					<dim>192</dim>
					<dim>32</dim>
					<dim>1</dim>
					<dim>1</dim>
				</port>
			</output>
		</layer>
		<layer id="529" name="20835769147/quantized/to_f32" type="Convert" version="opset1">
			<data destination_type="f32"/>
			<input>
				<port id="0">
					<dim>192</dim>
					<dim>32</dim>
					<dim>1</dim>
					<dim>1</dim>
				</port>
			</input>
			<output>
				<port id="1" precision="FP32">
					<dim>192</dim>
					<dim>32</dim>
					<dim>1</dim>
					<dim>1</dim>
				</port>
			</output>
		</layer>
		<layer id="530" name="Conv_210/WithoutBiases/fq_weights_1/zero_point1293220188" type="Const" version="opset1">
			<data offset="106560" size="768" shape="192,1,1,1" element_type="f32"/>
			<output>
				<port id="0" precision="FP32">
					<dim>192</dim>
					<dim>1</dim>
					<dim>1</dim>
					<dim>1</dim>
				</port>
			</output>
		</layer>
		<layer id="531" name="Conv_210/WithoutBiases/fq_weights_1/minus_zp" type="Subtract" version="opset1">
			<data auto_broadcast="numpy"/>
			<input>
				<port id="0">
					<dim>192</dim>
					<dim>32</dim>
					<dim>1</dim>
					<dim>1</dim>
				</port>
				<port id="1">
					<dim>192</dim>
					<dim>1</dim>
					<dim>1</dim>
					<dim>1</dim>
				</port>
			</input>
			<output>
				<port id="2" precision="FP32">
					<dim>192</dim>
					<dim>32</dim>
					<dim>1</dim>
					<dim>1</dim>
				</port>
			</output>
		</layer>
		<layer id="532" name="Conv_210/WithoutBiases/fq_weights_1/scale1292117545" type="Const" version="opset1">
			<data offset="107328" size="768" shape="192,1,1,1" element_type="f32"/>
			<output>
				<port id="0" precision="FP32">
					<dim>192</dim>
					<dim>1</dim>
					<dim>1</dim>
					<dim>1</dim>
				</port>
			</output>
		</layer>
		<layer id="533" name="Conv_210/WithoutBiases/fq_weights_1/mulpiply_by_scale" type="Multiply" version="opset1">
			<data auto_broadcast="numpy"/>
			<input>
				<port id="0">
					<dim>192</dim>
					<dim>32</dim>
					<dim>1</dim>
					<dim>1</dim>
				</port>
				<port id="1">
					<dim>192</dim>
					<dim>1</dim>
					<dim>1</dim>
					<dim>1</dim>
				</port>
			</input>
			<output>
				<port id="2" precision="FP32">
					<dim>192</dim>
					<dim>32</dim>
					<dim>1</dim>
					<dim>1</dim>
				</port>
			</output>
		</layer>
		<layer id="534" name="Conv_210/WithoutBiases" type="Convolution" version="opset1">
			<data auto_pad="explicit" strides="1,1" dilations="1,1" pads_begin="0,0" pads_end="0,0"/>
			<input>
				<port id="0">
					<dim>1</dim>
					<dim>32</dim>
					<dim>56</dim>
					<dim>48</dim>
				</port>
				<port id="1">
					<dim>192</dim>
					<dim>32</dim>
					<dim>1</dim>
					<dim>1</dim>
				</port>
			</input>
			<output>
				<port id="2" precision="FP32">
					<dim>1</dim>
					<dim>192</dim>
					<dim>56</dim>
					<dim>48</dim>
				</port>
			</output>
		</layer>
		<layer id="535" name="Conv_210/Dims529457820101" type="Const" version="opset1">
			<data offset="108096" size="768" shape="1,192,1,1" element_type="f32"/>
			<output>
				<port id="0" precision="FP32">
					<dim>1</dim>
					<dim>192</dim>
					<dim>1</dim>
					<dim>1</dim>
				</port>
			</output>
		</layer>
		<layer id="536" name="Conv_210" type="Add" version="opset1">
			<data auto_broadcast="numpy"/>
			<input>
				<port id="0">
					<dim>1</dim>
					<dim>192</dim>
					<dim>56</dim>
					<dim>48</dim>
				</port>
				<port id="1">
					<dim>1</dim>
					<dim>192</dim>
					<dim>1</dim>
					<dim>1</dim>
				</port>
			</input>
			<output>
				<port id="2" precision="FP32" names="739">
					<dim>1</dim>
					<dim>192</dim>
					<dim>56</dim>
					<dim>48</dim>
				</port>
			</output>
		</layer>
		<layer id="537" name="Clip_214" type="Clamp" version="opset1">
			<data max="6" min="0"/>
			<input>
				<port id="0">
					<dim>1</dim>
					<dim>192</dim>
					<dim>56</dim>
					<dim>48</dim>
				</port>
			</input>
			<output>
				<port id="1" precision="FP32" names="743">
					<dim>1</dim>
					<dim>192</dim>
					<dim>56</dim>
					<dim>48</dim>
				</port>
			</output>
		</layer>
		<layer id="538" name="Conv_215/WithoutBiases/fq_input_0" type="FakeQuantize" version="opset1">
			<data levels="256" auto_broadcast="numpy"/>
			<input>
				<port id="0">
					<dim>1</dim>
					<dim>192</dim>
					<dim>56</dim>
					<dim>48</dim>
				</port>
				<port id="1">
					<dim>1</dim>
					<dim>192</dim>
					<dim>1</dim>
					<dim>1</dim>
				</port>
				<port id="2">
					<dim>1</dim>
					<dim>192</dim>
					<dim>1</dim>
					<dim>1</dim>
				</port>
				<port id="3">
					<dim>1</dim>
					<dim>192</dim>
					<dim>1</dim>
					<dim>1</dim>
				</port>
				<port id="4">
					<dim>1</dim>
					<dim>192</dim>
					<dim>1</dim>
					<dim>1</dim>
				</port>
			</input>
			<output>
				<port id="5" precision="FP32">
					<dim>1</dim>
					<dim>192</dim>
					<dim>56</dim>
					<dim>48</dim>
				</port>
			</output>
		</layer>
		<layer id="539" name="15192/value1519417377" type="Const" version="opset1">
			<data offset="108864" size="40" shape="5" element_type="i64"/>
			<output>
				<port id="0" precision="I64">
					<dim>5</dim>
				</port>
			</output>
		</layer>
		<layer id="540" name="20875819149/quantized1168319693" type="Const" version="opset1">
			<data offset="108904" size="1728" shape="192,1,3,3" element_type="i8"/>
			<output>
				<port id="0" precision="I8">
					<dim>192</dim>
					<dim>1</dim>
					<dim>3</dim>
					<dim>3</dim>
				</port>
			</output>
		</layer>
		<layer id="541" name="20875819149/quantized/to_f32" type="Convert" version="opset1">
			<data destination_type="f32"/>
			<input>
				<port id="0">
					<dim>192</dim>
					<dim>1</dim>
					<dim>3</dim>
					<dim>3</dim>
				</port>
			</input>
			<output>
				<port id="1" precision="FP32">
					<dim>192</dim>
					<dim>1</dim>
					<dim>3</dim>
					<dim>3</dim>
				</port>
			</output>
		</layer>
		<layer id="542" name="Conv_215/WithoutBiases/fq_weights_1/zero_point1170219474" type="Const" version="opset1">
			<data offset="110632" size="768" shape="192,1,1,1" element_type="f32"/>
			<output>
				<port id="0" precision="FP32">
					<dim>192</dim>
					<dim>1</dim>
					<dim>1</dim>
					<dim>1</dim>
				</port>
			</output>
		</layer>
		<layer id="543" name="Conv_215/WithoutBiases/fq_weights_1/minus_zp" type="Subtract" version="opset1">
			<data auto_broadcast="numpy"/>
			<input>
				<port id="0">
					<dim>192</dim>
					<dim>1</dim>
					<dim>3</dim>
					<dim>3</dim>
				</port>
				<port id="1">
					<dim>192</dim>
					<dim>1</dim>
					<dim>1</dim>
					<dim>1</dim>
				</port>
			</input>
			<output>
				<port id="2" precision="FP32">
					<dim>192</dim>
					<dim>1</dim>
					<dim>3</dim>
					<dim>3</dim>
				</port>
			</output>
		</layer>
		<layer id="544" name="Conv_215/WithoutBiases/fq_weights_1/scale1169117815" type="Const" version="opset1">
			<data offset="111400" size="768" shape="192,1,1,1" element_type="f32"/>
			<output>
				<port id="0" precision="FP32">
					<dim>192</dim>
					<dim>1</dim>
					<dim>1</dim>
					<dim>1</dim>
				</port>
			</output>
		</layer>
		<layer id="545" name="Conv_215/WithoutBiases/fq_weights_1/mulpiply_by_scale" type="Multiply" version="opset1">
			<data auto_broadcast="numpy"/>
			<input>
				<port id="0">
					<dim>192</dim>
					<dim>1</dim>
					<dim>3</dim>
					<dim>3</dim>
				</port>
				<port id="1">
					<dim>192</dim>
					<dim>1</dim>
					<dim>1</dim>
					<dim>1</dim>
				</port>
			</input>
			<output>
				<port id="2" precision="FP32">
					<dim>192</dim>
					<dim>1</dim>
					<dim>3</dim>
					<dim>3</dim>
				</port>
			</output>
		</layer>
		<layer id="546" name="15192" type="Reshape" version="opset1">
			<data special_zero="true"/>
			<input>
				<port id="0">
					<dim>192</dim>
					<dim>1</dim>
					<dim>3</dim>
					<dim>3</dim>
				</port>
				<port id="1">
					<dim>5</dim>
				</port>
			</input>
			<output>
				<port id="2" precision="FP32">
					<dim>192</dim>
					<dim>1</dim>
					<dim>1</dim>
					<dim>3</dim>
					<dim>3</dim>
				</port>
			</output>
		</layer>
		<layer id="547" name="Conv_215/WithoutBiases" type="GroupConvolution" version="opset1">
			<data auto_pad="explicit" strides="1,1" dilations="1,1" pads_begin="1,1" pads_end="1,1"/>
			<input>
				<port id="0">
					<dim>1</dim>
					<dim>192</dim>
					<dim>56</dim>
					<dim>48</dim>
				</port>
				<port id="1">
					<dim>192</dim>
					<dim>1</dim>
					<dim>1</dim>
					<dim>3</dim>
					<dim>3</dim>
				</port>
			</input>
			<output>
				<port id="2" precision="FP32">
					<dim>1</dim>
					<dim>192</dim>
					<dim>56</dim>
					<dim>48</dim>
				</port>
			</output>
		</layer>
		<layer id="548" name="Conv_215/Dims527658319087" type="Const" version="opset1">
			<data offset="112168" size="768" shape="1,192,1,1" element_type="f32"/>
			<output>
				<port id="0" precision="FP32">
					<dim>1</dim>
					<dim>192</dim>
					<dim>1</dim>
					<dim>1</dim>
				</port>
			</output>
		</layer>
		<layer id="549" name="Conv_215" type="Add" version="opset1">
			<data auto_broadcast="numpy"/>
			<input>
				<port id="0">
					<dim>1</dim>
					<dim>192</dim>
					<dim>56</dim>
					<dim>48</dim>
				</port>
				<port id="1">
					<dim>1</dim>
					<dim>192</dim>
					<dim>1</dim>
					<dim>1</dim>
				</port>
			</input>
			<output>
				<port id="2" precision="FP32" names="744">
					<dim>1</dim>
					<dim>192</dim>
					<dim>56</dim>
					<dim>48</dim>
				</port>
			</output>
		</layer>
		<layer id="550" name="Clip_219" type="Clamp" version="opset1">
			<data max="6" min="0"/>
			<input>
				<port id="0">
					<dim>1</dim>
					<dim>192</dim>
					<dim>56</dim>
					<dim>48</dim>
				</port>
			</input>
			<output>
				<port id="1" precision="FP32" names="748">
					<dim>1</dim>
					<dim>192</dim>
					<dim>56</dim>
					<dim>48</dim>
				</port>
			</output>
		</layer>
		<layer id="551" name="Conv_220/WithoutBiases/fq_input_0" type="FakeQuantize" version="opset1">
			<data levels="256" auto_broadcast="numpy"/>
			<input>
				<port id="0">
					<dim>1</dim>
					<dim>192</dim>
					<dim>56</dim>
					<dim>48</dim>
				</port>
				<port id="1"/>
				<port id="2"/>
				<port id="3"/>
				<port id="4"/>
			</input>
			<output>
				<port id="5" precision="FP32">
					<dim>1</dim>
					<dim>192</dim>
					<dim>56</dim>
					<dim>48</dim>
				</port>
			</output>
		</layer>
		<layer id="552" name="20915869151/quantized1300318211" type="Const" version="opset1">
			<data offset="112936" size="6144" shape="32,192,1,1" element_type="i8"/>
			<output>
				<port id="0" precision="I8">
					<dim>32</dim>
					<dim>192</dim>
					<dim>1</dim>
					<dim>1</dim>
				</port>
			</output>
		</layer>
		<layer id="553" name="20915869151/quantized/to_f32" type="Convert" version="opset1">
			<data destination_type="f32"/>
			<input>
				<port id="0">
					<dim>32</dim>
					<dim>192</dim>
					<dim>1</dim>
					<dim>1</dim>
				</port>
			</input>
			<output>
				<port id="1" precision="FP32">
					<dim>32</dim>
					<dim>192</dim>
					<dim>1</dim>
					<dim>1</dim>
				</port>
			</output>
		</layer>
		<layer id="554" name="Conv_220/WithoutBiases/fq_weights_1/zero_point1302218319" type="Const" version="opset1">
			<data offset="119080" size="128" shape="32,1,1,1" element_type="f32"/>
			<output>
				<port id="0" precision="FP32">
					<dim>32</dim>
					<dim>1</dim>
					<dim>1</dim>
					<dim>1</dim>
				</port>
			</output>
		</layer>
		<layer id="555" name="Conv_220/WithoutBiases/fq_weights_1/minus_zp" type="Subtract" version="opset1">
			<data auto_broadcast="numpy"/>
			<input>
				<port id="0">
					<dim>32</dim>
					<dim>192</dim>
					<dim>1</dim>
					<dim>1</dim>
				</port>
				<port id="1">
					<dim>32</dim>
					<dim>1</dim>
					<dim>1</dim>
					<dim>1</dim>
				</port>
			</input>
			<output>
				<port id="2" precision="FP32">
					<dim>32</dim>
					<dim>192</dim>
					<dim>1</dim>
					<dim>1</dim>
				</port>
			</output>
		</layer>
		<layer id="556" name="Conv_220/WithoutBiases/fq_weights_1/scale1301119873" type="Const" version="opset1">
			<data offset="119208" size="128" shape="32,1,1,1" element_type="f32"/>
			<output>
				<port id="0" precision="FP32">
					<dim>32</dim>
					<dim>1</dim>
					<dim>1</dim>
					<dim>1</dim>
				</port>
			</output>
		</layer>
		<layer id="557" name="Conv_220/WithoutBiases/fq_weights_1/mulpiply_by_scale" type="Multiply" version="opset1">
			<data auto_broadcast="numpy"/>
			<input>
				<port id="0">
					<dim>32</dim>
					<dim>192</dim>
					<dim>1</dim>
					<dim>1</dim>
				</port>
				<port id="1">
					<dim>32</dim>
					<dim>1</dim>
					<dim>1</dim>
					<dim>1</dim>
				</port>
			</input>
			<output>
				<port id="2" precision="FP32">
					<dim>32</dim>
					<dim>192</dim>
					<dim>1</dim>
					<dim>1</dim>
				</port>
			</output>
		</layer>
		<layer id="558" name="Conv_220/WithoutBiases" type="Convolution" version="opset1">
			<data auto_pad="explicit" strides="1,1" dilations="1,1" pads_begin="0,0" pads_end="0,0"/>
			<input>
				<port id="0">
					<dim>1</dim>
					<dim>192</dim>
					<dim>56</dim>
					<dim>48</dim>
				</port>
				<port id="1">
					<dim>32</dim>
					<dim>192</dim>
					<dim>1</dim>
					<dim>1</dim>
				</port>
			</input>
			<output>
				<port id="2" precision="FP32">
					<dim>1</dim>
					<dim>32</dim>
					<dim>56</dim>
					<dim>48</dim>
				</port>
			</output>
		</layer>
		<layer id="559" name="Conv_220/Dims533058818991" type="Const" version="opset1">
			<data offset="119336" size="128" shape="1,32,1,1" element_type="f32"/>
			<output>
				<port id="0" precision="FP32">
					<dim>1</dim>
					<dim>32</dim>
					<dim>1</dim>
					<dim>1</dim>
				</port>
			</output>
		</layer>
		<layer id="560" name="Conv_220" type="Add" version="opset1">
			<data auto_broadcast="numpy"/>
			<input>
				<port id="0">
					<dim>1</dim>
					<dim>32</dim>
					<dim>56</dim>
					<dim>48</dim>
				</port>
				<port id="1">
					<dim>1</dim>
					<dim>32</dim>
					<dim>1</dim>
					<dim>1</dim>
				</port>
			</input>
			<output>
				<port id="2" precision="FP32" names="749">
					<dim>1</dim>
					<dim>32</dim>
					<dim>56</dim>
					<dim>48</dim>
				</port>
			</output>
		</layer>
		<layer id="561" name="Add_222/fq_input_0" type="FakeQuantize" version="opset1">
			<data levels="256" auto_broadcast="numpy"/>
			<input>
				<port id="0">
					<dim>1</dim>
					<dim>32</dim>
					<dim>56</dim>
					<dim>48</dim>
				</port>
				<port id="1"/>
				<port id="2"/>
				<port id="3"/>
				<port id="4"/>
			</input>
			<output>
				<port id="5" precision="FP32">
					<dim>1</dim>
					<dim>32</dim>
					<dim>56</dim>
					<dim>48</dim>
				</port>
			</output>
		</layer>
		<layer id="562" name="Add_222" type="Add" version="opset1">
			<data auto_broadcast="numpy"/>
			<input>
				<port id="0">
					<dim>1</dim>
					<dim>32</dim>
					<dim>56</dim>
					<dim>48</dim>
				</port>
				<port id="1">
					<dim>1</dim>
					<dim>32</dim>
					<dim>56</dim>
					<dim>48</dim>
				</port>
			</input>
			<output>
				<port id="2" precision="FP32" names="751">
					<dim>1</dim>
					<dim>32</dim>
					<dim>56</dim>
					<dim>48</dim>
				</port>
			</output>
		</layer>
		<layer id="563" name="Add_235/fq_input_1" type="FakeQuantize" version="opset1">
			<data levels="256" auto_broadcast="numpy"/>
			<input>
				<port id="0">
					<dim>1</dim>
					<dim>32</dim>
					<dim>56</dim>
					<dim>48</dim>
				</port>
				<port id="1"/>
…
		<edge from-layer="1233" from-port="2" to-layer="1234" to-port="1"/>
		<edge from-layer="1234" from-port="2" to-layer="1236" to-port="0"/>
		<edge from-layer="1235" from-port="0" to-layer="1236" to-port="1"/>
		<edge from-layer="1236" from-port="2" to-layer="1237" to-port="0"/>
		<edge from-layer="126" from-port="0" to-layer="1237" to-port="1"/>
		<edge from-layer="127" from-port="0" to-layer="1237" to-port="2"/>
		<edge from-layer="128" from-port="0" to-layer="1237" to-port="3"/>
		<edge from-layer="129" from-port="0" to-layer="1237" to-port="4"/>
		<edge from-layer="1237" from-port="5" to-layer="1238" to-port="0"/>
		<edge from-layer="1203" from-port="5" to-layer="1238" to-port="1"/>
		<edge from-layer="1238" from-port="2" to-layer="1239" to-port="0"/>
		<edge from-layer="122" from-port="0" to-layer="1239" to-port="1"/>
		<edge from-layer="123" from-port="0" to-layer="1239" to-port="2"/>
		<edge from-layer="124" from-port="0" to-layer="1239" to-port="3"/>
		<edge from-layer="125" from-port="0" to-layer="1239" to-port="4"/>
		<edge from-layer="1240" from-port="0" to-layer="1241" to-port="0"/>
		<edge from-layer="1241" from-port="1" to-layer="1243" to-port="0"/>
		<edge from-layer="1242" from-port="0" to-layer="1243" to-port="1"/>
		<edge from-layer="1243" from-port="2" to-layer="1245" to-port="0"/>
		<edge from-layer="1244" from-port="0" to-layer="1245" to-port="1"/>
		<edge from-layer="1239" from-port="5" to-layer="1246" to-port="0"/>
		<edge from-layer="1245" from-port="2" to-layer="1246" to-port="1"/>
		<edge from-layer="1246" from-port="2" to-layer="1248" to-port="0"/>
		<edge from-layer="1247" from-port="0" to-layer="1248" to-port="1"/>
		<edge from-layer="1248" from-port="2" to-layer="1249" to-port="0"/>
		<edge from-layer="1249" from-port="1" to-layer="1250" to-port="0"/>
		<edge from-layer="118" from-port="0" to-layer="1250" to-port="1"/>
		<edge from-layer="119" from-port="0" to-layer="1250" to-port="2"/>
		<edge from-layer="120" from-port="0" to-layer="1250" to-port="3"/>
		<edge from-layer="121" from-port="0" to-layer="1250" to-port="4"/>
		<edge from-layer="1252" from-port="0" to-layer="1253" to-port="0"/>
		<edge from-layer="1253" from-port="1" to-layer="1255" to-port="0"/>
		<edge from-layer="1254" from-port="0" to-layer="1255" to-port="1"/>
		<edge from-layer="1255" from-port="2" to-layer="1257" to-port="0"/>
		<edge from-layer="1256" from-port="0" to-layer="1257" to-port="1"/>
		<edge from-layer="1257" from-port="2" to-layer="1258" to-port="0"/>
		<edge from-layer="1251" from-port="0" to-layer="1258" to-port="1"/>
		<edge from-layer="1250" from-port="5" to-layer="1259" to-port="0"/>
		<edge from-layer="1258" from-port="2" to-layer="1259" to-port="1"/>
		<edge from-layer="1259" from-port="2" to-layer="1261" to-port="0"/>
		<edge from-layer="1260" from-port="0" to-layer="1261" to-port="1"/>
		<edge from-layer="1261" from-port="2" to-layer="1262" to-port="0"/>
		<edge from-layer="1262" from-port="1" to-layer="1263" to-port="0"/>
		<edge from-layer="114" from-port="0" to-layer="1263" to-port="1"/>
		<edge from-layer="115" from-port="0" to-layer="1263" to-port="2"/>
		<edge from-layer="116" from-port="0" to-layer="1263" to-port="3"/>
		<edge from-layer="117" from-port="0" to-layer="1263" to-port="4"/>
		<edge from-layer="1264" from-port="0" to-layer="1265" to-port="0"/>
		<edge from-layer="1265" from-port="1" to-layer="1267" to-port="0"/>
		<edge from-layer="1266" from-port="0" to-layer="1267" to-port="1"/>
		<edge from-layer="1267" from-port="2" to-layer="1269" to-port="0"/>
		<edge from-layer="1268" from-port="0" to-layer="1269" to-port="1"/>
		<edge from-layer="1263" from-port="5" to-layer="1270" to-port="0"/>
		<edge from-layer="1269" from-port="2" to-layer="1270" to-port="1"/>
		<edge from-layer="1270" from-port="2" to-layer="1272" to-port="0"/>
		<edge from-layer="1271" from-port="0" to-layer="1272" to-port="1"/>
		<edge from-layer="1272" from-port="2" to-layer="1273" to-port="0"/>
		<edge from-layer="110" from-port="0" to-layer="1273" to-port="1"/>
		<edge from-layer="111" from-port="0" to-layer="1273" to-port="2"/>
		<edge from-layer="112" from-port="0" to-layer="1273" to-port="3"/>
		<edge from-layer="113" from-port="0" to-layer="1273" to-port="4"/>
		<edge from-layer="1273" from-port="5" to-layer="1274" to-port="0"/>
		<edge from-layer="1239" from-port="5" to-layer="1274" to-port="1"/>
		<edge from-layer="1274" from-port="2" to-layer="1275" to-port="0"/>
		<edge from-layer="106" from-port="0" to-layer="1275" to-port="1"/>
		<edge from-layer="107" from-port="0" to-layer="1275" to-port="2"/>
		<edge from-layer="108" from-port="0" to-layer="1275" to-port="3"/>
		<edge from-layer="109" from-port="0" to-layer="1275" to-port="4"/>
		<edge from-layer="1276" from-port="0" to-layer="1277" to-port="0"/>
		<edge from-layer="1277" from-port="1" to-layer="1279" to-port="0"/>
		<edge from-layer="1278" from-port="0" to-layer="1279" to-port="1"/>
		<edge from-layer="1279" from-port="2" to-layer="1281" to-port="0"/>
		<edge from-layer="1280" from-port="0" to-layer="1281" to-port="1"/>
		<edge from-layer="1275" from-port="5" to-layer="1282" to-port="0"/>
		<edge from-layer="1281" from-port="2" to-layer="1282" to-port="1"/>
		<edge from-layer="1282" from-port="2" to-layer="1284" to-port="0"/>
		<edge from-layer="1283" from-port="0" to-layer="1284" to-port="1"/>
		<edge from-layer="1284" from-port="2" to-layer="1285" to-port="0"/>
		<edge from-layer="1285" from-port="1" to-layer="1286" to-port="0"/>
		<edge from-layer="102" from-port="0" to-layer="1286" to-port="1"/>
		<edge from-layer="103" from-port="0" to-layer="1286" to-port="2"/>
		<edge from-layer="104" from-port="0" to-layer="1286" to-port="3"/>
		<edge from-layer="105" from-port="0" to-layer="1286" to-port="4"/>
		<edge from-layer="1288" from-port="0" to-layer="1289" to-port="0"/>
		<edge from-layer="1289" from-port="1" to-layer="1291" to-port="0"/>
		<edge from-layer="1290" from-port="0" to-layer="1291" to-port="1"/>
		<edge from-layer="1291" from-port="2" to-layer="1293" to-port="0"/>
		<edge from-layer="1292" from-port="0" to-layer="1293" to-port="1"/>
		<edge from-layer="1293" from-port="2" to-layer="1294" to-port="0"/>
		<edge from-layer="1287" from-port="0" to-layer="1294" to-port="1"/>
		<edge from-layer="1286" from-port="5" to-layer="1295" to-port="0"/>
		<edge from-layer="1294" from-port="2" to-layer="1295" to-port="1"/>
		<edge from-layer="1295" from-port="2" to-layer="1297" to-port="0"/>
		<edge from-layer="1296" from-port="0" to-layer="1297" to-port="1"/>
		<edge from-layer="1297" from-port="2" to-layer="1298" to-port="0"/>
		<edge from-layer="1298" from-port="1" to-layer="1299" to-port="0"/>
		<edge from-layer="98" from-port="0" to-layer="1299" to-port="1"/>
		<edge from-layer="99" from-port="0" to-layer="1299" to-port="2"/>
		<edge from-layer="100" from-port="0" to-layer="1299" to-port="3"/>
		<edge from-layer="101" from-port="0" to-layer="1299" to-port="4"/>
		<edge from-layer="1300" from-port="0" to-layer="1301" to-port="0"/>
		<edge from-layer="1301" from-port="1" to-layer="1303" to-port="0"/>
		<edge from-layer="1302" from-port="0" to-layer="1303" to-port="1"/>
		<edge from-layer="1303" from-port="2" to-layer="1305" to-port="0"/>
		<edge from-layer="1304" from-port="0" to-layer="1305" to-port="1"/>
		<edge from-layer="1299" from-port="5" to-layer="1306" to-port="0"/>
		<edge from-layer="1305" from-port="2" to-layer="1306" to-port="1"/>
		<edge from-layer="1306" from-port="2" to-layer="1308" to-port="0"/>
		<edge from-layer="1307" from-port="0" to-layer="1308" to-port="1"/>
		<edge from-layer="1308" from-port="2" to-layer="1309" to-port="0"/>
		<edge from-layer="94" from-port="0" to-layer="1309" to-port="1"/>
		<edge from-layer="95" from-port="0" to-layer="1309" to-port="2"/>
		<edge from-layer="96" from-port="0" to-layer="1309" to-port="3"/>
		<edge from-layer="97" from-port="0" to-layer="1309" to-port="4"/>
		<edge from-layer="1310" from-port="0" to-layer="1311" to-port="0"/>
		<edge from-layer="1311" from-port="1" to-layer="1313" to-port="0"/>
		<edge from-layer="1312" from-port="0" to-layer="1313" to-port="1"/>
		<edge from-layer="1313" from-port="2" to-layer="1315" to-port="0"/>
		<edge from-layer="1314" from-port="0" to-layer="1315" to-port="1"/>
		<edge from-layer="1309" from-port="5" to-layer="1316" to-port="0"/>
		<edge from-layer="1315" from-port="2" to-layer="1316" to-port="1"/>
		<edge from-layer="1316" from-port="2" to-layer="1317" to-port="0"/>
		<edge from-layer="93" from-port="0" to-layer="1317" to-port="1"/>
		<edge from-layer="1317" from-port="2" to-layer="1318" to-port="0"/>
		<edge from-layer="1318" from-port="1" to-layer="1319" to-port="0"/>
		<edge from-layer="89" from-port="0" to-layer="1319" to-port="1"/>
		<edge from-layer="90" from-port="0" to-layer="1319" to-port="2"/>
		<edge from-layer="91" from-port="0" to-layer="1319" to-port="3"/>
		<edge from-layer="92" from-port="0" to-layer="1319" to-port="4"/>
		<edge from-layer="1320" from-port="0" to-layer="1321" to-port="0"/>
		<edge from-layer="1321" from-port="1" to-layer="1323" to-port="0"/>
		<edge from-layer="1322" from-port="0" to-layer="1323" to-port="1"/>
		<edge from-layer="1323" from-port="2" to-layer="1325" to-port="0"/>
		<edge from-layer="1324" from-port="0" to-layer="1325" to-port="1"/>
		<edge from-layer="1319" from-port="5" to-layer="1326" to-port="0"/>
		<edge from-layer="1325" from-port="2" to-layer="1326" to-port="1"/>
		<edge from-layer="1326" from-port="2" to-layer="1328" to-port="0"/>
		<edge from-layer="1327" from-port="0" to-layer="1328" to-port="1"/>
		<edge from-layer="1328" from-port="2" to-layer="1329" to-port="0"/>
		<edge from-layer="1329" from-port="1" to-layer="1330" to-port="0"/>
		<edge from-layer="85" from-port="0" to-layer="1330" to-port="1"/>
		<edge from-layer="86" from-port="0" to-layer="1330" to-port="2"/>
		<edge from-layer="87" from-port="0" to-layer="1330" to-port="3"/>
		<edge from-layer="88" from-port="0" to-layer="1330" to-port="4"/>
		<edge from-layer="1331" from-port="0" to-layer="1332" to-port="0"/>
		<edge from-layer="1332" from-port="1" to-layer="1334" to-port="0"/>
		<edge from-layer="1333" from-port="0" to-layer="1334" to-port="1"/>
		<edge from-layer="1334" from-port="2" to-layer="1336" to-port="0"/>
		<edge from-layer="1335" from-port="0" to-layer="1336" to-port="1"/>
		<edge from-layer="1330" from-port="5" to-layer="1337" to-port="0"/>
		<edge from-layer="1336" from-port="2" to-layer="1337" to-port="1"/>
		<edge from-layer="1337" from-port="2" to-layer="1339" to-port="0"/>
		<edge from-layer="1338" from-port="0" to-layer="1339" to-port="1"/>
		<edge from-layer="1339" from-port="2" to-layer="1340" to-port="0"/>
		<edge from-layer="81" from-port="0" to-layer="1340" to-port="1"/>
		<edge from-layer="82" from-port="0" to-layer="1340" to-port="2"/>
		<edge from-layer="83" from-port="0" to-layer="1340" to-port="3"/>
		<edge from-layer="84" from-port="0" to-layer="1340" to-port="4"/>
		<edge from-layer="1317" from-port="2" to-layer="1345" to-port="0"/>
		<edge from-layer="1341" from-port="0" to-layer="1345" to-port="1"/>
		<edge from-layer="1342" from-port="0" to-layer="1345" to-port="2"/>
		<edge from-layer="1343" from-port="0" to-layer="1345" to-port="3"/>
		<edge from-layer="1344" from-port="0" to-layer="1345" to-port="4"/>
		<edge from-layer="1340" from-port="5" to-layer="1346" to-port="0"/>
		<edge from-layer="1345" from-port="5" to-layer="1346" to-port="1"/>
		<edge from-layer="1346" from-port="2" to-layer="1347" to-port="0"/>
		<edge from-layer="1347" from-port="1" to-layer="1348" to-port="0"/>
		<edge from-layer="80" from-port="0" to-layer="1349" to-port="0"/>
		<edge from-layer="1348" from-port="1" to-layer="1349" to-port="1"/>
		<edge from-layer="1349" from-port="2" to-layer="1351" to-port="0"/>
		<edge from-layer="1350" from-port="0" to-layer="1351" to-port="1"/>
		<edge from-layer="1351" from-port="2" to-layer="1355" to-port="0"/>
		<edge from-layer="1352" from-port="0" to-layer="1355" to-port="1"/>
		<edge from-layer="1353" from-port="0" to-layer="1355" to-port="2"/>
		<edge from-layer="1354" from-port="0" to-layer="1355" to-port="3"/>
		<edge from-layer="1346" from-port="2" to-layer="1361" to-port="0"/>
		<edge from-layer="1357" from-port="0" to-layer="1361" to-port="1"/>
		<edge from-layer="1358" from-port="0" to-layer="1361" to-port="2"/>
		<edge from-layer="1359" from-port="0" to-layer="1361" to-port="3"/>
		<edge from-layer="1360" from-port="0" to-layer="1361" to-port="4"/>
		<edge from-layer="1361" from-port="5" to-layer="1363" to-port="0"/>
		<edge from-layer="1362" from-port="0" to-layer="1363" to-port="1"/>
		<edge from-layer="1355" from-port="4" to-layer="1363" to-port="2"/>
		<edge from-layer="1356" from-port="0" to-layer="1363" to-port="3"/>
		<edge from-layer="1363" from-port="4" to-layer="1364" to-port="0"/>
		<edge from-layer="76" from-port="0" to-layer="1364" to-port="1"/>
		<edge from-layer="77" from-port="0" to-layer="1364" to-port="2"/>
		<edge from-layer="78" from-port="0" to-layer="1364" to-port="3"/>
		<edge from-layer="79" from-port="0" to-layer="1364" to-port="4"/>
		<edge from-layer="1365" from-port="0" to-layer="1366" to-port="0"/>
		<edge from-layer="1366" from-port="1" to-layer="1368" to-port="0"/>
		<edge from-layer="1367" from-port="0" to-layer="1368" to-port="1"/>
		<edge from-layer="1368" from-port="2" to-layer="1370" to-port="0"/>
		<edge from-layer="1369" from-port="0" to-layer="1370" to-port="1"/>
		<edge from-layer="1364" from-port="5" to-layer="1371" to-port="0"/>
		<edge from-layer="1370" from-port="2" to-layer="1371" to-port="1"/>
		<edge from-layer="1371" from-port="2" to-layer="1373" to-port="0"/>
		<edge from-layer="1372" from-port="0" to-layer="1373" to-port="1"/>
		<edge from-layer="1373" from-port="2" to-layer="1374" to-port="0"/>
		<edge from-layer="72" from-port="0" to-layer="1374" to-port="1"/>
		<edge from-layer="73" from-port="0" to-layer="1374" to-port="2"/>
		<edge from-layer="74" from-port="0" to-layer="1374" to-port="3"/>
		<edge from-layer="75" from-port="0" to-layer="1374" to-port="4"/>
		<edge from-layer="1392" from-port="0" to-layer="1393" to-port="0"/>
		<edge from-layer="1393" from-port="1" to-layer="1395" to-port="0"/>
		<edge from-layer="1394" from-port="0" to-layer="1395" to-port="1"/>
		<edge from-layer="1395" from-port="2" to-layer="1397" to-port="0"/>
		<edge from-layer="1396" from-port="0" to-layer="1397" to-port="1"/>
		<edge from-layer="1061" from-port="5" to-layer="1398" to-port="0"/>
		<edge from-layer="1397" from-port="2" to-layer="1398" to-port="1"/>
		<edge from-layer="1398" from-port="2" to-layer="1399" to-port="0"/>
		<edge from-layer="1391" from-port="0" to-layer="1399" to-port="1"/>
		<edge from-layer="1399" from-port="2" to-layer="1400" to-port="0"/>
		<edge from-layer="1400" from-port="1" to-layer="1401" to-port="0"/>
		<edge from-layer="1387" from-port="0" to-layer="1401" to-port="1"/>
		<edge from-layer="1388" from-port="0" to-layer="1401" to-port="2"/>
		<edge from-layer="1389" from-port="0" to-layer="1401" to-port="3"/>
		<edge from-layer="1390" from-port="0" to-layer="1401" to-port="4"/>
		<edge from-layer="1402" from-port="0" to-layer="1403" to-port="0"/>
		<edge from-layer="1403" from-port="1" to-layer="1405" to-port="0"/>
		<edge from-layer="1404" from-port="0" to-layer="1405" to-port="1"/>
		<edge from-layer="1405" from-port="2" to-layer="1407" to-port="0"/>
		<edge from-layer="1406" from-port="0" to-layer="1407" to-port="1"/>
		<edge from-layer="1401" from-port="5" to-layer="1408" to-port="0"/>
		<edge from-layer="1407" from-port="2" to-layer="1408" to-port="1"/>
		<edge from-layer="1408" from-port="2" to-layer="1410" to-port="0"/>
		<edge from-layer="1409" from-port="0" to-layer="1410" to-port="1"/>
		<edge from-layer="1410" from-port="2" to-layer="1411" to-port="0"/>
		<edge from-layer="1411" from-port="1" to-layer="1412" to-port="0"/>
		<edge from-layer="1383" from-port="0" to-layer="1412" to-port="1"/>
		<edge from-layer="1384" from-port="0" to-layer="1412" to-port="2"/>
		<edge from-layer="1385" from-port="0" to-layer="1412" to-port="3"/>
		<edge from-layer="1386" from-port="0" to-layer="1412" to-port="4"/>
		<edge from-layer="1413" from-port="0" to-layer="1414" to-port="0"/>
		<edge from-layer="1414" from-port="1" to-layer="1416" to-port="0"/>
		<edge from-layer="1415" from-port="0" to-layer="1416" to-port="1"/>
		<edge from-layer="1416" from-port="2" to-layer="1418" to-port="0"/>
		<edge from-layer="1417" from-port="0" to-layer="1418" to-port="1"/>
		<edge from-layer="1412" from-port="5" to-layer="1419" to-port="0"/>
		<edge from-layer="1418" from-port="2" to-layer="1419" to-port="1"/>
		<edge from-layer="1419" from-port="2" to-layer="1421" to-port="0"/>
		<edge from-layer="1420" from-port="0" to-layer="1421" to-port="1"/>
		<edge from-layer="1421" from-port="2" to-layer="1422" to-port="0"/>
		<edge from-layer="1379" from-port="0" to-layer="1422" to-port="1"/>
		<edge from-layer="1380" from-port="0" to-layer="1422" to-port="2"/>
		<edge from-layer="1381" from-port="0" to-layer="1422" to-port="3"/>
		<edge from-layer="1382" from-port="0" to-layer="1422" to-port="4"/>
		<edge from-layer="1399" from-port="2" to-layer="1427" to-port="0"/>
		<edge from-layer="1423" from-port="0" to-layer="1427" to-port="1"/>
		<edge from-layer="1424" from-port="0" to-layer="1427" to-port="2"/>
		<edge from-layer="1425" from-port="0" to-layer="1427" to-port="3"/>
		<edge from-layer="1426" from-port="0" to-layer="1427" to-port="4"/>
		<edge from-layer="1422" from-port="5" to-layer="1428" to-port="0"/>
		<edge from-layer="1427" from-port="5" to-layer="1428" to-port="1"/>
		<edge from-layer="1428" from-port="2" to-layer="1429" to-port="0"/>
		<edge from-layer="1375" from-port="0" to-layer="1429" to-port="1"/>
		<edge from-layer="1376" from-port="0" to-layer="1429" to-port="2"/>
		<edge from-layer="1377" from-port="0" to-layer="1429" to-port="3"/>
		<edge from-layer="1378" from-port="0" to-layer="1429" to-port="4"/>
		<edge from-layer="1374" from-port="5" to-layer="1430" to-port="0"/>
		<edge from-layer="1429" from-port="5" to-layer="1430" to-port="1"/>
		<edge from-layer="1430" from-port="2" to-layer="1431" to-port="0"/>
		<edge from-layer="1431" from-port="1" to-layer="1432" to-port="0"/>
		<edge from-layer="68" from-port="0" to-layer="1432" to-port="1"/>
		<edge from-layer="69" from-port="0" to-layer="1432" to-port="2"/>
		<edge from-layer="70" from-port="0" to-layer="1432" to-port="3"/>
		<edge from-layer="71" from-port="0" to-layer="1432" to-port="4"/>
		<edge from-layer="1433" from-port="0" to-layer="1434" to-port="0"/>
		<edge from-layer="1434" from-port="1" to-layer="1436" to-port="0"/>
		<edge from-layer="1435" from-port="0" to-layer="1436" to-port="1"/>
		<edge from-layer="1436" from-port="2" to-layer="1438" to-port="0"/>
		<edge from-layer="1437" from-port="0" to-layer="1438" to-port="1"/>
		<edge from-layer="1432" from-port="5" to-layer="1439" to-port="0"/>
		<edge from-layer="1438" from-port="2" to-layer="1439" to-port="1"/>
		<edge from-layer="1439" from-port="2" to-layer="1441" to-port="0"/>
		<edge from-layer="1440" from-port="0" to-layer="1441" to-port="1"/>
		<edge from-layer="1441" from-port="2" to-layer="1442" to-port="0"/>
		<edge from-layer="1442" from-port="1" to-layer="1443" to-port="0"/>
		<edge from-layer="64" from-port="0" to-layer="1443" to-port="1"/>
		<edge from-layer="65" from-port="0" to-layer="1443" to-port="2"/>
		<edge from-layer="66" from-port="0" to-layer="1443" to-port="3"/>
		<edge from-layer="67" from-port="0" to-layer="1443" to-port="4"/>
		<edge from-layer="1444" from-port="0" to-layer="1445" to-port="0"/>
		<edge from-layer="1445" from-port="1" to-layer="1447" to-port="0"/>
		<edge from-layer="1446" from-port="0" to-layer="1447" to-port="1"/>
		<edge from-layer="1447" from-port="2" to-layer="1449" to-port="0"/>
		<edge from-layer="1448" from-port="0" to-layer="1449" to-port="1"/>
		<edge from-layer="1443" from-port="5" to-layer="1450" to-port="0"/>
		<edge from-layer="1449" from-port="2" to-layer="1450" to-port="1"/>
		<edge from-layer="1450" from-port="2" to-layer="1452" to-port="0"/>
		<edge from-layer="1451" from-port="0" to-layer="1452" to-port="1"/>
		<edge from-layer="1452" from-port="2" to-layer="1453" to-port="0"/>
		<edge from-layer="60" from-port="0" to-layer="1453" to-port="1"/>
		<edge from-layer="61" from-port="0" to-layer="1453" to-port="2"/>
		<edge from-layer="62" from-port="0" to-layer="1453" to-port="3"/>
		<edge from-layer="63" from-port="0" to-layer="1453" to-port="4"/>
		<edge from-layer="1430" from-port="2" to-layer="1458" to-port="0"/>
		<edge from-layer="1454" from-port="0" to-layer="1458" to-port="1"/>
		<edge from-layer="1455" from-port="0" to-layer="1458" to-port="2"/>
		<edge from-layer="1456" from-port="0" to-layer="1458" to-port="3"/>
		<edge from-layer="1457" from-port="0" to-layer="1458" to-port="4"/>
		<edge from-layer="1453" from-port="5" to-layer="1459" to-port="0"/>
		<edge from-layer="1458" from-port="5" to-layer="1459" to-port="1"/>
		<edge from-layer="1459" from-port="2" to-layer="1460" to-port="0"/>
		<edge from-layer="1460" from-port="1" to-layer="1461" to-port="0"/>
		<edge from-layer="59" from-port="0" to-layer="1462" to-port="0"/>
		<edge from-layer="1461" from-port="1" to-layer="1462" to-port="1"/>
		<edge from-layer="1462" from-port="2" to-layer="1464" to-port="0"/>
		<edge from-layer="1463" from-port="0" to-layer="1464" to-port="1"/>
		<edge from-layer="1464" from-port="2" to-layer="1468" to-port="0"/>
		<edge from-layer="1465" from-port="0" to-layer="1468" to-port="1"/>
		<edge from-layer="1466" from-port="0" to-layer="1468" to-port="2"/>
		<edge from-layer="1467" from-port="0" to-layer="1468" to-port="3"/>
		<edge from-layer="1459" from-port="2" to-layer="1474" to-port="0"/>
		<edge from-layer="1470" from-port="0" to-layer="1474" to-port="1"/>
		<edge from-layer="1471" from-port="0" to-layer="1474" to-port="2"/>
		<edge from-layer="1472" from-port="0" to-layer="1474" to-port="3"/>
		<edge from-layer="1473" from-port="0" to-layer="1474" to-port="4"/>
		<edge from-layer="1474" from-port="5" to-layer="1476" to-port="0"/>
		<edge from-layer="1475" from-port="0" to-layer="1476" to-port="1"/>
		<edge from-layer="1468" from-port="4" to-layer="1476" to-port="2"/>
		<edge from-layer="1469" from-port="0" to-layer="1476" to-port="3"/>
		<edge from-layer="1476" from-port="4" to-layer="1477" to-port="0"/>
		<edge from-layer="55" from-port="0" to-layer="1477" to-port="1"/>
		<edge from-layer="56" from-port="0" to-layer="1477" to-port="2"/>
		<edge from-layer="57" from-port="0" to-layer="1477" to-port="3"/>
		<edge from-layer="58" from-port="0" to-layer="1477" to-port="4"/>
		<edge from-layer="1478" from-port="0" to-layer="1479" to-port="0"/>
		<edge from-layer="1479" from-port="1" to-layer="1481" to-port="0"/>
		<edge from-layer="1480" from-port="0" to-layer="1481" to-port="1"/>
		<edge from-layer="1481" from-port="2" to-layer="1483" to-port="0"/>
		<edge from-layer="1482" from-port="0" to-layer="1483" to-port="1"/>
		<edge from-layer="1477" from-port="5" to-layer="1484" to-port="0"/>
		<edge from-layer="1483" from-port="2" to-layer="1484" to-port="1"/>
		<edge from-layer="1484" from-port="2" to-layer="1486" to-port="0"/>
		<edge from-layer="1485" from-port="0" to-layer="1486" to-port="1"/>
		<edge from-layer="1486" from-port="2" to-layer="1487" to-port="0"/>
		<edge from-layer="51" from-port="0" to-layer="1487" to-port="1"/>
		<edge from-layer="52" from-port="0" to-layer="1487" to-port="2"/>
		<edge from-layer="53" from-port="0" to-layer="1487" to-port="3"/>
		<edge from-layer="54" from-port="0" to-layer="1487" to-port="4"/>
		<edge from-layer="1505" from-port="0" to-layer="1506" to-port="0"/>
		<edge from-layer="1506" from-port="1" to-layer="1508" to-port="0"/>
		<edge from-layer="1507" from-port="0" to-layer="1508" to-port="1"/>
		<edge from-layer="1508" from-port="2" to-layer="1510" to-port="0"/>
		<edge from-layer="1509" from-port="0" to-layer="1510" to-port="1"/>
		<edge from-layer="705" from-port="5" to-layer="1511" to-port="0"/>
		<edge from-layer="1510" from-port="2" to-layer="1511" to-port="1"/>
		<edge from-layer="1511" from-port="2" to-layer="1512" to-port="0"/>
		<edge from-layer="1504" from-port="0" to-layer="1512" to-port="1"/>
		<edge from-layer="1512" from-port="2" to-layer="1513" to-port="0"/>
		<edge from-layer="1513" from-port="1" to-layer="1514" to-port="0"/>
		<edge from-layer="1500" from-port="0" to-layer="1514" to-port="1"/>
		<edge from-layer="1501" from-port="0" to-layer="1514" to-port="2"/>
		<edge from-layer="1502" from-port="0" to-layer="1514" to-port="3"/>
		<edge from-layer="1503" from-port="0" to-layer="1514" to-port="4"/>
		<edge from-layer="1515" from-port="0" to-layer="1516" to-port="0"/>
		<edge from-layer="1516" from-port="1" to-layer="1518" to-port="0"/>
		<edge from-layer="1517" from-port="0" to-layer="1518" to-port="1"/>
		<edge from-layer="1518" from-port="2" to-layer="1520" to-port="0"/>
		<edge from-layer="1519" from-port="0" to-layer="1520" to-port="1"/>
		<edge from-layer="1514" from-port="5" to-layer="1521" to-port="0"/>
		<edge from-layer="1520" from-port="2" to-layer="1521" to-port="1"/>
		<edge from-layer="1521" from-port="2" to-layer="1523" to-port="0"/>
		<edge from-layer="1522" from-port="0" to-layer="1523" to-port="1"/>
		<edge from-layer="1523" from-port="2" to-layer="1524" to-port="0"/>
		<edge from-layer="1524" from-port="1" to-layer="1525" to-port="0"/>
		<edge from-layer="1496" from-port="0" to-layer="1525" to-port="1"/>
		<edge from-layer="1497" from-port="0" to-layer="1525" to-port="2"/>
		<edge from-layer="1498" from-port="0" to-layer="1525" to-port="3"/>
		<edge from-layer="1499" from-port="0" to-layer="1525" to-port="4"/>
		<edge from-layer="1526" from-port="0" to-layer="1527" to-port="0"/>
		<edge from-layer="1527" from-port="1" to-layer="1529" to-port="0"/>
		<edge from-layer="1528" from-port="0" to-layer="1529" to-port="1"/>
		<edge from-layer="1529" from-port="2" to-layer="1531" to-port="0"/>
		<edge from-layer="1530" from-port="0" to-layer="1531" to-port="1"/>
		<edge from-layer="1525" from-port="5" to-layer="1532" to-port="0"/>
		<edge from-layer="1531" from-port="2" to-layer="1532" to-port="1"/>
		<edge from-layer="1532" from-port="2" to-layer="1534" to-port="0"/>
		<edge from-layer="1533" from-port="0" to-layer="1534" to-port="1"/>
		<edge from-layer="1534" from-port="2" to-layer="1535" to-port="0"/>
		<edge from-layer="1492" from-port="0" to-layer="1535" to-port="1"/>
		<edge from-layer="1493" from-port="0" to-layer="1535" to-port="2"/>
		<edge from-layer="1494" from-port="0" to-layer="1535" to-port="3"/>
		<edge from-layer="1495" from-port="0" to-layer="1535" to-port="4"/>
		<edge from-layer="1512" from-port="2" to-layer="1540" to-port="0"/>
		<edge from-layer="1536" from-port="0" to-layer="1540" to-port="1"/>
		<edge from-layer="1537" from-port="0" to-layer="1540" to-port="2"/>
		<edge from-layer="1538" from-port="0" to-layer="1540" to-port="3"/>
		<edge from-layer="1539" from-port="0" to-layer="1540" to-port="4"/>
		<edge from-layer="1535" from-port="5" to-layer="1541" to-port="0"/>
		<edge from-layer="1540" from-port="5" to-layer="1541" to-port="1"/>
		<edge from-layer="1541" from-port="2" to-layer="1542" to-port="0"/>
		<edge from-layer="1488" from-port="0" to-layer="1542" to-port="1"/>
		<edge from-layer="1489" from-port="0" to-layer="1542" to-port="2"/>
		<edge from-layer="1490" from-port="0" to-layer="1542" to-port="3"/>
		<edge from-layer="1491" from-port="0" to-layer="1542" to-port="4"/>
		<edge from-layer="1487" from-port="5" to-layer="1543" to-port="0"/>
		<edge from-layer="1542" from-port="5" to-layer="1543" to-port="1"/>
		<edge from-layer="1543" from-port="2" to-layer="1544" to-port="0"/>
		<edge from-layer="1544" from-port="1" to-layer="1545" to-port="0"/>
		<edge from-layer="47" from-port="0" to-layer="1545" to-port="1"/>
		<edge from-layer="48" from-port="0" to-layer="1545" to-port="2"/>
		<edge from-layer="49" from-port="0" to-layer="1545" to-port="3"/>
		<edge from-layer="50" from-port="0" to-layer="1545" to-port="4"/>
		<edge from-layer="1546" from-port="0" to-layer="1547" to-port="0"/>
		<edge from-layer="1547" from-port="1" to-layer="1549" to-port="0"/>
		<edge from-layer="1548" from-port="0" to-layer="1549" to-port="1"/>
		<edge from-layer="1549" from-port="2" to-layer="1551" to-port="0"/>
		<edge from-layer="1550" from-port="0" to-layer="1551" to-port="1"/>
		<edge from-layer="1545" from-port="5" to-layer="1552" to-port="0"/>
		<edge from-layer="1551" from-port="2" to-layer="1552" to-port="1"/>
		<edge from-layer="1552" from-port="2" to-layer="1554" to-port="0"/>
		<edge from-layer="1553" from-port="0" to-layer="1554" to-port="1"/>
		<edge from-layer="1554" from-port="2" to-layer="1555" to-port="0"/>
		<edge from-layer="1555" from-port="1" to-layer="1556" to-port="0"/>
		<edge from-layer="43" from-port="0" to-layer="1556" to-port="1"/>
		<edge from-layer="44" from-port="0" to-layer="1556" to-port="2"/>
		<edge from-layer="45" from-port="0" to-layer="1556" to-port="3"/>
		<edge from-layer="46" from-port="0" to-layer="1556" to-port="4"/>
		<edge from-layer="1557" from-port="0" to-layer="1558" to-port="0"/>
		<edge from-layer="1558" from-port="1" to-layer="1560" to-port="0"/>
		<edge from-layer="1559" from-port="0" to-layer="1560" to-port="1"/>
		<edge from-layer="1560" from-port="2" to-layer="1562" to-port="0"/>
		<edge from-layer="1561" from-port="0" to-layer="1562" to-port="1"/>
		<edge from-layer="1556" from-port="5" to-layer="1563" to-port="0"/>
		<edge from-layer="1562" from-port="2" to-layer="1563" to-port="1"/>
		<edge from-layer="1563" from-port="2" to-layer="1565" to-port="0"/>
		<edge from-layer="1564" from-port="0" to-layer="1565" to-port="1"/>
		<edge from-layer="1565" from-port="2" to-layer="1566" to-port="0"/>
		<edge from-layer="39" from-port="0" to-layer="1566" to-port="1"/>
		<edge from-layer="40" from-port="0" to-layer="1566" to-port="2"/>
		<edge from-layer="41" from-port="0" to-layer="1566" to-port="3"/>
		<edge from-layer="42" from-port="0" to-layer="1566" to-port="4"/>
		<edge from-layer="1543" from-port="2" to-layer="1571" to-port="0"/>
		<edge from-layer="1567" from-port="0" to-layer="1571" to-port="1"/>
		<edge from-layer="1568" from-port="0" to-layer="1571" to-port="2"/>
		<edge from-layer="1569" from-port="0" to-layer="1571" to-port="3"/>
		<edge from-layer="1570" from-port="0" to-layer="1571" to-port="4"/>
		<edge from-layer="1566" from-port="5" to-layer="1572" to-port="0"/>
		<edge from-layer="1571" from-port="5" to-layer="1572" to-port="1"/>
		<edge from-layer="1572" from-port="2" to-layer="1573" to-port="0"/>
		<edge from-layer="1573" from-port="1" to-layer="1574" to-port="0"/>
		<edge from-layer="38" from-port="0" to-layer="1575" to-port="0"/>
		<edge from-layer="1574" from-port="1" to-layer="1575" to-port="1"/>
		<edge from-layer="1575" from-port="2" to-layer="1577" to-port="0"/>
		<edge from-layer="1576" from-port="0" to-layer="1577" to-port="1"/>
		<edge from-layer="1577" from-port="2" to-layer="1581" to-port="0"/>
		<edge from-layer="1578" from-port="0" to-layer="1581" to-port="1"/>
		<edge from-layer="1579" from-port="0" to-layer="1581" to-port="2"/>
		<edge from-layer="1580" from-port="0" to-layer="1581" to-port="3"/>
		<edge from-layer="1572" from-port="2" to-layer="1587" to-port="0"/>
		<edge from-layer="1583" from-port="0" to-layer="1587" to-port="1"/>
		<edge from-layer="1584" from-port="0" to-layer="1587" to-port="2"/>
		<edge from-layer="1585" from-port="0" to-layer="1587" to-port="3"/>
		<edge from-layer="1586" from-port="0" to-layer="1587" to-port="4"/>
		<edge from-layer="1587" from-port="5" to-layer="1589" to-port="0"/>
		<edge from-layer="1588" from-port="0" to-layer="1589" to-port="1"/>
		<edge from-layer="1581" from-port="4" to-layer="1589" to-port="2"/>
		<edge from-layer="1582" from-port="0" to-layer="1589" to-port="3"/>
		<edge from-layer="1589" from-port="4" to-layer="1590" to-port="0"/>
		<edge from-layer="34" from-port="0" to-layer="1590" to-port="1"/>
		<edge from-layer="35" from-port="0" to-layer="1590" to-port="2"/>
		<edge from-layer="36" from-port="0" to-layer="1590" to-port="3"/>
		<edge from-layer="37" from-port="0" to-layer="1590" to-port="4"/>
		<edge from-layer="1591" from-port="0" to-layer="1592" to-port="0"/>
		<edge from-layer="1592" from-port="1" to-layer="1594" to-port="0"/>
		<edge from-layer="1593" from-port="0" to-layer="1594" to-port="1"/>
		<edge from-layer="1594" from-port="2" to-layer="1596" to-port="0"/>
		<edge from-layer="1595" from-port="0" to-layer="1596" to-port="1"/>
		<edge from-layer="1590" from-port="5" to-layer="1597" to-port="0"/>
		<edge from-layer="1596" from-port="2" to-layer="1597" to-port="1"/>
		<edge from-layer="1597" from-port="2" to-layer="1599" to-port="0"/>
		<edge from-layer="1598" from-port="0" to-layer="1599" to-port="1"/>
		<edge from-layer="1599" from-port="2" to-layer="1600" to-port="0"/>
		<edge from-layer="30" from-port="0" to-layer="1600" to-port="1"/>
		<edge from-layer="31" from-port="0" to-layer="1600" to-port="2"/>
		<edge from-layer="32" from-port="0" to-layer="1600" to-port="3"/>
		<edge from-layer="33" from-port="0" to-layer="1600" to-port="4"/>
		<edge from-layer="1618" from-port="0" to-layer="1619" to-port="0"/>
		<edge from-layer="1619" from-port="1" to-layer="1621" to-port="0"/>
		<edge from-layer="1620" from-port="0" to-layer="1621" to-port="1"/>
		<edge from-layer="1621" from-port="2" to-layer="1623" to-port="0"/>
		<edge from-layer="1622" from-port="0" to-layer="1623" to-port="1"/>
		<edge from-layer="599" from-port="5" to-layer="1624" to-port="0"/>
		<edge from-layer="1623" from-port="2" to-layer="1624" to-port="1"/>
		<edge from-layer="1624" from-port="2" to-layer="1625" to-port="0"/>
		<edge from-layer="1617" from-port="0" to-layer="1625" to-port="1"/>
		<edge from-layer="1625" from-port="2" to-layer="1626" to-port="0"/>
		<edge from-layer="1626" from-port="1" to-layer="1627" to-port="0"/>
		<edge from-layer="1613" from-port="0" to-layer="1627" to-port="1"/>
		<edge from-layer="1614" from-port="0" to-layer="1627" to-port="2"/>
		<edge from-layer="1615" from-port="0" to-layer="1627" to-port="3"/>
		<edge from-layer="1616" from-port="0" to-layer="1627" to-port="4"/>
		<edge from-layer="1628" from-port="0" to-layer="1629" to-port="0"/>
		<edge from-layer="1629" from-port="1" to-layer="1631" to-port="0"/>
		<edge from-layer="1630" from-port="0" to-layer="1631" to-port="1"/>
		<edge from-layer="1631" from-port="2" to-layer="1633" to-port="0"/>
		<edge from-layer="1632" from-port="0" to-layer="1633" to-port="1"/>
		<edge from-layer="1627" from-port="5" to-layer="1634" to-port="0"/>
		<edge from-layer="1633" from-port="2" to-layer="1634" to-port="1"/>
		<edge from-layer="1634" from-port="2" to-layer="1636" to-port="0"/>
		<edge from-layer="1635" from-port="0" to-layer="1636" to-port="1"/>
		<edge from-layer="1636" from-port="2" to-layer="1637" to-port="0"/>
		<edge from-layer="1637" from-port="1" to-layer="1638" to-port="0"/>
		<edge from-layer="1609" from-port="0" to-layer="1638" to-port="1"/>
		<edge from-layer="1610" from-port="0" to-layer="1638" to-port="2"/>
		<edge from-layer="1611" from-port="0" to-layer="1638" to-port="3"/>
		<edge from-layer="1612" from-port="0" to-layer="1638" to-port="4"/>
		<edge from-layer="1639" from-port="0" to-layer="1640" to-port="0"/>
		<edge from-layer="1640" from-port="1" to-layer="1642" to-port="0"/>
		<edge from-layer="1641" from-port="0" to-layer="1642" to-port="1"/>
		<edge from-layer="1642" from-port="2" to-layer="1644" to-port="0"/>
		<edge from-layer="1643" from-port="0" to-layer="1644" to-port="1"/>
		<edge from-layer="1638" from-port="5" to-layer="1645" to-port="0"/>
		<edge from-layer="1644" from-port="2" to-layer="1645" to-port="1"/>
		<edge from-layer="1645" from-port="2" to-layer="1647" to-port="0"/>
		<edge from-layer="1646" from-port="0" to-layer="1647" to-port="1"/>
		<edge from-layer="1647" from-port="2" to-layer="1648" to-port="0"/>
		<edge from-layer="1605" from-port="0" to-layer="1648" to-port="1"/>
		<edge from-layer="1606" from-port="0" to-layer="1648" to-port="2"/>
		<edge from-layer="1607" from-port="0" to-layer="1648" to-port="3"/>
		<edge from-layer="1608" from-port="0" to-layer="1648" to-port="4"/>
		<edge from-layer="1625" from-port="2" to-layer="1653" to-port="0"/>
		<edge from-layer="1649" from-port="0" to-layer="1653" to-port="1"/>
		<edge from-layer="1650" from-port="0" to-layer="1653" to-port="2"/>
		<edge from-layer="1651" from-port="0" to-layer="1653" to-port="3"/>
		<edge from-layer="1652" from-port="0" to-layer="1653" to-port="4"/>
		<edge from-layer="1648" from-port="5" to-layer="1654" to-port="0"/>
		<edge from-layer="1653" from-port="5" to-layer="1654" to-port="1"/>
		<edge from-layer="1654" from-port="2" to-layer="1655" to-port="0"/>
		<edge from-layer="1601" from-port="0" to-layer="1655" to-port="1"/>
		<edge from-layer="1602" from-port="0" to-layer="1655" to-port="2"/>
		<edge from-layer="1603" from-port="0" to-layer="1655" to-port="3"/>
		<edge from-layer="1604" from-port="0" to-layer="1655" to-port="4"/>
		<edge from-layer="1600" from-port="5" to-layer="1656" to-port="0"/>
		<edge from-layer="1655" from-port="5" to-layer="1656" to-port="1"/>
		<edge from-layer="1656" from-port="2" to-layer="1657" to-port="0"/>
		<edge from-layer="1657" from-port="1" to-layer="1658" to-port="0"/>
		<edge from-layer="26" from-port="0" to-layer="1658" to-port="1"/>
		<edge from-layer="27" from-port="0" to-layer="1658" to-port="2"/>
		<edge from-layer="28" from-port="0" to-layer="1658" to-port="3"/>
		<edge from-layer="29" from-port="0" to-layer="1658" to-port="4"/>
		<edge from-layer="1659" from-port="0" to-layer="1660" to-port="0"/>
		<edge from-layer="1660" from-port="1" to-layer="1662" to-port="0"/>
		<edge from-layer="1661" from-port="0" to-layer="1662" to-port="1"/>
		<edge from-layer="1662" from-port="2" to-layer="1664" to-port="0"/>
		<edge from-layer="1663" from-port="0" to-layer="1664" to-port="1"/>
		<edge from-layer="1658" from-port="5" to-layer="1665" to-port="0"/>
		<edge from-layer="1664" from-port="2" to-layer="1665" to-port="1"/>
		<edge from-layer="1665" from-port="2" to-layer="1667" to-port="0"/>
		<edge from-layer="1666" from-port="0" to-layer="1667" to-port="1"/>
		<edge from-layer="1667" from-port="2" to-layer="1668" to-port="0"/>
		<edge from-layer="1668" from-port="1" to-layer="1669" to-port="0"/>
		<edge from-layer="22" from-port="0" to-layer="1669" to-port="1"/>
		<edge from-layer="23" from-port="0" to-layer="1669" to-port="2"/>
		<edge from-layer="24" from-port="0" to-layer="1669" to-port="3"/>
		<edge from-layer="25" from-port="0" to-layer="1669" to-port="4"/>
		<edge from-layer="1670" from-port="0" to-layer="1671" to-port="0"/>
		<edge from-layer="1671" from-port="1" to-layer="1673" to-port="0"/>
		<edge from-layer="1672" from-port="0" to-layer="1673" to-port="1"/>
		<edge from-layer="1673" from-port="2" to-layer="1675" to-port="0"/>
		<edge from-layer="1674" from-port="0" to-layer="1675" to-port="1"/>
		<edge from-layer="1669" from-port="5" to-layer="1676" to-port="0"/>
		<edge from-layer="1675" from-port="2" to-layer="1676" to-port="1"/>
		<edge from-layer="1676" from-port="2" to-layer="1678" to-port="0"/>
		<edge from-layer="1677" from-port="0" to-layer="1678" to-port="1"/>
		<edge from-layer="1678" from-port="2" to-layer="1679" to-port="0"/>
		<edge from-layer="18" from-port="0" to-layer="1679" to-port="1"/>
		<edge from-layer="19" from-port="0" to-layer="1679" to-port="2"/>
		<edge from-layer="20" from-port="0" to-layer="1679" to-port="3"/>
		<edge from-layer="21" from-port="0" to-layer="1679" to-port="4"/>
		<edge from-layer="1656" from-port="2" to-layer="1684" to-port="0"/>
		<edge from-layer="1680" from-port="0" to-layer="1684" to-port="1"/>
		<edge from-layer="1681" from-port="0" to-layer="1684" to-port="2"/>
		<edge from-layer="1682" from-port="0" to-layer="1684" to-port="3"/>
		<edge from-layer="1683" from-port="0" to-layer="1684" to-port="4"/>
		<edge from-layer="1679" from-port="5" to-layer="1685" to-port="0"/>
		<edge from-layer="1684" from-port="5" to-layer="1685" to-port="1"/>
		<edge from-layer="1685" from-port="2" to-layer="1686" to-port="0"/>
		<edge from-layer="1686" from-port="1" to-layer="1687" to-port="0"/>
		<edge from-layer="17" from-port="0" to-layer="1688" to-port="0"/>
		<edge from-layer="1687" from-port="1" to-layer="1688" to-port="1"/>
		<edge from-layer="1688" from-port="2" to-layer="1690" to-port="0"/>
		<edge from-layer="1689" from-port="0" to-layer="1690" to-port="1"/>
		<edge from-layer="1690" from-port="2" to-layer="1694" to-port="0"/>
		<edge from-layer="1691" from-port="0" to-layer="1694" to-port="1"/>
		<edge from-layer="1692" from-port="0" to-layer="1694" to-port="2"/>
		<edge from-layer="1693" from-port="0" to-layer="1694" to-port="3"/>
		<edge from-layer="1685" from-port="2" to-layer="1700" to-port="0"/>
		<edge from-layer="1696" from-port="0" to-layer="1700" to-port="1"/>
		<edge from-layer="1697" from-port="0" to-layer="1700" to-port="2"/>
		<edge from-layer="1698" from-port="0" to-layer="1700" to-port="3"/>
		<edge from-layer="1699" from-port="0" to-layer="1700" to-port="4"/>
		<edge from-layer="1700" from-port="5" to-layer="1702" to-port="0"/>
		<edge from-layer="1701" from-port="0" to-layer="1702" to-port="1"/>
		<edge from-layer="1694" from-port="4" to-layer="1702" to-port="2"/>
		<edge from-layer="1695" from-port="0" to-layer="1702" to-port="3"/>
		<edge from-layer="1702" from-port="4" to-layer="1703" to-port="0"/>
		<edge from-layer="13" from-port="0" to-layer="1703" to-port="1"/>
		<edge from-layer="14" from-port="0" to-layer="1703" to-port="2"/>
		<edge from-layer="15" from-port="0" to-layer="1703" to-port="3"/>
		<edge from-layer="16" from-port="0" to-layer="1703" to-port="4"/>
		<edge from-layer="1704" from-port="0" to-layer="1705" to-port="0"/>
		<edge from-layer="1705" from-port="1" to-layer="1707" to-port="0"/>
		<edge from-layer="1706" from-port="0" to-layer="1707" to-port="1"/>
		<edge from-layer="1707" from-port="2" to-layer="1709" to-port="0"/>
		<edge from-layer="1708" from-port="0" to-layer="1709" to-port="1"/>
		<edge from-layer="1703" from-port="5" to-layer="1710" to-port="0"/>
		<edge from-layer="1709" from-port="2" to-layer="1710" to-port="1"/>
		<edge from-layer="1710" from-port="2" to-layer="1712" to-port="0"/>
		<edge from-layer="1711" from-port="0" to-layer="1712" to-port="1"/>
		<edge from-layer="1712" from-port="2" to-layer="1713" to-port="0"/>
		<edge from-layer="9" from-port="0" to-layer="1713" to-port="1"/>
		<edge from-layer="10" from-port="0" to-layer="1713" to-port="2"/>
		<edge from-layer="11" from-port="0" to-layer="1713" to-port="3"/>
		<edge from-layer="12" from-port="0" to-layer="1713" to-port="4"/>
		<edge from-layer="1714" from-port="0" to-layer="1715" to-port="0"/>
		<edge from-layer="1715" from-port="1" to-layer="1717" to-port="0"/>
		<edge from-layer="1716" from-port="0" to-layer="1717" to-port="1"/>
		<edge from-layer="1717" from-port="2" to-layer="1719" to-port="0"/>
		<edge from-layer="1718" from-port="0" to-layer="1719" to-port="1"/>
		<edge from-layer="1713" from-port="5" to-layer="1720" to-port="0"/>
		<edge from-layer="1719" from-port="2" to-layer="1720" to-port="1"/>
		<edge from-layer="1720" from-port="2" to-layer="1722" to-port="0"/>
		<edge from-layer="1721" from-port="0" to-layer="1722" to-port="1"/>
		<edge from-layer="1722" from-port="2" to-layer="1723" to-port="0"/>
		<edge from-layer="1723" from-port="1" to-layer="1724" to-port="0"/>
		<edge from-layer="8" from-port="0" to-layer="1725" to-port="0"/>
		<edge from-layer="1724" from-port="1" to-layer="1725" to-port="1"/>
		<edge from-layer="1725" from-port="2" to-layer="1727" to-port="0"/>
		<edge from-layer="1726" from-port="0" to-layer="1727" to-port="1"/>
		<edge from-layer="1727" from-port="2" to-layer="1731" to-port="0"/>
		<edge from-layer="1728" from-port="0" to-layer="1731" to-port="1"/>
		<edge from-layer="1729" from-port="0" to-layer="1731" to-port="2"/>
		<edge from-layer="1730" from-port="0" to-layer="1731" to-port="3"/>
		<edge from-layer="1722" from-port="2" to-layer="1737" to-port="0"/>
		<edge from-layer="1733" from-port="0" to-layer="1737" to-port="1"/>
		<edge from-layer="1734" from-port="0" to-layer="1737" to-port="2"/>
		<edge from-layer="1735" from-port="0" to-layer="1737" to-port="3"/>
		<edge from-layer="1736" from-port="0" to-layer="1737" to-port="4"/>
		<edge from-layer="1737" from-port="5" to-layer="1739" to-port="0"/>
		<edge from-layer="1738" from-port="0" to-layer="1739" to-port="1"/>
		<edge from-layer="1731" from-port="4" to-layer="1739" to-port="2"/>
		<edge from-layer="1732" from-port="0" to-layer="1739" to-port="3"/>
		<edge from-layer="1739" from-port="4" to-layer="1740" to-port="0"/>
		<edge from-layer="4" from-port="0" to-layer="1740" to-port="1"/>
		<edge from-layer="5" from-port="0" to-layer="1740" to-port="2"/>
		<edge from-layer="6" from-port="0" to-layer="1740" to-port="3"/>
		<edge from-layer="7" from-port="0" to-layer="1740" to-port="4"/>
		<edge from-layer="1741" from-port="0" to-layer="1742" to-port="0"/>
		<edge from-layer="1742" from-port="1" to-layer="1744" to-port="0"/>
		<edge from-layer="1743" from-port="0" to-layer="1744" to-port="1"/>
		<edge from-layer="1744" from-port="2" to-layer="1746" to-port="0"/>
		<edge from-layer="1745" from-port="0" to-layer="1746" to-port="1"/>
		<edge from-layer="1740" from-port="5" to-layer="1747" to-port="0"/>
		<edge from-layer="1746" from-port="2" to-layer="1747" to-port="1"/>
		<edge from-layer="1747" from-port="2" to-layer="1749" to-port="0"/>
		<edge from-layer="1748" from-port="0" to-layer="1749" to-port="1"/>
		<edge from-layer="1749" from-port="2" to-layer="1750" to-port="0"/>
		<edge from-layer="1750" from-port="1" to-layer="1751" to-port="0"/>
		<edge from-layer="0" from-port="0" to-layer="1751" to-port="1"/>
		<edge from-layer="1" from-port="0" to-layer="1751" to-port="2"/>
		<edge from-layer="2" from-port="0" to-layer="1751" to-port="3"/>
		<edge from-layer="3" from-port="0" to-layer="1751" to-port="4"/>
		<edge from-layer="1752" from-port="0" to-layer="1753" to-port="0"/>
		<edge from-layer="1753" from-port="1" to-layer="1755" to-port="0"/>
		<edge from-layer="1754" from-port="0" to-layer="1755" to-port="1"/>
		<edge from-layer="1755" from-port="2" to-layer="1757" to-port="0"/>
		<edge from-layer="1756" from-port="0" to-layer="1757" to-port="1"/>
		<edge from-layer="1751" from-port="5" to-layer="1758" to-port="0"/>
		<edge from-layer="1757" from-port="2" to-layer="1758" to-port="1"/>
		<edge from-layer="1758" from-port="2" to-layer="1760" to-port="0"/>
		<edge from-layer="1759" from-port="0" to-layer="1760" to-port="1"/>
		<edge from-layer="1760" from-port="2" to-layer="1761" to-port="0"/>
		<edge from-layer="1761" from-port="1" to-layer="1762" to-port="0"/>
	</edges>
	<meta_data>
		<MO_version value="2021.4.2-3974-e2a469a3450-releases/2021/4"/>
		<cli_parameters>
			<caffe_parser_path value="DIR"/>
			<data_type value="FP32"/>
			<disable_nhwc_to_nchw value="False"/>
			<disable_omitting_optional value="False"/>
			<disable_resnet_optimization value="False"/>
			<disable_weights_compression value="False"/>
			<enable_concat_optimization value="False"/>
			<enable_flattening_nested_params value="False"/>
			<enable_ssd_gluoncv value="False"/>
			<extensions value="DIR"/>
			<framework value="onnx"/>
			<freeze_placeholder_with_value value="{}"/>
			<generate_deprecated_IR_V7 value="False"/>
			<input value="input1"/>
			<input_model value="DIR/1.onnx"/>
			<input_model_is_text value="False"/>
			<input_shape value="[1,3,224,192]"/>
			<k value="DIR/CustomLayersMapping.xml"/>
			<keep_shape_ops value="True"/>
			<legacy_ir_generation value="False"/>
			<legacy_mxnet_model value="False"/>
			<log_level value="ERROR"/>
			<mean_scale_values value="{'input1': {'mean': array([123.675, 116.28 , 103.53 ]), 'scale': array([58.395, 57.12 , 57.375])}}"/>
			<mean_values value="input1[123.675,116.28,103.53]"/>
			<model_name value="1"/>
			<output_dir value="DIR"/>
			<placeholder_data_types value="{}"/>
			<placeholder_shapes value="{'input1': array([  1,   3, 224, 192])}"/>
			<progress value="True"/>
			<remove_memory value="False"/>
			<remove_output_softmax value="False"/>
			<reverse_input_channels value="True"/>
			<save_params_from_nd value="False"/>
			<scale_values value="input1[58.395,57.12,57.375]"/>
			<silent value="False"/>
			<static_shape value="False"/>
			<stream_output value="True"/>
			<transform value=""/>
			<unset unset_cli_parameters="batch, counts, disable_fusing, disable_gfusing, finegrain_fusing, input_checkpoint, input_meta_graph, input_proto, input_symbol, mean_file, mean_file_offsets, move_to_preprocess, nd_prefix_name, output, pretrained_model_name, saved_model_dir, saved_model_tags, scale, tensorboard_logdir, tensorflow_custom_layer_libraries, tensorflow_custom_operations_config_update, tensorflow_object_detection_api_pipeline_config, tensorflow_use_custom_operations_config, transformations_config"/>
		</cli_parameters>
	</meta_data>
	<quantization_parameters>
		<config>{
		'compression': {
			'target_device': 'CPU',
			'algorithms': [
				{
					'name': 'DefaultQuantization',
					'params': {
						'preset': 'performance',
						'stat_subset_size': 500
					}
				}
			]
		},
		'engine': {
			'type': 'simplified',
			'data_source': 'PATH',
			'device': 'CPU'
		}
	}</config>
		<version value="1.0"/>
		<cli_params value="{'quantize': None, 'preset': None, 'model': None, 'weights': None, 'name': None, 'ac_config': None, 'max_drop': None, 'evaluate': False, 'output_dir': 'PATH', 'direct_dump': True, 'log_level': 'INFO', 'pbar': True, 'stream_output': False, 'keep_uncompressed_weights': False}"/>
	</quantization_parameters>
</net>
