<?xml version="1.0" ?>
<net name="5_onnx" version="10">
	<layers>
		<layer id="0" name="2190219417566" type="Const" version="opset1">
			<data offset="0" size="4" shape="" element_type="f32"/>
			<output>
				<port id="0" precision="FP32"/>
			</output>
		</layer>
		<layer id="1" name="2191219518313" type="Const" version="opset1">
			<data offset="4" size="4" shape="" element_type="f32"/>
			<output>
				<port id="0" precision="FP32"/>
			</output>
		</layer>
		<layer id="2" name="2192219619327" type="Const" version="opset1">
			<data offset="0" size="4" shape="" element_type="f32"/>
			<output>
				<port id="0" precision="FP32"/>
			</output>
		</layer>
		<layer id="3" name="2193219719396" type="Const" version="opset1">
			<data offset="4" size="4" shape="" element_type="f32"/>
			<output>
				<port id="0" precision="FP32"/>
			</output>
		</layer>
		<layer id="4" name="1990199418943" type="Const" version="opset1">
			<data offset="8" size="4" shape="" element_type="f32"/>
			<output>
				<port id="0" precision="FP32"/>
			</output>
		</layer>
		<layer id="5" name="1991199518388" type="Const" version="opset1">
			<data offset="12" size="4" shape="" element_type="f32"/>
			<output>
				<port id="0" precision="FP32"/>
			</output>
		</layer>
		<layer id="6" name="1992199618184" type="Const" version="opset1">
			<data offset="8" size="4" shape="" element_type="f32"/>
			<output>
				<port id="0" precision="FP32"/>
			</output>
		</layer>
		<layer id="7" name="1993199719363" type="Const" version="opset1">
			<data offset="12" size="4" shape="" element_type="f32"/>
			<output>
				<port id="0" precision="FP32"/>
			</output>
		</layer>
		<layer id="8" name="4172417422708106218775" type="Const" version="opset1">
			<data offset="16" size="16" shape="4" element_type="f32"/>
			<output>
				<port id="0" precision="FP32">
					<dim>4</dim>
				</port>
			</output>
		</layer>
		<layer id="9" name="3890389419615" type="Const" version="opset1">
			<data offset="32" size="4" shape="" element_type="f32"/>
			<output>
				<port id="0" precision="FP32"/>
			</output>
		</layer>
		<layer id="10" name="3891389517554" type="Const" version="opset1">
			<data offset="36" size="4" shape="" element_type="f32"/>
			<output>
				<port id="0" precision="FP32"/>
			</output>
		</layer>
		<layer id="11" name="3892389619504" type="Const" version="opset1">
			<data offset="32" size="4" shape="" element_type="f32"/>
			<output>
				<port id="0" precision="FP32"/>
			</output>
		</layer>
		<layer id="12" name="3893389718013" type="Const" version="opset1">
			<data offset="36" size="4" shape="" element_type="f32"/>
			<output>
				<port id="0" precision="FP32"/>
			</output>
		</layer>
		<layer id="13" name="3830383418670" type="Const" version="opset1">
			<data offset="40" size="4" shape="" element_type="f32"/>
			<output>
				<port id="0" precision="FP32"/>
			</output>
		</layer>
		<layer id="14" name="3831383519048" type="Const" version="opset1">
			<data offset="44" size="4" shape="" element_type="f32"/>
			<output>
				<port id="0" precision="FP32"/>
			</output>
		</layer>
		<layer id="15" name="3832383620239" type="Const" version="opset1">
			<data offset="40" size="4" shape="" element_type="f32"/>
			<output>
				<port id="0" precision="FP32"/>
			</output>
		</layer>
		<layer id="16" name="3833383719981" type="Const" version="opset1">
			<data offset="44" size="4" shape="" element_type="f32"/>
			<output>
				<port id="0" precision="FP32"/>
			</output>
		</layer>
		<layer id="17" name="4140414223302104119030" type="Const" version="opset1">
			<data offset="48" size="16" shape="4" element_type="f32"/>
			<output>
				<port id="0" precision="FP32">
					<dim>4</dim>
				</port>
			</output>
		</layer>
		<layer id="18" name="4182418617974" type="Const" version="opset1">
			<data offset="64" size="4" shape="" element_type="f32"/>
			<output>
				<port id="0" precision="FP32"/>
			</output>
		</layer>
		<layer id="19" name="4183418719768" type="Const" version="opset1">
			<data offset="68" size="4" shape="" element_type="f32"/>
			<output>
				<port id="0" precision="FP32"/>
			</output>
		</layer>
		<layer id="20" name="4184418819057" type="Const" version="opset1">
			<data offset="64" size="4" shape="" element_type="f32"/>
			<output>
				<port id="0" precision="FP32"/>
			</output>
		</layer>
		<layer id="21" name="4185418917860" type="Const" version="opset1">
			<data offset="68" size="4" shape="" element_type="f32"/>
			<output>
				<port id="0" precision="FP32"/>
			</output>
		</layer>
		<layer id="22" name="2070207418034" type="Const" version="opset1">
			<data offset="0" size="4" shape="" element_type="f32"/>
			<output>
				<port id="0" precision="FP32"/>
			</output>
		</layer>
		<layer id="23" name="2071207519039" type="Const" version="opset1">
			<data offset="72" size="4" shape="" element_type="f32"/>
			<output>
				<port id="0" precision="FP32"/>
			</output>
		</layer>
		<layer id="24" name="2072207618946" type="Const" version="opset1">
			<data offset="0" size="4" shape="" element_type="f32"/>
			<output>
				<port id="0" precision="FP32"/>
			</output>
		</layer>
		<layer id="25" name="2073207718037" type="Const" version="opset1">
			<data offset="72" size="4" shape="" element_type="f32"/>
			<output>
				<port id="0" precision="FP32"/>
			</output>
		</layer>
		<layer id="26" name="2390239420092" type="Const" version="opset1">
			<data offset="0" size="4" shape="" element_type="f32"/>
			<output>
				<port id="0" precision="FP32"/>
			</output>
		</layer>
		<layer id="27" name="2391239520197" type="Const" version="opset1">
			<data offset="76" size="4" shape="" element_type="f32"/>
			<output>
				<port id="0" precision="FP32"/>
			</output>
		</layer>
		<layer id="28" name="2392239620098" type="Const" version="opset1">
			<data offset="0" size="4" shape="" element_type="f32"/>
			<output>
				<port id="0" precision="FP32"/>
			</output>
		</layer>
		<layer id="29" name="2393239719351" type="Const" version="opset1">
			<data offset="76" size="4" shape="" element_type="f32"/>
			<output>
				<port id="0" precision="FP32"/>
			</output>
		</layer>
		<layer id="30" name="3550355419447" type="Const" version="opset1">
			<data offset="80" size="4" shape="" element_type="f32"/>
			<output>
				<port id="0" precision="FP32"/>
			</output>
		</layer>
		<layer id="31" name="3551355519498" type="Const" version="opset1">
			<data offset="84" size="4" shape="" element_type="f32"/>
			<output>
				<port id="0" precision="FP32"/>
			</output>
		</layer>
		<layer id="32" name="3552355618049" type="Const" version="opset1">
			<data offset="80" size="4" shape="" element_type="f32"/>
			<output>
				<port id="0" precision="FP32"/>
			</output>
		</layer>
		<layer id="33" name="3553355717629" type="Const" version="opset1">
			<data offset="84" size="4" shape="" element_type="f32"/>
			<output>
				<port id="0" precision="FP32"/>
			</output>
		</layer>
		<layer id="34" name="2880288419045" type="Const" version="opset1">
			<data offset="88" size="4" shape="" element_type="f32"/>
			<output>
				<port id="0" precision="FP32"/>
			</output>
		</layer>
		<layer id="35" name="2881288519141" type="Const" version="opset1">
			<data offset="92" size="4" shape="" element_type="f32"/>
			<output>
				<port id="0" precision="FP32"/>
			</output>
		</layer>
		<layer id="36" name="2882288617704" type="Const" version="opset1">
			<data offset="88" size="4" shape="" element_type="f32"/>
			<output>
				<port id="0" precision="FP32"/>
			</output>
		</layer>
		<layer id="37" name="2883288717593" type="Const" version="opset1">
			<data offset="92" size="4" shape="" element_type="f32"/>
			<output>
				<port id="0" precision="FP32"/>
			</output>
		</layer>
		<layer id="38" name="410841102276599917665" type="Const" version="opset1">
			<data offset="96" size="16" shape="4" element_type="f32"/>
			<output>
				<port id="0" precision="FP32">
					<dim>4</dim>
				</port>
			</output>
		</layer>
		<layer id="39" name="1790179417845" type="Const" version="opset1">
			<data offset="112" size="4" shape="" element_type="f32"/>
			<output>
				<port id="0" precision="FP32"/>
			</output>
		</layer>
		<layer id="40" name="1791179520206" type="Const" version="opset1">
			<data offset="116" size="4" shape="" element_type="f32"/>
			<output>
				<port id="0" precision="FP32"/>
			</output>
		</layer>
		<layer id="41" name="1792179620212" type="Const" version="opset1">
			<data offset="112" size="4" shape="" element_type="f32"/>
			<output>
				<port id="0" precision="FP32"/>
			</output>
		</layer>
		<layer id="42" name="1793179718505" type="Const" version="opset1">
			<data offset="116" size="4" shape="" element_type="f32"/>
			<output>
				<port id="0" precision="FP32"/>
			</output>
		</layer>
		<layer id="43" name="2800280418937" type="Const" version="opset1">
			<data offset="0" size="4" shape="" element_type="f32"/>
			<output>
				<port id="0" precision="FP32"/>
			</output>
		</layer>
		<layer id="44" name="2801280518379" type="Const" version="opset1">
			<data offset="120" size="4" shape="" element_type="f32"/>
			<output>
				<port id="0" precision="FP32"/>
			</output>
		</layer>
		<layer id="45" name="2802280618703" type="Const" version="opset1">
			<data offset="0" size="4" shape="" element_type="f32"/>
			<output>
				<port id="0" precision="FP32"/>
			</output>
		</layer>
		<layer id="46" name="2803280720155" type="Const" version="opset1">
			<data offset="120" size="4" shape="" element_type="f32"/>
			<output>
				<port id="0" precision="FP32"/>
			</output>
		</layer>
		<layer id="47" name="4202420618538" type="Const" version="opset1">
			<data offset="0" size="4" shape="" element_type="f32"/>
			<output>
				<port id="0" precision="FP32"/>
			</output>
		</layer>
		<layer id="48" name="4203420719393" type="Const" version="opset1">
			<data offset="124" size="4" shape="" element_type="f32"/>
			<output>
				<port id="0" precision="FP32"/>
			</output>
		</layer>
		<layer id="49" name="4204420819912" type="Const" version="opset1">
			<data offset="0" size="4" shape="" element_type="f32"/>
			<output>
				<port id="0" precision="FP32"/>
			</output>
		</layer>
		<layer id="50" name="4205420919837" type="Const" version="opset1">
			<data offset="124" size="4" shape="" element_type="f32"/>
			<output>
				<port id="0" precision="FP32"/>
			</output>
		</layer>
		<layer id="51" name="4071407519864" type="Const" version="opset1">
			<data offset="128" size="4" shape="" element_type="f32"/>
			<output>
				<port id="0" precision="FP32"/>
			</output>
		</layer>
		<layer id="52" name="4072407619384" type="Const" version="opset1">
			<data offset="132" size="4" shape="" element_type="f32"/>
			<output>
				<port id="0" precision="FP32"/>
			</output>
		</layer>
		<layer id="53" name="4073407718442" type="Const" version="opset1">
			<data offset="128" size="4" shape="" element_type="f32"/>
			<output>
				<port id="0" precision="FP32"/>
			</output>
		</layer>
		<layer id="54" name="4074407819921" type="Const" version="opset1">
			<data offset="132" size="4" shape="" element_type="f32"/>
			<output>
				<port id="0" precision="FP32"/>
			</output>
		</layer>
		<layer id="55" name="2980298419657" type="Const" version="opset1">
			<data offset="136" size="4" shape="" element_type="f32"/>
			<output>
				<port id="0" precision="FP32"/>
			</output>
		</layer>
		<layer id="56" name="2981298520140" type="Const" version="opset1">
			<data offset="140" size="4" shape="" element_type="f32"/>
			<output>
				<port id="0" precision="FP32"/>
			</output>
		</layer>
		<layer id="57" name="2982298617920" type="Const" version="opset1">
			<data offset="136" size="4" shape="" element_type="f32"/>
			<output>
				<port id="0" precision="FP32"/>
			</output>
		</layer>
		<layer id="58" name="2983298718523" type="Const" version="opset1">
			<data offset="140" size="4" shape="" element_type="f32"/>
			<output>
				<port id="0" precision="FP32"/>
			</output>
		</layer>
		<layer id="59" name="407640782287095718694" type="Const" version="opset1">
			<data offset="144" size="16" shape="4" element_type="f32"/>
			<output>
				<port id="0" precision="FP32">
					<dim>4</dim>
				</port>
			</output>
		</layer>
		<layer id="60" name="2590259418847" type="Const" version="opset1">
			<data offset="160" size="4" shape="" element_type="f32"/>
			<output>
				<port id="0" precision="FP32"/>
			</output>
		</layer>
		<layer id="61" name="2591259518157" type="Const" version="opset1">
			<data offset="164" size="4" shape="" element_type="f32"/>
			<output>
				<port id="0" precision="FP32"/>
			</output>
		</layer>
		<layer id="62" name="2592259620215" type="Const" version="opset1">
			<data offset="160" size="4" shape="" element_type="f32"/>
			<output>
				<port id="0" precision="FP32"/>
			</output>
		</layer>
		<layer id="63" name="2593259719036" type="Const" version="opset1">
			<data offset="164" size="4" shape="" element_type="f32"/>
			<output>
				<port id="0" precision="FP32"/>
			</output>
		</layer>
		<layer id="64" name="4282428617446" type="Const" version="opset1">
			<data offset="0" size="4" shape="" element_type="f32"/>
			<output>
				<port id="0" precision="FP32"/>
			</output>
		</layer>
		<layer id="65" name="4283428719780" type="Const" version="opset1">
			<data offset="168" size="4" shape="" element_type="f32"/>
			<output>
				<port id="0" precision="FP32"/>
			</output>
		</layer>
		<layer id="66" name="4284428817392" type="Const" version="opset1">
			<data offset="0" size="4" shape="" element_type="f32"/>
			<output>
				<port id="0" precision="FP32"/>
			</output>
		</layer>
		<layer id="67" name="4285428918616" type="Const" version="opset1">
			<data offset="168" size="4" shape="" element_type="f32"/>
			<output>
				<port id="0" precision="FP32"/>
			</output>
		</layer>
		<layer id="68" name="4121412518490" type="Const" version="opset1">
			<data offset="0" size="4" shape="" element_type="f32"/>
			<output>
				<port id="0" precision="FP32"/>
			</output>
		</layer>
		<layer id="69" name="4122412619198" type="Const" version="opset1">
			<data offset="172" size="4" shape="" element_type="f32"/>
			<output>
				<port id="0" precision="FP32"/>
			</output>
		</layer>
		<layer id="70" name="4123412717917" type="Const" version="opset1">
			<data offset="0" size="4" shape="" element_type="f32"/>
			<output>
				<port id="0" precision="FP32"/>
			</output>
		</layer>
		<layer id="71" name="4124412818136" type="Const" version="opset1">
			<data offset="172" size="4" shape="" element_type="f32"/>
			<output>
				<port id="0" precision="FP32"/>
			</output>
		</layer>
		<layer id="72" name="2900290418655" type="Const" version="opset1">
			<data offset="176" size="4" shape="" element_type="f32"/>
			<output>
				<port id="0" precision="FP32"/>
			</output>
		</layer>
		<layer id="73" name="2901290519225" type="Const" version="opset1">
			<data offset="180" size="4" shape="" element_type="f32"/>
			<output>
				<port id="0" precision="FP32"/>
			</output>
		</layer>
		<layer id="74" name="2902290619054" type="Const" version="opset1">
			<data offset="176" size="4" shape="" element_type="f32"/>
			<output>
				<port id="0" precision="FP32"/>
			</output>
		</layer>
		<layer id="75" name="2903290718685" type="Const" version="opset1">
			<data offset="180" size="4" shape="" element_type="f32"/>
			<output>
				<port id="0" precision="FP32"/>
			</output>
		</layer>
		<layer id="76" name="2720272417500" type="Const" version="opset1">
			<data offset="184" size="4" shape="" element_type="f32"/>
			<output>
				<port id="0" precision="FP32"/>
			</output>
		</layer>
		<layer id="77" name="2721272518148" type="Const" version="opset1">
			<data offset="188" size="4" shape="" element_type="f32"/>
			<output>
				<port id="0" precision="FP32"/>
			</output>
		</layer>
		<layer id="78" name="2722272619804" type="Const" version="opset1">
			<data offset="184" size="4" shape="" element_type="f32"/>
			<output>
				<port id="0" precision="FP32"/>
			</output>
		</layer>
		<layer id="79" name="2723272718274" type="Const" version="opset1">
			<data offset="188" size="4" shape="" element_type="f32"/>
			<output>
				<port id="0" precision="FP32"/>
			</output>
		</layer>
		<layer id="80" name="404440462269991517854" type="Const" version="opset1">
			<data offset="192" size="16" shape="4" element_type="f32"/>
			<output>
				<port id="0" precision="FP32">
					<dim>4</dim>
				</port>
			</output>
		</layer>
		<layer id="81" name="2840284418532" type="Const" version="opset1">
			<data offset="208" size="4" shape="" element_type="f32"/>
			<output>
				<port id="0" precision="FP32"/>
			</output>
		</layer>
		<layer id="82" name="2841284520167" type="Const" version="opset1">
			<data offset="212" size="4" shape="" element_type="f32"/>
			<output>
				<port id="0" precision="FP32"/>
			</output>
		</layer>
		<layer id="83" name="2842284618394" type="Const" version="opset1">
			<data offset="208" size="4" shape="" element_type="f32"/>
			<output>
				<port id="0" precision="FP32"/>
			</output>
		</layer>
		<layer id="84" name="2843284718535" type="Const" version="opset1">
			<data offset="212" size="4" shape="" element_type="f32"/>
			<output>
				<port id="0" precision="FP32"/>
			</output>
		</layer>
		<layer id="85" name="2470247419366" type="Const" version="opset1">
			<data offset="0" size="4" shape="" element_type="f32"/>
			<output>
				<port id="0" precision="FP32"/>
			</output>
		</layer>
		<layer id="86" name="2471247519117" type="Const" version="opset1">
			<data offset="216" size="4" shape="" element_type="f32"/>
			<output>
				<port id="0" precision="FP32"/>
			</output>
		</layer>
		<layer id="87" name="2472247619303" type="Const" version="opset1">
			<data offset="0" size="4" shape="" element_type="f32"/>
			<output>
				<port id="0" precision="FP32"/>
			</output>
		</layer>
		<layer id="88" name="2473247717875" type="Const" version="opset1">
			<data offset="216" size="4" shape="" element_type="f32"/>
			<output>
				<port id="0" precision="FP32"/>
			</output>
		</layer>
		<layer id="89" name="2030203418772" type="Const" version="opset1">
			<data offset="0" size="4" shape="" element_type="f32"/>
			<output>
				<port id="0" precision="FP32"/>
			</output>
		</layer>
		<layer id="90" name="2031203517797" type="Const" version="opset1">
			<data offset="220" size="4" shape="" element_type="f32"/>
			<output>
				<port id="0" precision="FP32"/>
			</output>
		</layer>
		<layer id="91" name="2032203619777" type="Const" version="opset1">
			<data offset="0" size="4" shape="" element_type="f32"/>
			<output>
				<port id="0" precision="FP32"/>
			</output>
		</layer>
		<layer id="92" name="2033203719060" type="Const" version="opset1">
			<data offset="220" size="4" shape="" element_type="f32"/>
			<output>
				<port id="0" precision="FP32"/>
			</output>
		</layer>
		<layer id="93" name="1311131318817" type="Const" version="opset1">
			<data offset="224" size="2048" shape="1,512,1,1" element_type="f32"/>
			<output>
				<port id="0" precision="FP32">
					<dim>1</dim>
					<dim>512</dim>
					<dim>1</dim>
					<dim>1</dim>
				</port>
			</output>
		</layer>
		<layer id="94" name="2410241419330" type="Const" version="opset1">
			<data offset="2272" size="4" shape="" element_type="f32"/>
			<output>
				<port id="0" precision="FP32"/>
			</output>
		</layer>
		<layer id="95" name="2411241517677" type="Const" version="opset1">
			<data offset="2276" size="4" shape="" element_type="f32"/>
			<output>
				<port id="0" precision="FP32"/>
			</output>
		</layer>
		<layer id="96" name="2412241620044" type="Const" version="opset1">
			<data offset="2272" size="4" shape="" element_type="f32"/>
			<output>
				<port id="0" precision="FP32"/>
			</output>
		</layer>
		<layer id="97" name="2413241719900" type="Const" version="opset1">
			<data offset="2276" size="4" shape="" element_type="f32"/>
			<output>
				<port id="0" precision="FP32"/>
			</output>
		</layer>
		<layer id="98" name="2350235420056" type="Const" version="opset1">
			<data offset="0" size="4" shape="" element_type="f32"/>
			<output>
				<port id="0" precision="FP32"/>
			</output>
		</layer>
		<layer id="99" name="2351235518334" type="Const" version="opset1">
			<data offset="2280" size="4" shape="" element_type="f32"/>
			<output>
				<port id="0" precision="FP32"/>
			</output>
		</layer>
		<layer id="100" name="2352235618055" type="Const" version="opset1">
			<data offset="0" size="4" shape="" element_type="f32"/>
			<output>
				<port id="0" precision="FP32"/>
			</output>
		</layer>
		<layer id="101" name="2353235717893" type="Const" version="opset1">
			<data offset="2280" size="4" shape="" element_type="f32"/>
			<output>
				<port id="0" precision="FP32"/>
			</output>
		</layer>
		<layer id="102" name="3450345417809" type="Const" version="opset1">
			<data offset="2284" size="5568" shape="1,1392,1,1" element_type="f32"/>
			<output>
				<port id="0" precision="FP32">
					<dim>1</dim>
					<dim>1392</dim>
					<dim>1</dim>
					<dim>1</dim>
				</port>
			</output>
		</layer>
		<layer id="103" name="3451345520095" type="Const" version="opset1">
			<data offset="7852" size="5568" shape="1,1392,1,1" element_type="f32"/>
			<output>
				<port id="0" precision="FP32">
					<dim>1</dim>
					<dim>1392</dim>
					<dim>1</dim>
					<dim>1</dim>
				</port>
			</output>
		</layer>
		<layer id="104" name="3452345619027" type="Const" version="opset1">
			<data offset="2284" size="5568" shape="1,1392,1,1" element_type="f32"/>
			<output>
				<port id="0" precision="FP32">
					<dim>1</dim>
					<dim>1392</dim>
					<dim>1</dim>
					<dim>1</dim>
				</port>
			</output>
		</layer>
		<layer id="105" name="3453345720128" type="Const" version="opset1">
			<data offset="7852" size="5568" shape="1,1392,1,1" element_type="f32"/>
			<output>
				<port id="0" precision="FP32">
					<dim>1</dim>
					<dim>1392</dim>
					<dim>1</dim>
					<dim>1</dim>
				</port>
			</output>
		</layer>
		<layer id="106" name="2270227418739" type="Const" version="opset1">
			<data offset="13420" size="4" shape="" element_type="f32"/>
			<output>
				<port id="0" precision="FP32"/>
			</output>
		</layer>
		<layer id="107" name="2271227519165" type="Const" version="opset1">
			<data offset="13424" size="4" shape="" element_type="f32"/>
			<output>
				<port id="0" precision="FP32"/>
			</output>
		</layer>
		<layer id="108" name="2272227620227" type="Const" version="opset1">
			<data offset="13420" size="4" shape="" element_type="f32"/>
			<output>
				<port id="0" precision="FP32"/>
			</output>
		</layer>
		<layer id="109" name="2273227718712" type="Const" version="opset1">
			<data offset="13424" size="4" shape="" element_type="f32"/>
			<output>
				<port id="0" precision="FP32"/>
			</output>
		</layer>
		<layer id="110" name="3850385419315" type="Const" version="opset1">
			<data offset="13428" size="4" shape="" element_type="f32"/>
			<output>
				<port id="0" precision="FP32"/>
			</output>
		</layer>
		<layer id="111" name="3851385520146" type="Const" version="opset1">
			<data offset="13432" size="4" shape="" element_type="f32"/>
			<output>
				<port id="0" precision="FP32"/>
			</output>
		</layer>
		<layer id="112" name="3852385617827" type="Const" version="opset1">
			<data offset="13428" size="4" shape="" element_type="f32"/>
			<output>
				<port id="0" precision="FP32"/>
			</output>
		</layer>
		<layer id="113" name="3853385719699" type="Const" version="opset1">
			<data offset="13432" size="4" shape="" element_type="f32"/>
			<output>
				<port id="0" precision="FP32"/>
			</output>
		</layer>
		<layer id="114" name="2740274417512" type="Const" version="opset1">
			<data offset="0" size="4" shape="" element_type="f32"/>
			<output>
				<port id="0" precision="FP32"/>
			</output>
		</layer>
		<layer id="115" name="2741274519276" type="Const" version="opset1">
			<data offset="13436" size="4" shape="" element_type="f32"/>
			<output>
				<port id="0" precision="FP32"/>
			</output>
		</layer>
		<layer id="116" name="2742274619123" type="Const" version="opset1">
			<data offset="0" size="4" shape="" element_type="f32"/>
			<output>
				<port id="0" precision="FP32"/>
			</output>
		</layer>
		<layer id="117" name="2743274719444" type="Const" version="opset1">
			<data offset="13436" size="4" shape="" element_type="f32"/>
			<output>
				<port id="0" precision="FP32"/>
			</output>
		</layer>
		<layer id="118" name="3710371419822" type="Const" version="opset1">
			<data offset="2284" size="5568" shape="1,1392,1,1" element_type="f32"/>
			<output>
				<port id="0" precision="FP32">
					<dim>1</dim>
					<dim>1392</dim>
					<dim>1</dim>
					<dim>1</dim>
				</port>
			</output>
		</layer>
		<layer id="119" name="3711371519483" type="Const" version="opset1">
			<data offset="13440" size="5568" shape="1,1392,1,1" element_type="f32"/>
			<output>
				<port id="0" precision="FP32">
					<dim>1</dim>
					<dim>1392</dim>
					<dim>1</dim>
					<dim>1</dim>
				</port>
			</output>
		</layer>
		<layer id="120" name="3712371618952" type="Const" version="opset1">
			<data offset="2284" size="5568" shape="1,1392,1,1" element_type="f32"/>
			<output>
				<port id="0" precision="FP32">
					<dim>1</dim>
					<dim>1392</dim>
					<dim>1</dim>
					<dim>1</dim>
				</port>
			</output>
		</layer>
		<layer id="121" name="3713371718118" type="Const" version="opset1">
			<data offset="13440" size="5568" shape="1,1392,1,1" element_type="f32"/>
			<output>
				<port id="0" precision="FP32">
					<dim>1</dim>
					<dim>1392</dim>
					<dim>1</dim>
					<dim>1</dim>
				</port>
			</output>
		</layer>
		<layer id="122" name="3860386419990" type="Const" version="opset1">
			<data offset="19008" size="4" shape="" element_type="f32"/>
			<output>
				<port id="0" precision="FP32"/>
			</output>
		</layer>
		<layer id="123" name="3861386518331" type="Const" version="opset1">
			<data offset="19012" size="4" shape="" element_type="f32"/>
			<output>
				<port id="0" precision="FP32"/>
			</output>
		</layer>
		<layer id="124" name="3862386617668" type="Const" version="opset1">
			<data offset="19008" size="4" shape="" element_type="f32"/>
			<output>
				<port id="0" precision="FP32"/>
			</output>
		</layer>
		<layer id="125" name="3863386719528" type="Const" version="opset1">
			<data offset="19012" size="4" shape="" element_type="f32"/>
			<output>
				<port id="0" precision="FP32"/>
			</output>
		</layer>
		<layer id="126" name="2610261418745" type="Const" version="opset1">
			<data offset="19016" size="4" shape="" element_type="f32"/>
			<output>
				<port id="0" precision="FP32"/>
			</output>
		</layer>
		<layer id="127" name="2611261519984" type="Const" version="opset1">
			<data offset="19020" size="4" shape="" element_type="f32"/>
			<output>
				<port id="0" precision="FP32"/>
			</output>
		</layer>
		<layer id="128" name="2612261618583" type="Const" version="opset1">
			<data offset="19016" size="4" shape="" element_type="f32"/>
			<output>
				<port id="0" precision="FP32"/>
			</output>
		</layer>
		<layer id="129" name="2613261718172" type="Const" version="opset1">
			<data offset="19020" size="4" shape="" element_type="f32"/>
			<output>
				<port id="0" precision="FP32"/>
			</output>
		</layer>
		<layer id="130" name="3240324418628" type="Const" version="opset1">
			<data offset="0" size="4" shape="" element_type="f32"/>
			<output>
				<port id="0" precision="FP32"/>
			</output>
		</layer>
		<layer id="131" name="3241324519534" type="Const" version="opset1">
			<data offset="19024" size="4" shape="" element_type="f32"/>
			<output>
				<port id="0" precision="FP32"/>
			</output>
		</layer>
		<layer id="132" name="3242324619849" type="Const" version="opset1">
			<data offset="0" size="4" shape="" element_type="f32"/>
			<output>
				<port id="0" precision="FP32"/>
			</output>
		</layer>
		<layer id="133" name="3243324719435" type="Const" version="opset1">
			<data offset="19024" size="4" shape="" element_type="f32"/>
			<output>
				<port id="0" precision="FP32"/>
			</output>
		</layer>
		<layer id="134" name="2130213418406" type="Const" version="opset1">
			<data offset="2284" size="5568" shape="1,1392,1,1" element_type="f32"/>
			<output>
				<port id="0" precision="FP32">
					<dim>1</dim>
					<dim>1392</dim>
					<dim>1</dim>
					<dim>1</dim>
				</port>
			</output>
		</layer>
		<layer id="135" name="2131213518706" type="Const" version="opset1">
			<data offset="19028" size="5568" shape="1,1392,1,1" element_type="f32"/>
			<output>
				<port id="0" precision="FP32">
					<dim>1</dim>
					<dim>1392</dim>
					<dim>1</dim>
					<dim>1</dim>
				</port>
			</output>
		</layer>
		<layer id="136" name="2132213617395" type="Const" version="opset1">
			<data offset="2284" size="5568" shape="1,1392,1,1" element_type="f32"/>
			<output>
				<port id="0" precision="FP32">
					<dim>1</dim>
					<dim>1392</dim>
					<dim>1</dim>
					<dim>1</dim>
				</port>
			</output>
		</layer>
		<layer id="137" name="2133213717695" type="Const" version="opset1">
			<data offset="19028" size="5568" shape="1,1392,1,1" element_type="f32"/>
			<output>
				<port id="0" precision="FP32">
					<dim>1</dim>
					<dim>1392</dim>
					<dim>1</dim>
					<dim>1</dim>
				</port>
			</output>
		</layer>
		<layer id="138" name="2620262419132" type="Const" version="opset1">
			<data offset="24596" size="4" shape="" element_type="f32"/>
			<output>
				<port id="0" precision="FP32"/>
			</output>
		</layer>
		<layer id="139" name="2621262518115" type="Const" version="opset1">
			<data offset="24600" size="4" shape="" element_type="f32"/>
			<output>
				<port id="0" precision="FP32"/>
			</output>
		</layer>
		<layer id="140" name="2622262618871" type="Const" version="opset1">
			<data offset="24596" size="4" shape="" element_type="f32"/>
			<output>
				<port id="0" precision="FP32"/>
			</output>
		</layer>
		<layer id="141" name="2623262718058" type="Const" version="opset1">
			<data offset="24600" size="4" shape="" element_type="f32"/>
			<output>
				<port id="0" precision="FP32"/>
			</output>
		</layer>
		<layer id="142" name="2860286419960" type="Const" version="opset1">
			<data offset="24604" size="4" shape="" element_type="f32"/>
			<output>
				<port id="0" precision="FP32"/>
			</output>
		</layer>
		<layer id="143" name="2861286518343" type="Const" version="opset1">
			<data offset="24608" size="4" shape="" element_type="f32"/>
			<output>
				<port id="0" precision="FP32"/>
			</output>
		</layer>
		<layer id="144" name="2862286618028" type="Const" version="opset1">
			<data offset="24604" size="4" shape="" element_type="f32"/>
			<output>
				<port id="0" precision="FP32"/>
			</output>
		</layer>
		<layer id="145" name="2863286718214" type="Const" version="opset1">
			<data offset="24608" size="4" shape="" element_type="f32"/>
			<output>
				<port id="0" precision="FP32"/>
			</output>
		</layer>
		<layer id="146" name="4091409518439" type="Const" version="opset1">
			<data offset="0" size="4" shape="" element_type="f32"/>
			<output>
				<port id="0" precision="FP32"/>
			</output>
		</layer>
		<layer id="147" name="4092409619495" type="Const" version="opset1">
			<data offset="24612" size="4" shape="" element_type="f32"/>
			<output>
				<port id="0" precision="FP32"/>
			</output>
		</layer>
		<layer id="148" name="4093409718301" type="Const" version="opset1">
			<data offset="0" size="4" shape="" element_type="f32"/>
			<output>
				<port id="0" precision="FP32"/>
			</output>
		</layer>
		<layer id="149" name="4094409817641" type="Const" version="opset1">
			<data offset="24612" size="4" shape="" element_type="f32"/>
			<output>
				<port id="0" precision="FP32"/>
			</output>
		</layer>
		<layer id="150" name="3730373419996" type="Const" version="opset1">
			<data offset="2284" size="5568" shape="1,1392,1,1" element_type="f32"/>
			<output>
				<port id="0" precision="FP32">
					<dim>1</dim>
					<dim>1392</dim>
					<dim>1</dim>
					<dim>1</dim>
				</port>
			</output>
		</layer>
		<layer id="151" name="3731373517350" type="Const" version="opset1">
			<data offset="24616" size="5568" shape="1,1392,1,1" element_type="f32"/>
			<output>
				<port id="0" precision="FP32">
					<dim>1</dim>
					<dim>1392</dim>
					<dim>1</dim>
					<dim>1</dim>
				</port>
			</output>
		</layer>
		<layer id="152" name="3732373617410" type="Const" version="opset1">
			<data offset="2284" size="5568" shape="1,1392,1,1" element_type="f32"/>
			<output>
				<port id="0" precision="FP32">
					<dim>1</dim>
					<dim>1392</dim>
					<dim>1</dim>
					<dim>1</dim>
				</port>
			</output>
		</layer>
		<layer id="153" name="3733373717782" type="Const" version="opset1">
			<data offset="24616" size="5568" shape="1,1392,1,1" element_type="f32"/>
			<output>
				<port id="0" precision="FP32">
					<dim>1</dim>
					<dim>1392</dim>
					<dim>1</dim>
					<dim>1</dim>
				</port>
			</output>
		</layer>
		<layer id="154" name="2870287419852" type="Const" version="opset1">
			<data offset="30184" size="4" shape="" element_type="f32"/>
			<output>
				<port id="0" precision="FP32"/>
			</output>
		</layer>
		<layer id="155" name="2871287519501" type="Const" version="opset1">
			<data offset="30188" size="4" shape="" element_type="f32"/>
			<output>
				<port id="0" precision="FP32"/>
			</output>
		</layer>
		<layer id="156" name="2872287618622" type="Const" version="opset1">
			<data offset="30184" size="4" shape="" element_type="f32"/>
			<output>
				<port id="0" precision="FP32"/>
			</output>
		</layer>
		<layer id="157" name="2873287718364" type="Const" version="opset1">
			<data offset="30188" size="4" shape="" element_type="f32"/>
			<output>
				<port id="0" precision="FP32"/>
			</output>
		</layer>
		<layer id="158" name="4302430619480" type="Const" version="opset1">
			<data offset="30192" size="4" shape="" element_type="f32"/>
			<output>
				<port id="0" precision="FP32"/>
			</output>
		</layer>
		<layer id="159" name="4303430719279" type="Const" version="opset1">
			<data offset="30196" size="4" shape="" element_type="f32"/>
			<output>
				<port id="0" precision="FP32"/>
			</output>
		</layer>
		<layer id="160" name="4304430818262" type="Const" version="opset1">
			<data offset="30192" size="4" shape="" element_type="f32"/>
			<output>
				<port id="0" precision="FP32"/>
			</output>
		</layer>
		<layer id="161" name="4305430919204" type="Const" version="opset1">
			<data offset="30196" size="4" shape="" element_type="f32"/>
			<output>
				<port id="0" precision="FP32"/>
			</output>
		</layer>
		<layer id="162" name="2170217418511" type="Const" version="opset1">
			<data offset="0" size="4" shape="" element_type="f32"/>
			<output>
				<port id="0" precision="FP32"/>
			</output>
		</layer>
		<layer id="163" name="2171217517569" type="Const" version="opset1">
			<data offset="2280" size="4" shape="" element_type="f32"/>
			<output>
				<port id="0" precision="FP32"/>
			</output>
		</layer>
		<layer id="164" name="2172217619531" type="Const" version="opset1">
			<data offset="0" size="4" shape="" element_type="f32"/>
			<output>
				<port id="0" precision="FP32"/>
			</output>
		</layer>
		<layer id="165" name="2173217719756" type="Const" version="opset1">
			<data offset="2280" size="4" shape="" element_type="f32"/>
			<output>
				<port id="0" precision="FP32"/>
			</output>
		</layer>
		<layer id="166" name="3390339417890" type="Const" version="opset1">
			<data offset="2284" size="5568" shape="1,1392,1,1" element_type="f32"/>
			<output>
				<port id="0" precision="FP32">
					<dim>1</dim>
					<dim>1392</dim>
					<dim>1</dim>
					<dim>1</dim>
				</port>
			</output>
		</layer>
		<layer id="167" name="3391339519549" type="Const" version="opset1">
			<data offset="30200" size="5568" shape="1,1392,1,1" element_type="f32"/>
			<output>
				<port id="0" precision="FP32">
					<dim>1</dim>
					<dim>1392</dim>
					<dim>1</dim>
					<dim>1</dim>
				</port>
			</output>
		</layer>
		<layer id="168" name="3392339619552" type="Const" version="opset1">
			<data offset="2284" size="5568" shape="1,1392,1,1" element_type="f32"/>
			<output>
				<port id="0" precision="FP32">
					<dim>1</dim>
					<dim>1392</dim>
					<dim>1</dim>
					<dim>1</dim>
				</port>
			</output>
		</layer>
		<layer id="169" name="3393339717842" type="Const" version="opset1">
			<data offset="30200" size="5568" shape="1,1392,1,1" element_type="f32"/>
			<output>
				<port id="0" precision="FP32">
					<dim>1</dim>
					<dim>1392</dim>
					<dim>1</dim>
					<dim>1</dim>
				</port>
			</output>
		</layer>
		<layer id="170" name="4312431620083" type="Const" version="opset1">
			<data offset="35768" size="4" shape="" element_type="f32"/>
			<output>
				<port id="0" precision="FP32"/>
			</output>
		</layer>
		<layer id="171" name="4313431718526" type="Const" version="opset1">
			<data offset="35772" size="4" shape="" element_type="f32"/>
			<output>
				<port id="0" precision="FP32"/>
			</output>
		</layer>
		<layer id="172" name="4314431818250" type="Const" version="opset1">
			<data offset="35768" size="4" shape="" element_type="f32"/>
			<output>
				<port id="0" precision="FP32"/>
			</output>
		</layer>
		<layer id="173" name="4315431918175" type="Const" version="opset1">
			<data offset="35772" size="4" shape="" element_type="f32"/>
			<output>
				<port id="0" precision="FP32"/>
			</output>
		</layer>
		<layer id="174" name="1850185418610" type="Const" version="opset1">
			<data offset="35776" size="4" shape="" element_type="f32"/>
			<output>
				<port id="0" precision="FP32"/>
			</output>
		</layer>
		<layer id="175" name="1851185517962" type="Const" version="opset1">
			<data offset="35780" size="4" shape="" element_type="f32"/>
			<output>
				<port id="0" precision="FP32"/>
			</output>
		</layer>
		<layer id="176" name="1852185617836" type="Const" version="opset1">
			<data offset="35776" size="4" shape="" element_type="f32"/>
			<output>
				<port id="0" precision="FP32"/>
			</output>
		</layer>
		<layer id="177" name="1853185718397" type="Const" version="opset1">
			<data offset="35780" size="4" shape="" element_type="f32"/>
			<output>
				<port id="0" precision="FP32"/>
			</output>
		</layer>
		<layer id="178" name="3020302419309" type="Const" version="opset1">
			<data offset="0" size="4" shape="" element_type="f32"/>
			<output>
				<port id="0" precision="FP32"/>
			</output>
		</layer>
		<layer id="179" name="3021302518064" type="Const" version="opset1">
			<data offset="2280" size="4" shape="" element_type="f32"/>
			<output>
				<port id="0" precision="FP32"/>
			</output>
		</layer>
		<layer id="180" name="3022302617803" type="Const" version="opset1">
			<data offset="0" size="4" shape="" element_type="f32"/>
			<output>
				<port id="0" precision="FP32"/>
			</output>
		</layer>
		<layer id="181" name="3023302719801" type="Const" version="opset1">
			<data offset="2280" size="4" shape="" element_type="f32"/>
			<output>
				<port id="0" precision="FP32"/>
			</output>
		</layer>
		<layer id="182" name="3530353417506" type="Const" version="opset1">
			<data offset="2284" size="5568" shape="1,1392,1,1" element_type="f32"/>
			<output>
				<port id="0" precision="FP32">
					<dim>1</dim>
					<dim>1392</dim>
					<dim>1</dim>
					<dim>1</dim>
				</port>
			</output>
		</layer>
		<layer id="183" name="3531353520221" type="Const" version="opset1">
			<data offset="35784" size="5568" shape="1,1392,1,1" element_type="f32"/>
			<output>
				<port id="0" precision="FP32">
					<dim>1</dim>
					<dim>1392</dim>
					<dim>1</dim>
					<dim>1</dim>
				</port>
			</output>
		</layer>
		<layer id="184" name="3532353620041" type="Const" version="opset1">
			<data offset="2284" size="5568" shape="1,1392,1,1" element_type="f32"/>
			<output>
				<port id="0" precision="FP32">
					<dim>1</dim>
					<dim>1392</dim>
					<dim>1</dim>
					<dim>1</dim>
				</port>
			</output>
		</layer>
		<layer id="185" name="3533353719558" type="Const" version="opset1">
			<data offset="35784" size="5568" shape="1,1392,1,1" element_type="f32"/>
			<output>
				<port id="0" precision="FP32">
					<dim>1</dim>
					<dim>1392</dim>
					<dim>1</dim>
					<dim>1</dim>
				</port>
			</output>
		</layer>
		<layer id="186" name="1860186419312" type="Const" version="opset1">
			<data offset="41352" size="4" shape="" element_type="f32"/>
			<output>
				<port id="0" precision="FP32"/>
			</output>
		</layer>
		<layer id="187" name="1861186517389" type="Const" version="opset1">
			<data offset="41356" size="4" shape="" element_type="f32"/>
			<output>
				<port id="0" precision="FP32"/>
			</output>
		</layer>
		<layer id="188" name="1862186619687" type="Const" version="opset1">
			<data offset="41352" size="4" shape="" element_type="f32"/>
			<output>
				<port id="0" precision="FP32"/>
			</output>
		</layer>
		<layer id="189" name="1863186719795" type="Const" version="opset1">
			<data offset="41356" size="4" shape="" element_type="f32"/>
			<output>
				<port id="0" precision="FP32"/>
			</output>
		</layer>
		<layer id="190" name="2230223419102" type="Const" version="opset1">
			<data offset="0" size="4" shape="" element_type="f32"/>
			<output>
				<port id="0" precision="FP32"/>
			</output>
		</layer>
		<layer id="191" name="2231223517884" type="Const" version="opset1">
			<data offset="2280" size="4" shape="" element_type="f32"/>
			<output>
				<port id="0" precision="FP32"/>
			</output>
		</layer>
		<layer id="192" name="2232223618574" type="Const" version="opset1">
			<data offset="0" size="4" shape="" element_type="f32"/>
			<output>
				<port id="0" precision="FP32"/>
			</output>
		</layer>
		<layer id="193" name="2233223719867" type="Const" version="opset1">
			<data offset="2280" size="4" shape="" element_type="f32"/>
			<output>
				<port id="0" precision="FP32"/>
			</output>
		</layer>
		<layer id="194" name="1930193419705" type="Const" version="opset1">
			<data offset="41360" size="3264" shape="1,816,1,1" element_type="f32"/>
			<output>
				<port id="0" precision="FP32">
					<dim>1</dim>
					<dim>816</dim>
					<dim>1</dim>
					<dim>1</dim>
				</port>
			</output>
		</layer>
		<layer id="195" name="1931193517452" type="Const" version="opset1">
			<data offset="44624" size="3264" shape="1,816,1,1" element_type="f32"/>
			<output>
				<port id="0" precision="FP32">
					<dim>1</dim>
					<dim>816</dim>
					<dim>1</dim>
					<dim>1</dim>
				</port>
			</output>
		</layer>
		<layer id="196" name="1932193619807" type="Const" version="opset1">
			<data offset="41360" size="3264" shape="1,816,1,1" element_type="f32"/>
			<output>
				<port id="0" precision="FP32">
					<dim>1</dim>
					<dim>816</dim>
					<dim>1</dim>
					<dim>1</dim>
				</port>
			</output>
		</layer>
		<layer id="197" name="1933193717896" type="Const" version="opset1">
			<data offset="44624" size="3264" shape="1,816,1,1" element_type="f32"/>
			<output>
				<port id="0" precision="FP32">
					<dim>1</dim>
					<dim>816</dim>
					<dim>1</dim>
					<dim>1</dim>
				</port>
			</output>
		</layer>
		<layer id="198" name="3930393418793" type="Const" version="opset1">
			<data offset="47888" size="4" shape="" element_type="f32"/>
			<output>
				<port id="0" precision="FP32"/>
			</output>
		</layer>
		<layer id="199" name="3931393519426" type="Const" version="opset1">
			<data offset="47892" size="4" shape="" element_type="f32"/>
			<output>
				<port id="0" precision="FP32"/>
			</output>
		</layer>
		<layer id="200" name="3932393619570" type="Const" version="opset1">
			<data offset="47888" size="4" shape="" element_type="f32"/>
			<output>
				<port id="0" precision="FP32"/>
			</output>
		</layer>
		<layer id="201" name="3933393718979" type="Const" version="opset1">
			<data offset="47892" size="4" shape="" element_type="f32"/>
			<output>
				<port id="0" precision="FP32"/>
			</output>
		</layer>
		<layer id="202" name="2330233419672" type="Const" version="opset1">
			<data offset="47896" size="4" shape="" element_type="f32"/>
			<output>
				<port id="0" precision="FP32"/>
			</output>
		</layer>
		<layer id="203" name="2331233517437" type="Const" version="opset1">
			<data offset="47900" size="4" shape="" element_type="f32"/>
			<output>
				<port id="0" precision="FP32"/>
			</output>
		</layer>
		<layer id="204" name="2332233618907" type="Const" version="opset1">
			<data offset="47896" size="4" shape="" element_type="f32"/>
			<output>
				<port id="0" precision="FP32"/>
			</output>
		</layer>
		<layer id="205" name="2333233719933" type="Const" version="opset1">
			<data offset="47900" size="4" shape="" element_type="f32"/>
			<output>
				<port id="0" precision="FP32"/>
			</output>
		</layer>
		<layer id="206" name="2680268418910" type="Const" version="opset1">
			<data offset="0" size="4" shape="" element_type="f32"/>
			<output>
				<port id="0" precision="FP32"/>
			</output>
		</layer>
		<layer id="207" name="2681268518229" type="Const" version="opset1">
			<data offset="2280" size="4" shape="" element_type="f32"/>
			<output>
				<port id="0" precision="FP32"/>
			</output>
		</layer>
		<layer id="208" name="2682268619546" type="Const" version="opset1">
			<data offset="0" size="4" shape="" element_type="f32"/>
			<output>
				<port id="0" precision="FP32"/>
			</output>
		</layer>
		<layer id="209" name="2683268718715" type="Const" version="opset1">
			<data offset="2280" size="4" shape="" element_type="f32"/>
			<output>
				<port id="0" precision="FP32"/>
			</output>
		</layer>
		<layer id="210" name="4141414519516" type="Const" version="opset1">
			<data offset="41360" size="3264" shape="1,816,1,1" element_type="f32"/>
			<output>
				<port id="0" precision="FP32">
					<dim>1</dim>
					<dim>816</dim>
					<dim>1</dim>
					<dim>1</dim>
				</port>
			</output>
		</layer>
		<layer id="211" name="4142414617455" type="Const" version="opset1">
			<data offset="47904" size="3264" shape="1,816,1,1" element_type="f32"/>
			<output>
				<port id="0" precision="FP32">
					<dim>1</dim>
					<dim>816</dim>
					<dim>1</dim>
					<dim>1</dim>
				</port>
			</output>
		</layer>
		<layer id="212" name="4143414719153" type="Const" version="opset1">
			<data offset="41360" size="3264" shape="1,816,1,1" element_type="f32"/>
			<output>
				<port id="0" precision="FP32">
					<dim>1</dim>
					<dim>816</dim>
					<dim>1</dim>
					<dim>1</dim>
				</port>
			</output>
		</layer>
		<layer id="213" name="4144414819237" type="Const" version="opset1">
			<data offset="47904" size="3264" shape="1,816,1,1" element_type="f32"/>
			<output>
				<port id="0" precision="FP32">
					<dim>1</dim>
					<dim>816</dim>
					<dim>1</dim>
					<dim>1</dim>
				</port>
			</output>
		</layer>
		<layer id="214" name="2340234419783" type="Const" version="opset1">
			<data offset="51168" size="4" shape="" element_type="f32"/>
			<output>
				<port id="0" precision="FP32"/>
			</output>
		</layer>
		<layer id="215" name="2341234519087" type="Const" version="opset1">
			<data offset="51172" size="4" shape="" element_type="f32"/>
			<output>
				<port id="0" precision="FP32"/>
			</output>
		</layer>
		<layer id="216" name="2342234619597" type="Const" version="opset1">
			<data offset="51168" size="4" shape="" element_type="f32"/>
			<output>
				<port id="0" precision="FP32"/>
			</output>
		</layer>
		<layer id="217" name="2343234718031" type="Const" version="opset1">
			<data offset="51172" size="4" shape="" element_type="f32"/>
			<output>
				<port id="0" precision="FP32"/>
			</output>
		</layer>
		<layer id="218" name="3470347418424" type="Const" version="opset1">
			<data offset="51176" size="4" shape="" element_type="f32"/>
			<output>
				<port id="0" precision="FP32"/>
			</output>
		</layer>
		<layer id="219" name="3471347519588" type="Const" version="opset1">
			<data offset="51180" size="4" shape="" element_type="f32"/>
			<output>
				<port id="0" precision="FP32"/>
			</output>
		</layer>
		<layer id="220" name="3472347619135" type="Const" version="opset1">
			<data offset="51176" size="4" shape="" element_type="f32"/>
			<output>
				<port id="0" precision="FP32"/>
			</output>
		</layer>
		<layer id="221" name="3473347717617" type="Const" version="opset1">
			<data offset="51180" size="4" shape="" element_type="f32"/>
			<output>
				<port id="0" precision="FP32"/>
			</output>
		</layer>
		<layer id="222" name="1870187417713" type="Const" version="opset1">
			<data offset="0" size="4" shape="" element_type="f32"/>
			<output>
				<port id="0" precision="FP32"/>
			</output>
		</layer>
		<layer id="223" name="1871187519456" type="Const" version="opset1">
			<data offset="2280" size="4" shape="" element_type="f32"/>
			<output>
				<port id="0" precision="FP32"/>
			</output>
		</layer>
		<layer id="224" name="1872187620218" type="Const" version="opset1">
			<data offset="0" size="4" shape="" element_type="f32"/>
			<output>
				<port id="0" precision="FP32"/>
			</output>
		</layer>
		<layer id="225" name="1873187718124" type="Const" version="opset1">
			<data offset="2280" size="4" shape="" element_type="f32"/>
			<output>
				<port id="0" precision="FP32"/>
			</output>
		</layer>
		<layer id="226" name="2430243419771" type="Const" version="opset1">
			<data offset="41360" size="3264" shape="1,816,1,1" element_type="f32"/>
			<output>
				<port id="0" precision="FP32">
					<dim>1</dim>
					<dim>816</dim>
					<dim>1</dim>
					<dim>1</dim>
				</port>
			</output>
		</layer>
		<layer id="227" name="2431243518295" type="Const" version="opset1">
			<data offset="51184" size="3264" shape="1,816,1,1" element_type="f32"/>
			<output>
				<port id="0" precision="FP32">
					<dim>1</dim>
					<dim>816</dim>
					<dim>1</dim>
					<dim>1</dim>
				</port>
			</output>
		</layer>
		<layer id="228" name="2432243618805" type="Const" version="opset1">
			<data offset="41360" size="3264" shape="1,816,1,1" element_type="f32"/>
			<output>
				<port id="0" precision="FP32">
					<dim>1</dim>
					<dim>816</dim>
					<dim>1</dim>
					<dim>1</dim>
				</port>
			</output>
		</layer>
		<layer id="229" name="2433243719645" type="Const" version="opset1">
			<data offset="51184" size="3264" shape="1,816,1,1" element_type="f32"/>
			<output>
				<port id="0" precision="FP32">
					<dim>1</dim>
					<dim>816</dim>
					<dim>1</dim>
					<dim>1</dim>
				</port>
			</output>
		</layer>
		<layer id="230" name="3480348419636" type="Const" version="opset1">
			<data offset="54448" size="4" shape="" element_type="f32"/>
			<output>
				<port id="0" precision="FP32"/>
			</output>
		</layer>
		<layer id="231" name="3481348517467" type="Const" version="opset1">
			<data offset="54452" size="4" shape="" element_type="f32"/>
			<output>
				<port id="0" precision="FP32"/>
			</output>
		</layer>
		<layer id="232" name="3482348619120" type="Const" version="opset1">
			<data offset="54448" size="4" shape="" element_type="f32"/>
			<output>
				<port id="0" precision="FP32"/>
			</output>
		</layer>
		<layer id="233" name="3483348718007" type="Const" version="opset1">
			<data offset="54452" size="4" shape="" element_type="f32"/>
			<output>
				<port id="0" precision="FP32"/>
			</output>
		</layer>
		<layer id="234" name="2010201417770" type="Const" version="opset1">
			<data offset="54456" size="4" shape="" element_type="f32"/>
			<output>
				<port id="0" precision="FP32"/>
			</output>
		</layer>
		<layer id="235" name="2011201518550" type="Const" version="opset1">
			<data offset="54460" size="4" shape="" element_type="f32"/>
			<output>
				<port id="0" precision="FP32"/>
			</output>
		</layer>
		<layer id="236" name="2012201617794" type="Const" version="opset1">
			<data offset="54456" size="4" shape="" element_type="f32"/>
			<output>
				<port id="0" precision="FP32"/>
			</output>
		</layer>
		<layer id="237" name="2013201718652" type="Const" version="opset1">
			<data offset="54460" size="4" shape="" element_type="f32"/>
			<output>
				<port id="0" precision="FP32"/>
			</output>
		</layer>
		<layer id="238" name="4242424618823" type="Const" version="opset1">
			<data offset="0" size="4" shape="" element_type="f32"/>
			<output>
				<port id="0" precision="FP32"/>
			</output>
		</layer>
		<layer id="239" name="4243424717494" type="Const" version="opset1">
			<data offset="2280" size="4" shape="" element_type="f32"/>
			<output>
				<port id="0" precision="FP32"/>
			</output>
		</layer>
		<layer id="240" name="4244424818580" type="Const" version="opset1">
			<data offset="0" size="4" shape="" element_type="f32"/>
			<output>
				<port id="0" precision="FP32"/>
			</output>
		</layer>
		<layer id="241" name="4245424919603" type="Const" version="opset1">
			<data offset="2280" size="4" shape="" element_type="f32"/>
			<output>
				<port id="0" precision="FP32"/>
			</output>
		</layer>
		<layer id="242" name="3610361418463" type="Const" version="opset1">
			<data offset="41360" size="3264" shape="1,816,1,1" element_type="f32"/>
			<output>
				<port id="0" precision="FP32">
					<dim>1</dim>
					<dim>816</dim>
					<dim>1</dim>
					<dim>1</dim>
				</port>
			</output>
		</layer>
		<layer id="243" name="3611361519471" type="Const" version="opset1">
			<data offset="54464" size="3264" shape="1,816,1,1" element_type="f32"/>
			<output>
				<port id="0" precision="FP32">
					<dim>1</dim>
					<dim>816</dim>
					<dim>1</dim>
					<dim>1</dim>
				</port>
			</output>
		</layer>
		<layer id="244" name="3612361618811" type="Const" version="opset1">
			<data offset="41360" size="3264" shape="1,816,1,1" element_type="f32"/>
			<output>
				<port id="0" precision="FP32">
					<dim>1</dim>
					<dim>816</dim>
					<dim>1</dim>
					<dim>1</dim>
				</port>
			</output>
		</layer>
		<layer id="245" name="3613361719000" type="Const" version="opset1">
			<data offset="54464" size="3264" shape="1,816,1,1" element_type="f32"/>
			<output>
				<port id="0" precision="FP32">
					<dim>1</dim>
					<dim>816</dim>
					<dim>1</dim>
					<dim>1</dim>
				</port>
			</output>
		</layer>
		<layer id="246" name="2020202418259" type="Const" version="opset1">
			<data offset="57728" size="4" shape="" element_type="f32"/>
			<output>
				<port id="0" precision="FP32"/>
			</output>
		</layer>
		<layer id="247" name="2021202520101" type="Const" version="opset1">
			<data offset="57732" size="4" shape="" element_type="f32"/>
			<output>
				<port id="0" precision="FP32"/>
			</output>
		</layer>
		<layer id="248" name="2022202619519" type="Const" version="opset1">
			<data offset="57728" size="4" shape="" element_type="f32"/>
			<output>
				<port id="0" precision="FP32"/>
			</output>
		</layer>
		<layer id="249" name="2023202719282" type="Const" version="opset1">
			<data offset="57732" size="4" shape="" element_type="f32"/>
			<output>
				<port id="0" precision="FP32"/>
			</output>
		</layer>
		<layer id="250" name="4030403418589" type="Const" version="opset1">
			<data offset="57736" size="4" shape="" element_type="f32"/>
			<output>
				<port id="0" precision="FP32"/>
			</output>
		</layer>
		<layer id="251" name="4031403519765" type="Const" version="opset1">
			<data offset="57740" size="4" shape="" element_type="f32"/>
			<output>
				<port id="0" precision="FP32"/>
			</output>
		</layer>
		<layer id="252" name="4032403617551" type="Const" version="opset1">
			<data offset="57736" size="4" shape="" element_type="f32"/>
			<output>
				<port id="0" precision="FP32"/>
			</output>
		</layer>
		<layer id="253" name="4033403718700" type="Const" version="opset1">
			<data offset="57740" size="4" shape="" element_type="f32"/>
			<output>
				<port id="0" precision="FP32"/>
			</output>
		</layer>
		<layer id="254" name="2250225420209" type="Const" version="opset1">
			<data offset="0" size="4" shape="" element_type="f32"/>
			<output>
				<port id="0" precision="FP32"/>
			</output>
		</layer>
		<layer id="255" name="2251225517758" type="Const" version="opset1">
			<data offset="2280" size="4" shape="" element_type="f32"/>
			<output>
				<port id="0" precision="FP32"/>
			</output>
		</layer>
		<layer id="256" name="2252225618802" type="Const" version="opset1">
			<data offset="0" size="4" shape="" element_type="f32"/>
			<output>
				<port id="0" precision="FP32"/>
			</output>
		</layer>
		<layer id="257" name="2253225719468" type="Const" version="opset1">
			<data offset="2280" size="4" shape="" element_type="f32"/>
			<output>
				<port id="0" precision="FP32"/>
			</output>
		</layer>
		<layer id="258" name="3570357419726" type="Const" version="opset1">
			<data offset="41360" size="3264" shape="1,816,1,1" element_type="f32"/>
			<output>
				<port id="0" precision="FP32">
					<dim>1</dim>
					<dim>816</dim>
					<dim>1</dim>
					<dim>1</dim>
				</port>
			</output>
		</layer>
		<layer id="259" name="3571357518286" type="Const" version="opset1">
			<data offset="57744" size="3264" shape="1,816,1,1" element_type="f32"/>
			<output>
				<port id="0" precision="FP32">
					<dim>1</dim>
					<dim>816</dim>
					<dim>1</dim>
					<dim>1</dim>
				</port>
			</output>
		</layer>
		<layer id="260" name="3572357619258" type="Const" version="opset1">
			<data offset="41360" size="3264" shape="1,816,1,1" element_type="f32"/>
			<output>
				<port id="0" precision="FP32">
					<dim>1</dim>
					<dim>816</dim>
					<dim>1</dim>
					<dim>1</dim>
				</port>
			</output>
		</layer>
		<layer id="261" name="3573357718544" type="Const" version="opset1">
			<data offset="57744" size="3264" shape="1,816,1,1" element_type="f32"/>
			<output>
				<port id="0" precision="FP32">
					<dim>1</dim>
					<dim>816</dim>
					<dim>1</dim>
					<dim>1</dim>
				</port>
			</output>
		</layer>
		<layer id="262" name="4040404519618" type="Const" version="opset1">
			<data offset="61008" size="4" shape="" element_type="f32"/>
			<output>
				<port id="0" precision="FP32"/>
			</output>
		</layer>
		<layer id="263" name="4041404617296" type="Const" version="opset1">
			<data offset="61012" size="4" shape="" element_type="f32"/>
			<output>
				<port id="0" precision="FP32"/>
			</output>
		</layer>
		<layer id="264" name="4042404718466" type="Const" version="opset1">
			<data offset="61008" size="4" shape="" element_type="f32"/>
			<output>
				<port id="0" precision="FP32"/>
			</output>
		</layer>
		<layer id="265" name="4044404819972" type="Const" version="opset1">
			<data offset="61012" size="4" shape="" element_type="f32"/>
			<output>
				<port id="0" precision="FP32"/>
			</output>
		</layer>
		<layer id="266" name="2550255418457" type="Const" version="opset1">
			<data offset="0" size="4" shape="" element_type="f32"/>
			<output>
				<port id="0" precision="FP32"/>
			</output>
		</layer>
		<layer id="267" name="2551255518763" type="Const" version="opset1">
			<data offset="2280" size="4" shape="" element_type="f32"/>
			<output>
				<port id="0" precision="FP32"/>
			</output>
		</layer>
		<layer id="268" name="2552255619735" type="Const" version="opset1">
			<data offset="0" size="4" shape="" element_type="f32"/>
			<output>
				<port id="0" precision="FP32"/>
			</output>
		</layer>
		<layer id="269" name="2553255717977" type="Const" version="opset1">
			<data offset="2280" size="4" shape="" element_type="f32"/>
			<output>
				<port id="0" precision="FP32"/>
			</output>
		</layer>
		<layer id="270" name="3130313417638" type="Const" version="opset1">
			<data offset="61016" size="2304" shape="1,576,1,1" element_type="f32"/>
			<output>
				<port id="0" precision="FP32">
					<dim>1</dim>
					<dim>576</dim>
					<dim>1</dim>
					<dim>1</dim>
				</port>
			</output>
		</layer>
		<layer id="271" name="3131313517719" type="Const" version="opset1">
			<data offset="63320" size="2304" shape="1,576,1,1" element_type="f32"/>
			<output>
				<port id="0" precision="FP32">
					<dim>1</dim>
					<dim>576</dim>
					<dim>1</dim>
					<dim>1</dim>
				</port>
			</output>
		</layer>
		<layer id="272" name="3132313617284" type="Const" version="opset1">
			<data offset="61016" size="2304" shape="1,576,1,1" element_type="f32"/>
			<output>
				<port id="0" precision="FP32">
					<dim>1</dim>
					<dim>576</dim>
					<dim>1</dim>
					<dim>1</dim>
				</port>
			</output>
		</layer>
		<layer id="273" name="3133313717428" type="Const" version="opset1">
			<data offset="63320" size="2304" shape="1,576,1,1" element_type="f32"/>
			<output>
				<port id="0" precision="FP32">
					<dim>1</dim>
					<dim>576</dim>
					<dim>1</dim>
					<dim>1</dim>
				</port>
			</output>
		</layer>
		<layer id="274" name="2490249419174" type="Const" version="opset1">
			<data offset="65624" size="4" shape="" element_type="f32"/>
			<output>
				<port id="0" precision="FP32"/>
			</output>
		</layer>
		<layer id="275" name="2491249518955" type="Const" version="opset1">
			<data offset="65628" size="4" shape="" element_type="f32"/>
			<output>
				<port id="0" precision="FP32"/>
			</output>
		</layer>
		<layer id="276" name="2492249619843" type="Const" version="opset1">
			<data offset="65624" size="4" shape="" element_type="f32"/>
			<output>
				<port id="0" precision="FP32"/>
			</output>
		</layer>
		<layer id="277" name="2493249719066" type="Const" version="opset1">
			<data offset="65628" size="4" shape="" element_type="f32"/>
			<output>
				<port id="0" precision="FP32"/>
			</output>
		</layer>
		<layer id="278" name="3200320419873" type="Const" version="opset1">
			<data offset="65632" size="4" shape="" element_type="f32"/>
			<output>
				<port id="0" precision="FP32"/>
			</output>
		</layer>
		<layer id="279" name="3201320519606" type="Const" version="opset1">
			<data offset="65636" size="4" shape="" element_type="f32"/>
			<output>
				<port id="0" precision="FP32"/>
			</output>
		</layer>
		<layer id="280" name="3202320619243" type="Const" version="opset1">
			<data offset="65632" size="4" shape="" element_type="f32"/>
			<output>
				<port id="0" precision="FP32"/>
			</output>
		</layer>
		<layer id="281" name="3203320718265" type="Const" version="opset1">
			<data offset="65636" size="4" shape="" element_type="f32"/>
			<output>
				<port id="0" precision="FP32"/>
			</output>
		</layer>
		<layer id="282" name="2780278418337" type="Const" version="opset1">
			<data offset="0" size="4" shape="" element_type="f32"/>
			<output>
				<port id="0" precision="FP32"/>
			</output>
		</layer>
		<layer id="283" name="2781278519888" type="Const" version="opset1">
			<data offset="2280" size="4" shape="" element_type="f32"/>
			<output>
				<port id="0" precision="FP32"/>
			</output>
		</layer>
		<layer id="284" name="2782278619339" type="Const" version="opset1">
			<data offset="0" size="4" shape="" element_type="f32"/>
			<output>
				<port id="0" precision="FP32"/>
			</output>
		</layer>
		<layer id="285" name="2783278717701" type="Const" version="opset1">
			<data offset="2280" size="4" shape="" element_type="f32"/>
			<output>
				<port id="0" precision="FP32"/>
			</output>
		</layer>
		<layer id="286" name="2090209418094" type="Const" version="opset1">
			<data offset="61016" size="2304" shape="1,576,1,1" element_type="f32"/>
			<output>
				<port id="0" precision="FP32">
					<dim>1</dim>
					<dim>576</dim>
					<dim>1</dim>
					<dim>1</dim>
				</port>
			</output>
		</layer>
		<layer id="287" name="2091209517530" type="Const" version="opset1">
			<data offset="65640" size="2304" shape="1,576,1,1" element_type="f32"/>
			<output>
				<port id="0" precision="FP32">
					<dim>1</dim>
					<dim>576</dim>
					<dim>1</dim>
					<dim>1</dim>
				</port>
			</output>
		</layer>
		<layer id="288" name="2092209617275" type="Const" version="opset1">
			<data offset="61016" size="2304" shape="1,576,1,1" element_type="f32"/>
			<output>
				<port id="0" precision="FP32">
					<dim>1</dim>
					<dim>576</dim>
					<dim>1</dim>
					<dim>1</dim>
				</port>
			</output>
		</layer>
		<layer id="289" name="2093209719708" type="Const" version="opset1">
			<data offset="65640" size="2304" shape="1,576,1,1" element_type="f32"/>
			<output>
				<port id="0" precision="FP32">
					<dim>1</dim>
					<dim>576</dim>
					<dim>1</dim>
					<dim>1</dim>
				</port>
			</output>
		</layer>
		<layer id="290" name="3210321419951" type="Const" version="opset1">
			<data offset="67944" size="4" shape="" element_type="f32"/>
			<output>
				<port id="0" precision="FP32"/>
			</output>
		</layer>
		<layer id="291" name="3211321518973" type="Const" version="opset1">
			<data offset="67948" size="4" shape="" element_type="f32"/>
			<output>
				<port id="0" precision="FP32"/>
			</output>
		</layer>
		<layer id="292" name="3212321619891" type="Const" version="opset1">
			<data offset="67944" size="4" shape="" element_type="f32"/>
			<output>
				<port id="0" precision="FP32"/>
			</output>
		</layer>
		<layer id="293" name="3213321718097" type="Const" version="opset1">
			<data offset="67948" size="4" shape="" element_type="f32"/>
			<output>
				<port id="0" precision="FP32"/>
			</output>
		</layer>
		<layer id="294" name="3060306418142" type="Const" version="opset1">
			<data offset="67952" size="4" shape="" element_type="f32"/>
			<output>
				<port id="0" precision="FP32"/>
			</output>
		</layer>
		<layer id="295" name="3061306519069" type="Const" version="opset1">
			<data offset="67956" size="4" shape="" element_type="f32"/>
			<output>
				<port id="0" precision="FP32"/>
			</output>
		</layer>
		<layer id="296" name="3062306619099" type="Const" version="opset1">
			<data offset="67952" size="4" shape="" element_type="f32"/>
			<output>
				<port id="0" precision="FP32"/>
			</output>
		</layer>
		<layer id="297" name="3063306719126" type="Const" version="opset1">
			<data offset="67956" size="4" shape="" element_type="f32"/>
			<output>
				<port id="0" precision="FP32"/>
			</output>
		</layer>
		<layer id="298" name="1950195419507" type="Const" version="opset1">
			<data offset="0" size="4" shape="" element_type="f32"/>
			<output>
				<port id="0" precision="FP32"/>
			</output>
		</layer>
		<layer id="299" name="1951195517779" type="Const" version="opset1">
			<data offset="2280" size="4" shape="" element_type="f32"/>
			<output>
				<port id="0" precision="FP32"/>
			</output>
		</layer>
		<layer id="300" name="1952195618964" type="Const" version="opset1">
			<data offset="0" size="4" shape="" element_type="f32"/>
			<output>
				<port id="0" precision="FP32"/>
			</output>
		</layer>
		<layer id="301" name="1953195717476" type="Const" version="opset1">
			<data offset="2280" size="4" shape="" element_type="f32"/>
			<output>
				<port id="0" precision="FP32"/>
			</output>
		</layer>
		<layer id="302" name="3690369417722" type="Const" version="opset1">
			<data offset="61016" size="2304" shape="1,576,1,1" element_type="f32"/>
			<output>
				<port id="0" precision="FP32">
					<dim>1</dim>
					<dim>576</dim>
					<dim>1</dim>
					<dim>1</dim>
				</port>
			</output>
		</layer>
		<layer id="303" name="3691369519648" type="Const" version="opset1">
			<data offset="67960" size="2304" shape="1,576,1,1" element_type="f32"/>
			<output>
				<port id="0" precision="FP32">
					<dim>1</dim>
					<dim>576</dim>
					<dim>1</dim>
					<dim>1</dim>
				</port>
			</output>
		</layer>
		<layer id="304" name="3692369617596" type="Const" version="opset1">
			<data offset="61016" size="2304" shape="1,576,1,1" element_type="f32"/>
			<output>
				<port id="0" precision="FP32">
					<dim>1</dim>
					<dim>576</dim>
					<dim>1</dim>
					<dim>1</dim>
				</port>
			</output>
		</layer>
		<layer id="305" name="3693369720203" type="Const" version="opset1">
			<data offset="67960" size="2304" shape="1,576,1,1" element_type="f32"/>
			<output>
				<port id="0" precision="FP32">
					<dim>1</dim>
					<dim>576</dim>
					<dim>1</dim>
					<dim>1</dim>
				</port>
			</output>
		</layer>
		<layer id="306" name="3070307418751" type="Const" version="opset1">
			<data offset="70264" size="4" shape="" element_type="f32"/>
			<output>
				<port id="0" precision="FP32"/>
			</output>
		</layer>
		<layer id="307" name="3071307519693" type="Const" version="opset1">
			<data offset="70268" size="4" shape="" element_type="f32"/>
			<output>
				<port id="0" precision="FP32"/>
			</output>
		</layer>
		<layer id="308" name="3072307618001" type="Const" version="opset1">
			<data offset="70264" size="4" shape="" element_type="f32"/>
			<output>
				<port id="0" precision="FP32"/>
			</output>
		</layer>
		<layer id="309" name="3073307719324" type="Const" version="opset1">
			<data offset="70268" size="4" shape="" element_type="f32"/>
			<output>
				<port id="0" precision="FP32"/>
			</output>
		</layer>
		<layer id="310" name="4161416520020" type="Const" version="opset1">
			<data offset="70272" size="4" shape="" element_type="f32"/>
			<output>
				<port id="0" precision="FP32"/>
			</output>
		</layer>
		<layer id="311" name="4162416617998" type="Const" version="opset1">
			<data offset="70276" size="4" shape="" element_type="f32"/>
			<output>
				<port id="0" precision="FP32"/>
			</output>
		</layer>
		<layer id="312" name="4163416719939" type="Const" version="opset1">
			<data offset="70272" size="4" shape="" element_type="f32"/>
			<output>
				<port id="0" precision="FP32"/>
			</output>
		</layer>
		<layer id="313" name="4164416819738" type="Const" version="opset1">
			<data offset="70276" size="4" shape="" element_type="f32"/>
			<output>
				<port id="0" precision="FP32"/>
			</output>
		</layer>
		<layer id="314" name="3150315419774" type="Const" version="opset1">
			<data offset="0" size="4" shape="" element_type="f32"/>
			<output>
				<port id="0" precision="FP32"/>
			</output>
		</layer>
		<layer id="315" name="3151315519513" type="Const" version="opset1">
			<data offset="2280" size="4" shape="" element_type="f32"/>
			<output>
				<port id="0" precision="FP32"/>
			</output>
		</layer>
		<layer id="316" name="3152315619522" type="Const" version="opset1">
			<data offset="0" size="4" shape="" element_type="f32"/>
			<output>
				<port id="0" precision="FP32"/>
			</output>
		</layer>
		<layer id="317" name="3153315718196" type="Const" version="opset1">
			<data offset="2280" size="4" shape="" element_type="f32"/>
			<output>
				<port id="0" precision="FP32"/>
			</output>
		</layer>
		<layer id="318" name="3410341417941" type="Const" version="opset1">
			<data offset="61016" size="2304" shape="1,576,1,1" element_type="f32"/>
			<output>
				<port id="0" precision="FP32">
					<dim>1</dim>
					<dim>576</dim>
					<dim>1</dim>
					<dim>1</dim>
				</port>
			</output>
		</layer>
		<layer id="319" name="3411341517839" type="Const" version="opset1">
			<data offset="70280" size="2304" shape="1,576,1,1" element_type="f32"/>
			<output>
				<port id="0" precision="FP32">
					<dim>1</dim>
					<dim>576</dim>
					<dim>1</dim>
					<dim>1</dim>
				</port>
			</output>
		</layer>
		<layer id="320" name="3412341618862" type="Const" version="opset1">
			<data offset="61016" size="2304" shape="1,576,1,1" element_type="f32"/>
			<output>
				<port id="0" precision="FP32">
					<dim>1</dim>
					<dim>576</dim>
					<dim>1</dim>
					<dim>1</dim>
				</port>
			</output>
		</layer>
		<layer id="321" name="3413341717272" type="Const" version="opset1">
			<data offset="70280" size="2304" shape="1,576,1,1" element_type="f32"/>
			<output>
				<port id="0" precision="FP32">
					<dim>1</dim>
					<dim>576</dim>
					<dim>1</dim>
					<dim>1</dim>
				</port>
			</output>
		</layer>
		<layer id="322" name="4172417617689" type="Const" version="opset1">
			<data offset="72584" size="4" shape="" element_type="f32"/>
			<output>
				<port id="0" precision="FP32"/>
			</output>
		</layer>
		<layer id="323" name="4173417719660" type="Const" version="opset1">
			<data offset="72588" size="4" shape="" element_type="f32"/>
			<output>
				<port id="0" precision="FP32"/>
			</output>
		</layer>
		<layer id="324" name="4174417818718" type="Const" version="opset1">
			<data offset="72584" size="4" shape="" element_type="f32"/>
			<output>
				<port id="0" precision="FP32"/>
			</output>
		</layer>
		<layer id="325" name="4175417919177" type="Const" version="opset1">
			<data offset="72588" size="4" shape="" element_type="f32"/>
			<output>
				<port id="0" precision="FP32"/>
			</output>
		</layer>
		<layer id="326" name="3320332417848" type="Const" version="opset1">
			<data offset="72592" size="4" shape="" element_type="f32"/>
			<output>
				<port id="0" precision="FP32"/>
			</output>
		</layer>
		<layer id="327" name="3321332518361" type="Const" version="opset1">
			<data offset="72596" size="4" shape="" element_type="f32"/>
			<output>
				<port id="0" precision="FP32"/>
			</output>
		</layer>
		<layer id="328" name="3322332617776" type="Const" version="opset1">
			<data offset="72592" size="4" shape="" element_type="f32"/>
			<output>
				<port id="0" precision="FP32"/>
			</output>
		</layer>
		<layer id="329" name="3323332718664" type="Const" version="opset1">
			<data offset="72596" size="4" shape="" element_type="f32"/>
			<output>
				<port id="0" precision="FP32"/>
			</output>
		</layer>
		<layer id="330" name="3280328418430" type="Const" version="opset1">
			<data offset="0" size="4" shape="" element_type="f32"/>
			<output>
				<port id="0" precision="FP32"/>
			</output>
		</layer>
		<layer id="331" name="3281328520074" type="Const" version="opset1">
			<data offset="2280" size="4" shape="" element_type="f32"/>
			<output>
				<port id="0" precision="FP32"/>
			</output>
		</layer>
		<layer id="332" name="3282328617728" type="Const" version="opset1">
			<data offset="0" size="4" shape="" element_type="f32"/>
			<output>
				<port id="0" precision="FP32"/>
			</output>
		</layer>
		<layer id="333" name="3283328720170" type="Const" version="opset1">
			<data offset="2280" size="4" shape="" element_type="f32"/>
			<output>
				<port id="0" precision="FP32"/>
			</output>
		</layer>
		<layer id="334" name="1970197420029" type="Const" version="opset1">
			<data offset="61016" size="2304" shape="1,576,1,1" element_type="f32"/>
			<output>
				<port id="0" precision="FP32">
					<dim>1</dim>
					<dim>576</dim>
					<dim>1</dim>
					<dim>1</dim>
				</port>
			</output>
		</layer>
		<layer id="335" name="1971197520068" type="Const" version="opset1">
			<data offset="72600" size="2304" shape="1,576,1,1" element_type="f32"/>
			<output>
				<port id="0" precision="FP32">
					<dim>1</dim>
					<dim>576</dim>
					<dim>1</dim>
					<dim>1</dim>
				</port>
			</output>
		</layer>
		<layer id="336" name="1972197618073" type="Const" version="opset1">
			<data offset="61016" size="2304" shape="1,576,1,1" element_type="f32"/>
			<output>
				<port id="0" precision="FP32">
					<dim>1</dim>
					<dim>576</dim>
					<dim>1</dim>
					<dim>1</dim>
				</port>
			</output>
		</layer>
		<layer id="337" name="1973197718634" type="Const" version="opset1">
			<data offset="72600" size="2304" shape="1,576,1,1" element_type="f32"/>
			<output>
				<port id="0" precision="FP32">
					<dim>1</dim>
					<dim>576</dim>
					<dim>1</dim>
					<dim>1</dim>
				</port>
			</output>
		</layer>
		<layer id="338" name="3330333419948" type="Const" version="opset1">
			<data offset="74904" size="4" shape="" element_type="f32"/>
			<output>
				<port id="0" precision="FP32"/>
			</output>
		</layer>
		<layer id="339" name="3331333519573" type="Const" version="opset1">
			<data offset="74908" size="4" shape="" element_type="f32"/>
			<output>
				<port id="0" precision="FP32"/>
			</output>
		</layer>
		<layer id="340" name="3332333617983" type="Const" version="opset1">
			<data offset="74904" size="4" shape="" element_type="f32"/>
			<output>
				<port id="0" precision="FP32"/>
			</output>
		</layer>
		<layer id="341" name="3333333717674" type="Const" version="opset1">
			<data offset="74908" size="4" shape="" element_type="f32"/>
			<output>
				<port id="0" precision="FP32"/>
			</output>
		</layer>
		<layer id="342" name="3650365418796" type="Const" version="opset1">
			<data offset="0" size="4" shape="" element_type="f32"/>
			<output>
				<port id="0" precision="FP32"/>
			</output>
		</layer>
		<layer id="343" name="3651365517947" type="Const" version="opset1">
			<data offset="2280" size="4" shape="" element_type="f32"/>
			<output>
				<port id="0" precision="FP32"/>
			</output>
		</layer>
		<layer id="344" name="3652365618562" type="Const" version="opset1">
			<data offset="0" size="4" shape="" element_type="f32"/>
			<output>
				<port id="0" precision="FP32"/>
			</output>
		</layer>
		<layer id="345" name="3653365717536" type="Const" version="opset1">
			<data offset="2280" size="4" shape="" element_type="f32"/>
			<output>
				<port id="0" precision="FP32"/>
			</output>
		</layer>
		<layer id="346" name="2530253419369" type="Const" version="opset1">
			<data offset="74912" size="1152" shape="1,288,1,1" element_type="f32"/>
			<output>
				<port id="0" precision="FP32">
					<dim>1</dim>
					<dim>288</dim>
					<dim>1</dim>
					<dim>1</dim>
				</port>
			</output>
		</layer>
		<layer id="347" name="2531253517404" type="Const" version="opset1">
			<data offset="76064" size="1152" shape="1,288,1,1" element_type="f32"/>
			<output>
				<port id="0" precision="FP32">
					<dim>1</dim>
					<dim>288</dim>
					<dim>1</dim>
					<dim>1</dim>
				</port>
			</output>
		</layer>
		<layer id="348" name="2532253617458" type="Const" version="opset1">
			<data offset="74912" size="1152" shape="1,288,1,1" element_type="f32"/>
			<output>
				<port id="0" precision="FP32">
					<dim>1</dim>
					<dim>288</dim>
					<dim>1</dim>
					<dim>1</dim>
				</port>
			</output>
		</layer>
		<layer id="349" name="2533253719954" type="Const" version="opset1">
			<data offset="76064" size="1152" shape="1,288,1,1" element_type="f32"/>
			<output>
				<port id="0" precision="FP32">
					<dim>1</dim>
					<dim>288</dim>
					<dim>1</dim>
					<dim>1</dim>
				</port>
			</output>
		</layer>
		<layer id="350" name="3220322418268" type="Const" version="opset1">
			<data offset="77216" size="4" shape="" element_type="f32"/>
			<output>
				<port id="0" precision="FP32"/>
			</output>
		</layer>
		<layer id="351" name="3221322518355" type="Const" version="opset1">
			<data offset="77220" size="4" shape="" element_type="f32"/>
			<output>
				<port id="0" precision="FP32"/>
			</output>
		</layer>
		<layer id="352" name="3222322619378" type="Const" version="opset1">
			<data offset="77216" size="4" shape="" element_type="f32"/>
			<output>
				<port id="0" precision="FP32"/>
			</output>
		</layer>
		<layer id="353" name="3223322719627" type="Const" version="opset1">
			<data offset="77220" size="4" shape="" element_type="f32"/>
			<output>
				<port id="0" precision="FP32"/>
			</output>
		</layer>
		<layer id="354" name="2820282419729" type="Const" version="opset1">
			<data offset="77224" size="4" shape="" element_type="f32"/>
			<output>
				<port id="0" precision="FP32"/>
			</output>
		</layer>
		<layer id="355" name="2821282518649" type="Const" version="opset1">
			<data offset="77228" size="4" shape="" element_type="f32"/>
			<output>
				<port id="0" precision="FP32"/>
			</output>
		</layer>
		<layer id="356" name="2822282619084" type="Const" version="opset1">
			<data offset="77224" size="4" shape="" element_type="f32"/>
			<output>
				<port id="0" precision="FP32"/>
			</output>
		</layer>
		<layer id="357" name="2823282718427" type="Const" version="opset1">
			<data offset="77228" size="4" shape="" element_type="f32"/>
			<output>
				<port id="0" precision="FP32"/>
			</output>
		</layer>
		<layer id="358" name="3670367417305" type="Const" version="opset1">
			<data offset="0" size="4" shape="" element_type="f32"/>
			<output>
				<port id="0" precision="FP32"/>
			</output>
		</layer>
		<layer id="359" name="3671367517923" type="Const" version="opset1">
			<data offset="2280" size="4" shape="" element_type="f32"/>
			<output>
				<port id="0" precision="FP32"/>
			</output>
		</layer>
		<layer id="360" name="3672367617887" type="Const" version="opset1">
			<data offset="0" size="4" shape="" element_type="f32"/>
			<output>
				<port id="0" precision="FP32"/>
			</output>
		</layer>
		<layer id="361" name="3673367718496" type="Const" version="opset1">
			<data offset="2280" size="4" shape="" element_type="f32"/>
			<output>
				<port id="0" precision="FP32"/>
			</output>
		</layer>
		<layer id="362" name="4222422619105" type="Const" version="opset1">
			<data offset="74912" size="1152" shape="1,288,1,1" element_type="f32"/>
			<output>
				<port id="0" precision="FP32">
					<dim>1</dim>
					<dim>288</dim>
					<dim>1</dim>
					<dim>1</dim>
				</port>
			</output>
		</layer>
		<layer id="363" name="4223422718106" type="Const" version="opset1">
			<data offset="77232" size="1152" shape="1,288,1,1" element_type="f32"/>
			<output>
				<port id="0" precision="FP32">
					<dim>1</dim>
					<dim>288</dim>
					<dim>1</dim>
					<dim>1</dim>
				</port>
			</output>
		</layer>
		<layer id="364" name="4224422820062" type="Const" version="opset1">
			<data offset="74912" size="1152" shape="1,288,1,1" element_type="f32"/>
			<output>
				<port id="0" precision="FP32">
					<dim>1</dim>
					<dim>288</dim>
					<dim>1</dim>
					<dim>1</dim>
				</port>
			</output>
		</layer>
		<layer id="365" name="4225422919033" type="Const" version="opset1">
			<data offset="77232" size="1152" shape="1,288,1,1" element_type="f32"/>
			<output>
				<port id="0" precision="FP32">
					<dim>1</dim>
					<dim>288</dim>
					<dim>1</dim>
					<dim>1</dim>
				</port>
			</output>
		</layer>
		<layer id="366" name="2830283419333" type="Const" version="opset1">
			<data offset="78384" size="4" shape="" element_type="f32"/>
			<output>
				<port id="0" precision="FP32"/>
			</output>
		</layer>
		<layer id="367" name="2831283518247" type="Const" version="opset1">
			<data offset="78388" size="4" shape="" element_type="f32"/>
			<output>
				<port id="0" precision="FP32"/>
			</output>
		</layer>
		<layer id="368" name="2832283618181" type="Const" version="opset1">
			<data offset="78384" size="4" shape="" element_type="f32"/>
			<output>
				<port id="0" precision="FP32"/>
			</output>
		</layer>
		<layer id="369" name="2833283718400" type="Const" version="opset1">
			<data offset="78388" size="4" shape="" element_type="f32"/>
			<output>
				<port id="0" precision="FP32"/>
			</output>
		</layer>
		<layer id="370" name="3810381420110" type="Const" version="opset1">
			<data offset="78392" size="4" shape="" element_type="f32"/>
			<output>
				<port id="0" precision="FP32"/>
			</output>
		</layer>
		<layer id="371" name="3811381518280" type="Const" version="opset1">
			<data offset="78396" size="4" shape="" element_type="f32"/>
			<output>
				<port id="0" precision="FP32"/>
			</output>
		</layer>
		<layer id="372" name="3812381618256" type="Const" version="opset1">
			<data offset="78392" size="4" shape="" element_type="f32"/>
			<output>
				<port id="0" precision="FP32"/>
			</output>
		</layer>
		<layer id="373" name="3813381719432" type="Const" version="opset1">
			<data offset="78396" size="4" shape="" element_type="f32"/>
			<output>
				<port id="0" precision="FP32"/>
			</output>
		</layer>
		<layer id="374" name="1810181417524" type="Const" version="opset1">
			<data offset="0" size="4" shape="" element_type="f32"/>
			<output>
				<port id="0" precision="FP32"/>
			</output>
		</layer>
		<layer id="375" name="1811181517752" type="Const" version="opset1">
			<data offset="2280" size="4" shape="" element_type="f32"/>
			<output>
				<port id="0" precision="FP32"/>
			</output>
		</layer>
		<layer id="376" name="1812181620137" type="Const" version="opset1">
			<data offset="0" size="4" shape="" element_type="f32"/>
			<output>
				<port id="0" precision="FP32"/>
			</output>
		</layer>
		<layer id="377" name="1813181718790" type="Const" version="opset1">
			<data offset="2280" size="4" shape="" element_type="f32"/>
			<output>
				<port id="0" precision="FP32"/>
			</output>
		</layer>
		<layer id="378" name="3260326417377" type="Const" version="opset1">
			<data offset="74912" size="1152" shape="1,288,1,1" element_type="f32"/>
			<output>
				<port id="0" precision="FP32">
					<dim>1</dim>
					<dim>288</dim>
					<dim>1</dim>
					<dim>1</dim>
				</port>
			</output>
		</layer>
		<layer id="379" name="3261326520116" type="Const" version="opset1">
			<data offset="78400" size="1152" shape="1,288,1,1" element_type="f32"/>
			<output>
				<port id="0" precision="FP32">
					<dim>1</dim>
					<dim>288</dim>
					<dim>1</dim>
					<dim>1</dim>
				</port>
			</output>
		</layer>
		<layer id="380" name="3262326617944" type="Const" version="opset1">
			<data offset="74912" size="1152" shape="1,288,1,1" element_type="f32"/>
			<output>
				<port id="0" precision="FP32">
					<dim>1</dim>
					<dim>288</dim>
					<dim>1</dim>
					<dim>1</dim>
				</port>
			</output>
		</layer>
		<layer id="381" name="3263326718766" type="Const" version="opset1">
			<data offset="78400" size="1152" shape="1,288,1,1" element_type="f32"/>
			<output>
				<port id="0" precision="FP32">
					<dim>1</dim>
					<dim>288</dim>
					<dim>1</dim>
					<dim>1</dim>
				</port>
			</output>
		</layer>
		<layer id="382" name="3820382419408" type="Const" version="opset1">
			<data offset="79552" size="4" shape="" element_type="f32"/>
			<output>
				<port id="0" precision="FP32"/>
			</output>
		</layer>
		<layer id="383" name="3821382519609" type="Const" version="opset1">
			<data offset="79556" size="4" shape="" element_type="f32"/>
			<output>
				<port id="0" precision="FP32"/>
			</output>
		</layer>
		<layer id="384" name="3822382619300" type="Const" version="opset1">
			<data offset="79552" size="4" shape="" element_type="f32"/>
			<output>
				<port id="0" precision="FP32"/>
			</output>
		</layer>
		<layer id="385" name="3823382720032" type="Const" version="opset1">
			<data offset="79556" size="4" shape="" element_type="f32"/>
			<output>
				<port id="0" precision="FP32"/>
			</output>
		</layer>
		<layer id="386" name="3770377417293" type="Const" version="opset1">
			<data offset="0" size="4" shape="" element_type="f32"/>
			<output>
				<port id="0" precision="FP32"/>
			</output>
		</layer>
		<layer id="387" name="3771377519162" type="Const" version="opset1">
			<data offset="2280" size="4" shape="" element_type="f32"/>
			<output>
				<port id="0" precision="FP32"/>
			</output>
		</layer>
		<layer id="388" name="3772377617950" type="Const" version="opset1">
			<data offset="0" size="4" shape="" element_type="f32"/>
			<output>
				<port id="0" precision="FP32"/>
			</output>
		</layer>
		<layer id="389" name="3773377717362" type="Const" version="opset1">
			<data offset="2280" size="4" shape="" element_type="f32"/>
			<output>
				<port id="0" precision="FP32"/>
			</output>
		</layer>
		<layer id="390" name="3510351417443" type="Const" version="opset1">
			<data offset="79560" size="768" shape="1,192,1,1" element_type="f32"/>
			<output>
				<port id="0" precision="FP32">
					<dim>1</dim>
					<dim>192</dim>
					<dim>1</dim>
					<dim>1</dim>
				</port>
			</output>
		</layer>
		<layer id="391" name="3511351518925" type="Const" version="opset1">
			<data offset="80328" size="768" shape="1,192,1,1" element_type="f32"/>
			<output>
				<port id="0" precision="FP32">
					<dim>1</dim>
					<dim>192</dim>
					<dim>1</dim>
					<dim>1</dim>
				</port>
			</output>
		</layer>
		<layer id="392" name="3512351619585" type="Const" version="opset1">
			<data offset="79560" size="768" shape="1,192,1,1" element_type="f32"/>
			<output>
				<port id="0" precision="FP32">
					<dim>1</dim>
					<dim>192</dim>
					<dim>1</dim>
					<dim>1</dim>
				</port>
			</output>
		</layer>
		<layer id="393" name="3513351719273" type="Const" version="opset1">
			<data offset="80328" size="768" shape="1,192,1,1" element_type="f32"/>
			<output>
				<port id="0" precision="FP32">
					<dim>1</dim>
					<dim>192</dim>
					<dim>1</dim>
					<dim>1</dim>
				</port>
			</output>
		</layer>
		<layer id="394" name="3910391418238" type="Const" version="opset1">
			<data offset="81096" size="4" shape="" element_type="f32"/>
			<output>
				<port id="0" precision="FP32"/>
			</output>
		</layer>
		<layer id="395" name="3911391519582" type="Const" version="opset1">
			<data offset="81100" size="4" shape="" element_type="f32"/>
			<output>
				<port id="0" precision="FP32"/>
			</output>
		</layer>
		<layer id="396" name="3912391618697" type="Const" version="opset1">
			<data offset="81096" size="4" shape="" element_type="f32"/>
			<output>
				<port id="0" precision="FP32"/>
			</output>
		</layer>
		<layer id="397" name="3913391717647" type="Const" version="opset1">
			<data offset="81100" size="4" shape="" element_type="f32"/>
			<output>
				<port id="0" precision="FP32"/>
			</output>
		</layer>
		<layer id="398" name="3100310417761" type="Const" version="opset1">
			<data offset="81104" size="4" shape="" element_type="f32"/>
			<output>
				<port id="0" precision="FP32"/>
			</output>
		</layer>
		<layer id="399" name="3101310519675" type="Const" version="opset1">
			<data offset="81108" size="4" shape="" element_type="f32"/>
			<output>
				<port id="0" precision="FP32"/>
			</output>
		</layer>
		<layer id="400" name="3102310617344" type="Const" version="opset1">
			<data offset="81104" size="4" shape="" element_type="f32"/>
			<output>
				<port id="0" precision="FP32"/>
			</output>
		</layer>
		<layer id="401" name="3103310720164" type="Const" version="opset1">
			<data offset="81108" size="4" shape="" element_type="f32"/>
			<output>
				<port id="0" precision="FP32"/>
			</output>
		</layer>
		<layer id="402" name="3430343419720" type="Const" version="opset1">
			<data offset="0" size="4" shape="" element_type="f32"/>
			<output>
				<port id="0" precision="FP32"/>
			</output>
		</layer>
		<layer id="403" name="3431343520191" type="Const" version="opset1">
			<data offset="2280" size="4" shape="" element_type="f32"/>
			<output>
				<port id="0" precision="FP32"/>
			</output>
		</layer>
		<layer id="404" name="3432343618283" type="Const" version="opset1">
			<data offset="0" size="4" shape="" element_type="f32"/>
			<output>
				<port id="0" precision="FP32"/>
			</output>
		</layer>
		<layer id="405" name="3433343719357" type="Const" version="opset1">
			<data offset="2280" size="4" shape="" element_type="f32"/>
			<output>
				<port id="0" precision="FP32"/>
			</output>
		</layer>
		<layer id="406" name="2760276418154" type="Const" version="opset1">
			<data offset="79560" size="768" shape="1,192,1,1" element_type="f32"/>
			<output>
				<port id="0" precision="FP32">
					<dim>1</dim>
					<dim>192</dim>
					<dim>1</dim>
					<dim>1</dim>
				</port>
			</output>
		</layer>
		<layer id="407" name="2761276518478" type="Const" version="opset1">
			<data offset="81112" size="768" shape="1,192,1,1" element_type="f32"/>
			<output>
				<port id="0" precision="FP32">
					<dim>1</dim>
					<dim>192</dim>
					<dim>1</dim>
					<dim>1</dim>
				</port>
			</output>
		</layer>
		<layer id="408" name="2762276617830" type="Const" version="opset1">
			<data offset="79560" size="768" shape="1,192,1,1" element_type="f32"/>
			<output>
				<port id="0" precision="FP32">
					<dim>1</dim>
					<dim>192</dim>
					<dim>1</dim>
					<dim>1</dim>
				</port>
			</output>
		</layer>
		<layer id="409" name="2763276717725" type="Const" version="opset1">
			<data offset="81112" size="768" shape="1,192,1,1" element_type="f32"/>
			<output>
				<port id="0" precision="FP32">
					<dim>1</dim>
					<dim>192</dim>
					<dim>1</dim>
					<dim>1</dim>
				</port>
			</output>
		</layer>
		<layer id="410" name="3110311419825" type="Const" version="opset1">
			<data offset="81880" size="4" shape="" element_type="f32"/>
			<output>
				<port id="0" precision="FP32"/>
			</output>
		</layer>
		<layer id="411" name="3111311518349" type="Const" version="opset1">
			<data offset="81884" size="4" shape="" element_type="f32"/>
			<output>
				<port id="0" precision="FP32"/>
			</output>
		</layer>
		<layer id="412" name="3112311618733" type="Const" version="opset1">
			<data offset="81880" size="4" shape="" element_type="f32"/>
			<output>
				<port id="0" precision="FP32"/>
			</output>
		</layer>
		<layer id="413" name="3113311717314" type="Const" version="opset1">
			<data offset="81884" size="4" shape="" element_type="f32"/>
			<output>
				<port id="0" precision="FP32"/>
			</output>
		</layer>
		<layer id="414" name="3870387417716" type="Const" version="opset1">
			<data offset="81888" size="4" shape="" element_type="f32"/>
			<output>
				<port id="0" precision="FP32"/>
			</output>
		</layer>
		<layer id="415" name="3871387518187" type="Const" version="opset1">
			<data offset="81892" size="4" shape="" element_type="f32"/>
			<output>
				<port id="0" precision="FP32"/>
			</output>
		</layer>
		<layer id="416" name="3872387618244" type="Const" version="opset1">
			<data offset="81888" size="4" shape="" element_type="f32"/>
			<output>
				<port id="0" precision="FP32"/>
			</output>
		</layer>
		<layer id="417" name="3873387717746" type="Const" version="opset1">
			<data offset="81892" size="4" shape="" element_type="f32"/>
			<output>
				<port id="0" precision="FP32"/>
			</output>
		</layer>
		<layer id="418" name="3990399418913" type="Const" version="opset1">
			<data offset="0" size="4" shape="" element_type="f32"/>
			<output>
				<port id="0" precision="FP32"/>
			</output>
		</layer>
		<layer id="419" name="3991399517899" type="Const" version="opset1">
			<data offset="2280" size="4" shape="" element_type="f32"/>
			<output>
				<port id="0" precision="FP32"/>
			</output>
		</layer>
		<layer id="420" name="3992399618598" type="Const" version="opset1">
			<data offset="0" size="4" shape="" element_type="f32"/>
			<output>
				<port id="0" precision="FP32"/>
			</output>
		</layer>
		<layer id="421" name="3993399719786" type="Const" version="opset1">
			<data offset="2280" size="4" shape="" element_type="f32"/>
			<output>
				<port id="0" precision="FP32"/>
			</output>
		</layer>
		<layer id="422" name="2510251418904" type="Const" version="opset1">
			<data offset="79560" size="768" shape="1,192,1,1" element_type="f32"/>
			<output>
				<port id="0" precision="FP32">
					<dim>1</dim>
					<dim>192</dim>
					<dim>1</dim>
					<dim>1</dim>
				</port>
			</output>
		</layer>
		<layer id="423" name="2511251519564" type="Const" version="opset1">
			<data offset="81896" size="768" shape="1,192,1,1" element_type="f32"/>
			<output>
				<port id="0" precision="FP32">
					<dim>1</dim>
					<dim>192</dim>
					<dim>1</dim>
					<dim>1</dim>
				</port>
			</output>
		</layer>
		<layer id="424" name="2512251618382" type="Const" version="opset1">
			<data offset="79560" size="768" shape="1,192,1,1" element_type="f32"/>
			<output>
				<port id="0" precision="FP32">
					<dim>1</dim>
					<dim>192</dim>
					<dim>1</dim>
					<dim>1</dim>
				</port>
			</output>
		</layer>
		<layer id="425" name="2513251717386" type="Const" version="opset1">
			<data offset="81896" size="768" shape="1,192,1,1" element_type="f32"/>
			<output>
				<port id="0" precision="FP32">
					<dim>1</dim>
					<dim>192</dim>
					<dim>1</dim>
					<dim>1</dim>
				</port>
			</output>
		</layer>
		<layer id="426" name="3880388419381" type="Const" version="opset1">
			<data offset="82664" size="4" shape="" element_type="f32"/>
			<output>
				<port id="0" precision="FP32"/>
			</output>
		</layer>
		<layer id="427" name="3881388519423" type="Const" version="opset1">
			<data offset="82668" size="4" shape="" element_type="f32"/>
			<output>
				<port id="0" precision="FP32"/>
			</output>
		</layer>
		<layer id="428" name="3882388618691" type="Const" version="opset1">
			<data offset="82664" size="4" shape="" element_type="f32"/>
			<output>
				<port id="0" precision="FP32"/>
			</output>
		</layer>
		<layer id="429" name="3883388720179" type="Const" version="opset1">
			<data offset="82668" size="4" shape="" element_type="f32"/>
			<output>
				<port id="0" precision="FP32"/>
			</output>
		</layer>
		<layer id="430" name="3300330418898" type="Const" version="opset1">
			<data offset="0" size="4" shape="" element_type="f32"/>
			<output>
				<port id="0" precision="FP32"/>
			</output>
		</layer>
		<layer id="431" name="3301330518853" type="Const" version="opset1">
			<data offset="2280" size="4" shape="" element_type="f32"/>
			<output>
				<port id="0" precision="FP32"/>
			</output>
		</layer>
		<layer id="432" name="3302330617269" type="Const" version="opset1">
			<data offset="0" size="4" shape="" element_type="f32"/>
			<output>
				<port id="0" precision="FP32"/>
			</output>
		</layer>
		<layer id="433" name="3303330718475" type="Const" version="opset1">
			<data offset="2280" size="4" shape="" element_type="f32"/>
			<output>
				<port id="0" precision="FP32"/>
			</output>
		</layer>
		<layer id="434" name="2370237418631" type="Const" version="opset1">
			<data offset="82672" size="576" shape="1,144,1,1" element_type="f32"/>
			<output>
				<port id="0" precision="FP32">
					<dim>1</dim>
					<dim>144</dim>
					<dim>1</dim>
					<dim>1</dim>
				</port>
			</output>
		</layer>
		<layer id="435" name="2371237518838" type="Const" version="opset1">
			<data offset="83248" size="576" shape="1,144,1,1" element_type="f32"/>
			<output>
				<port id="0" precision="FP32">
					<dim>1</dim>
					<dim>144</dim>
					<dim>1</dim>
					<dim>1</dim>
				</port>
			</output>
		</layer>
		<layer id="436" name="2372237619624" type="Const" version="opset1">
			<data offset="82672" size="576" shape="1,144,1,1" element_type="f32"/>
			<output>
				<port id="0" precision="FP32">
					<dim>1</dim>
					<dim>144</dim>
					<dim>1</dim>
					<dim>1</dim>
				</port>
			</output>
		</layer>
		<layer id="437" name="2373237717497" type="Const" version="opset1">
			<data offset="83248" size="576" shape="1,144,1,1" element_type="f32"/>
			<output>
				<port id="0" precision="FP32">
					<dim>1</dim>
					<dim>144</dim>
					<dim>1</dim>
					<dim>1</dim>
				</port>
			</output>
		</layer>
		<layer id="438" name="3490349419717" type="Const" version="opset1">
			<data offset="83824" size="4" shape="" element_type="f32"/>
			<output>
				<port id="0" precision="FP32"/>
			</output>
		</layer>
		<layer id="439" name="3491349518130" type="Const" version="opset1">
			<data offset="83828" size="4" shape="" element_type="f32"/>
			<output>
				<port id="0" precision="FP32"/>
			</output>
		</layer>
		<layer id="440" name="3492349618358" type="Const" version="opset1">
			<data offset="83824" size="4" shape="" element_type="f32"/>
			<output>
				<port id="0" precision="FP32"/>
			</output>
		</layer>
		<layer id="441" name="3493349720242" type="Const" version="opset1">
			<data offset="83828" size="4" shape="" element_type="f32"/>
			<output>
				<port id="0" precision="FP32"/>
			</output>
		</layer>
		<layer id="442" name="3790379417863" type="Const" version="opset1">
			<data offset="0" size="4" shape="" element_type="f32"/>
			<output>
				<port id="0" precision="FP32"/>
			</output>
		</layer>
		<layer id="443" name="3791379518403" type="Const" version="opset1">
			<data offset="2280" size="4" shape="" element_type="f32"/>
			<output>
				<port id="0" precision="FP32"/>
			</output>
		</layer>
		<layer id="444" name="3792379620161" type="Const" version="opset1">
			<data offset="0" size="4" shape="" element_type="f32"/>
			<output>
				<port id="0" precision="FP32"/>
			</output>
		</layer>
		<layer id="445" name="3793379719963" type="Const" version="opset1">
			<data offset="2280" size="4" shape="" element_type="f32"/>
			<output>
				<port id="0" precision="FP32"/>
			</output>
		</layer>
		<layer id="446" name="3080308417914" type="Const" version="opset1">
			<data offset="83832" size="128" shape="1,32,1,1" element_type="f32"/>
			<output>
				<port id="0" precision="FP32">
					<dim>1</dim>
					<dim>32</dim>
					<dim>1</dim>
					<dim>1</dim>
				</port>
			</output>
		</layer>
		<layer id="447" name="3081308517821" type="Const" version="opset1">
			<data offset="83960" size="128" shape="1,32,1,1" element_type="f32"/>
			<output>
				<port id="0" precision="FP32">
					<dim>1</dim>
					<dim>32</dim>
					<dim>1</dim>
					<dim>1</dim>
				</port>
			</output>
		</layer>
		<layer id="448" name="3082308619111" type="Const" version="opset1">
			<data offset="83832" size="128" shape="1,32,1,1" element_type="f32"/>
			<output>
				<port id="0" precision="FP32">
					<dim>1</dim>
					<dim>32</dim>
					<dim>1</dim>
					<dim>1</dim>
				</port>
			</output>
		</layer>
		<layer id="449" name="3083308718316" type="Const" version="opset1">
			<data offset="83960" size="128" shape="1,32,1,1" element_type="f32"/>
			<output>
				<port id="0" precision="FP32">
					<dim>1</dim>
					<dim>32</dim>
					<dim>1</dim>
					<dim>1</dim>
				</port>
			</output>
		</layer>
		<layer id="450" name="2660266417965" type="Const" version="opset1">
			<data offset="84088" size="4" shape="" element_type="f32"/>
			<output>
				<port id="0" precision="FP32"/>
			</output>
		</layer>
		<layer id="451" name="2661266517698" type="Const" version="opset1">
			<data offset="84092" size="4" shape="" element_type="f32"/>
			<output>
				<port id="0" precision="FP32"/>
			</output>
		</layer>
		<layer id="452" name="2662266619015" type="Const" version="opset1">
			<data offset="84088" size="4" shape="" element_type="f32"/>
			<output>
				<port id="0" precision="FP32"/>
			</output>
		</layer>
		<layer id="453" name="2663266717902" type="Const" version="opset1">
			<data offset="84092" size="4" shape="" element_type="f32"/>
			<output>
				<port id="0" precision="FP32"/>
			</output>
		</layer>
		<layer id="454" name="input1" type="Parameter" version="opset1">
			<data shape="1,3,224,1312" element_type="f32"/>
			<output>
				<port id="0" precision="FP32" names="input1">
					<dim>1</dim>
					<dim>3</dim>
					<dim>224</dim>
					<dim>1312</dim>
				</port>
			</output>
		</layer>
		<layer id="455" name="data_mul_926654419348" type="Const" version="opset1">
			<data offset="84096" size="12" shape="1,3,1,1" element_type="f32"/>
			<output>
				<port id="0" precision="FP32">
					<dim>1</dim>
					<dim>3</dim>
					<dim>1</dim>
					<dim>1</dim>
				</port>
			</output>
		</layer>
		<layer id="456" name="input1/scale/Fused_Mul_" type="Multiply" version="opset1">
			<data auto_broadcast="numpy"/>
			<input>
				<port id="0">
					<dim>1</dim>
					<dim>3</dim>
					<dim>224</dim>
					<dim>1312</dim>
				</port>
				<port id="1">
					<dim>1</dim>
					<dim>3</dim>
					<dim>1</dim>
					<dim>1</dim>
				</port>
			</input>
			<output>
				<port id="2" precision="FP32">
					<dim>1</dim>
					<dim>3</dim>
					<dim>224</dim>
					<dim>1312</dim>
				</port>
			</output>
		</layer>
		<layer id="457" name="data_add_926854620080" type="Const" version="opset1">
			<data offset="84108" size="12" shape="1,3,1,1" element_type="f32"/>
			<output>
				<port id="0" precision="FP32">
					<dim>1</dim>
					<dim>3</dim>
					<dim>1</dim>
					<dim>1</dim>
				</port>
			</output>
		</layer>
		<layer id="458" name="input1/mean/Fused_Add_" type="Add" version="opset1">
			<data auto_broadcast="numpy"/>
			<input>
				<port id="0">
					<dim>1</dim>
					<dim>3</dim>
					<dim>224</dim>
					<dim>1312</dim>
				</port>
				<port id="1">
					<dim>1</dim>
					<dim>3</dim>
					<dim>1</dim>
					<dim>1</dim>
				</port>
			</input>
			<output>
				<port id="2" precision="FP32">
					<dim>1</dim>
					<dim>3</dim>
					<dim>224</dim>
					<dim>1312</dim>
				</port>
			</output>
		</layer>
		<layer id="459" name="Conv_93/WithoutBiases/fq_input_0" type="FakeQuantize" version="opset1">
			<data levels="256" auto_broadcast="numpy"/>
			<input>
				<port id="0">
					<dim>1</dim>
					<dim>3</dim>
					<dim>224</dim>
					<dim>1312</dim>
				</port>
				<port id="1"/>
				<port id="2"/>
				<port id="3"/>
				<port id="4"/>
			</input>
			<output>
				<port id="5" precision="FP32">
					<dim>1</dim>
					<dim>3</dim>
					<dim>224</dim>
					<dim>1312</dim>
				</port>
			</output>
		</layer>
		<layer id="460" name="20595489135/quantized1093319798" type="Const" version="opset1">
			<data offset="84120" size="864" shape="32,3,3,3" element_type="i8"/>
			<output>
				<port id="0" precision="I8">
					<dim>32</dim>
					<dim>3</dim>
					<dim>3</dim>
					<dim>3</dim>
				</port>
			</output>
		</layer>
		<layer id="461" name="20595489135/quantized/to_f32" type="Convert" version="opset1">
			<data destination_type="f32"/>
			<input>
				<port id="0">
					<dim>32</dim>
					<dim>3</dim>
					<dim>3</dim>
					<dim>3</dim>
				</port>
			</input>
			<output>
				<port id="1" precision="FP32">
					<dim>32</dim>
					<dim>3</dim>
					<dim>3</dim>
					<dim>3</dim>
				</port>
			</output>
		</layer>
		<layer id="462" name="Conv_93/WithoutBiases/fq_weights_1/zero_point1095218844" type="Const" version="opset1">
			<data offset="84984" size="128" shape="32,1,1,1" element_type="f32"/>
			<output>
				<port id="0" precision="FP32">
					<dim>32</dim>
					<dim>1</dim>
					<dim>1</dim>
					<dim>1</dim>
				</port>
			</output>
		</layer>
		<layer id="463" name="Conv_93/WithoutBiases/fq_weights_1/minus_zp" type="Subtract" version="opset1">
			<data auto_broadcast="numpy"/>
			<input>
				<port id="0">
					<dim>32</dim>
					<dim>3</dim>
					<dim>3</dim>
					<dim>3</dim>
				</port>
				<port id="1">
					<dim>32</dim>
					<dim>1</dim>
					<dim>1</dim>
					<dim>1</dim>
				</port>
			</input>
			<output>
				<port id="2" precision="FP32">
					<dim>32</dim>
					<dim>3</dim>
					<dim>3</dim>
					<dim>3</dim>
				</port>
			</output>
		</layer>
		<layer id="464" name="Conv_93/WithoutBiases/fq_weights_1/scale1094118754" type="Const" version="opset1">
			<data offset="85112" size="128" shape="32,1,1,1" element_type="f32"/>
			<output>
				<port id="0" precision="FP32">
					<dim>32</dim>
					<dim>1</dim>
					<dim>1</dim>
					<dim>1</dim>
				</port>
			</output>
		</layer>
		<layer id="465" name="Conv_93/WithoutBiases/fq_weights_1/mulpiply_by_scale" type="Multiply" version="opset1">
			<data auto_broadcast="numpy"/>
			<input>
				<port id="0">
					<dim>32</dim>
					<dim>3</dim>
					<dim>3</dim>
					<dim>3</dim>
				</port>
				<port id="1">
					<dim>32</dim>
					<dim>1</dim>
					<dim>1</dim>
					<dim>1</dim>
				</port>
			</input>
			<output>
				<port id="2" precision="FP32">
					<dim>32</dim>
					<dim>3</dim>
					<dim>3</dim>
					<dim>3</dim>
				</port>
			</output>
		</layer>
		<layer id="466" name="Conv_93/WithoutBiases" type="Convolution" version="opset1">
			<data auto_pad="explicit" strides="2,2" dilations="1,1" pads_begin="0,0" pads_end="1,1"/>
			<input>
				<port id="0">
					<dim>1</dim>
					<dim>3</dim>
					<dim>224</dim>
					<dim>1312</dim>
				</port>
				<port id="1">
					<dim>32</dim>
					<dim>3</dim>
					<dim>3</dim>
					<dim>3</dim>
				</port>
			</input>
			<output>
				<port id="2" precision="FP32">
					<dim>1</dim>
					<dim>32</dim>
					<dim>112</dim>
					<dim>656</dim>
				</port>
			</output>
		</layer>
		<layer id="467" name="Conv_93/Dims554655018217" type="Const" version="opset1">
			<data offset="85240" size="128" shape="1,32,1,1" element_type="f32"/>
			<output>
				<port id="0" precision="FP32">
					<dim>1</dim>
					<dim>32</dim>
					<dim>1</dim>
					<dim>1</dim>
				</port>
			</output>
		</layer>
		<layer id="468" name="Conv_93" type="Add" version="opset1">
			<data auto_broadcast="numpy"/>
			<input>
				<port id="0">
					<dim>1</dim>
					<dim>32</dim>
					<dim>112</dim>
					<dim>656</dim>
				</port>
				<port id="1">
					<dim>1</dim>
					<dim>32</dim>
					<dim>1</dim>
					<dim>1</dim>
				</port>
			</input>
			<output>
				<port id="2" precision="FP32" names="622">
					<dim>1</dim>
					<dim>32</dim>
					<dim>112</dim>
					<dim>656</dim>
				</port>
			</output>
		</layer>
		<layer id="469" name="Clip_97" type="Clamp" version="opset1">
			<data max="6" min="0"/>
			<input>
				<port id="0">
					<dim>1</dim>
					<dim>32</dim>
					<dim>112</dim>
					<dim>656</dim>
				</port>
			</input>
			<output>
				<port id="1" precision="FP32" names="626">
					<dim>1</dim>
					<dim>32</dim>
					<dim>112</dim>
					<dim>656</dim>
				</port>
			</output>
		</layer>
		<layer id="470" name="Conv_98/WithoutBiases/fq_input_0" type="FakeQuantize" version="opset1">
			<data levels="256" auto_broadcast="numpy"/>
			<input>
				<port id="0">
					<dim>1</dim>
					<dim>32</dim>
					<dim>112</dim>
					<dim>656</dim>
				</port>
				<port id="1">
					<dim>1</dim>
					<dim>32</dim>
					<dim>1</dim>
					<dim>1</dim>
				</port>
				<port id="2">
					<dim>1</dim>
					<dim>32</dim>
					<dim>1</dim>
					<dim>1</dim>
				</port>
				<port id="3">
					<dim>1</dim>
					<dim>32</dim>
					<dim>1</dim>
					<dim>1</dim>
				</port>
				<port id="4">
					<dim>1</dim>
					<dim>32</dim>
					<dim>1</dim>
					<dim>1</dim>
				</port>
			</input>
			<output>
				<port id="5" precision="FP32">
					<dim>1</dim>
					<dim>32</dim>
					<dim>112</dim>
					<dim>656</dim>
				</port>
			</output>
		</layer>
		<layer id="471" name="15184/value1518619294" type="Const" version="opset1">
			<data offset="85368" size="40" shape="5" element_type="i64"/>
			<output>
				<port id="0" precision="I64">
					<dim>5</dim>
				</port>
			</output>
		</layer>
		<layer id="472" name="20635539137/quantized1081317527" type="Const" version="opset1">
			<data offset="85408" size="288" shape="32,1,3,3" element_type="i8"/>
			<output>
				<port id="0" precision="I8">
					<dim>32</dim>
					<dim>1</dim>
					<dim>3</dim>
					<dim>3</dim>
				</port>
			</output>
		</layer>
		<layer id="473" name="20635539137/quantized/to_f32" type="Convert" version="opset1">
			<data destination_type="f32"/>
			<input>
				<port id="0">
					<dim>32</dim>
					<dim>1</dim>
					<dim>3</dim>
					<dim>3</dim>
				</port>
			</input>
			<output>
				<port id="1" precision="FP32">
					<dim>32</dim>
					<dim>1</dim>
					<dim>3</dim>
					<dim>3</dim>
				</port>
			</output>
		</layer>
		<layer id="474" name="Conv_98/WithoutBiases/fq_weights_1/zero_point1083219360" type="Const" version="opset1">
			<data offset="85696" size="128" shape="32,1,1,1" element_type="f32"/>
			<output>
				<port id="0" precision="FP32">
					<dim>32</dim>
					<dim>1</dim>
					<dim>1</dim>
					<dim>1</dim>
				</port>
			</output>
		</layer>
		<layer id="475" name="Conv_98/WithoutBiases/fq_weights_1/minus_zp" type="Subtract" version="opset1">
			<data auto_broadcast="numpy"/>
			<input>
				<port id="0">
					<dim>32</dim>
					<dim>1</dim>
					<dim>3</dim>
					<dim>3</dim>
				</port>
				<port id="1">
					<dim>32</dim>
					<dim>1</dim>
					<dim>1</dim>
					<dim>1</dim>
				</port>
			</input>
			<output>
				<port id="2" precision="FP32">
					<dim>32</dim>
					<dim>1</dim>
					<dim>3</dim>
					<dim>3</dim>
				</port>
			</output>
		</layer>
		<layer id="476" name="Conv_98/WithoutBiases/fq_weights_1/scale1082118721" type="Const" version="opset1">
			<data offset="85824" size="128" shape="32,1,1,1" element_type="f32"/>
			<output>
				<port id="0" precision="FP32">
					<dim>32</dim>
					<dim>1</dim>
					<dim>1</dim>
					<dim>1</dim>
				</port>
			</output>
		</layer>
		<layer id="477" name="Conv_98/WithoutBiases/fq_weights_1/mulpiply_by_scale" type="Multiply" version="opset1">
			<data auto_broadcast="numpy"/>
			<input>
				<port id="0">
					<dim>32</dim>
					<dim>1</dim>
					<dim>3</dim>
					<dim>3</dim>
				</port>
				<port id="1">
					<dim>32</dim>
					<dim>1</dim>
					<dim>1</dim>
					<dim>1</dim>
				</port>
			</input>
			<output>
				<port id="2" precision="FP32">
					<dim>32</dim>
					<dim>1</dim>
					<dim>3</dim>
					<dim>3</dim>
				</port>
			</output>
		</layer>
		<layer id="478" name="15184" type="Reshape" version="opset1">
			<data special_zero="true"/>
			<input>
				<port id="0">
					<dim>32</dim>
					<dim>1</dim>
					<dim>3</dim>
					<dim>3</dim>
				</port>
				<port id="1">
					<dim>5</dim>
				</port>
			</input>
			<output>
				<port id="2" precision="FP32">
					<dim>32</dim>
					<dim>1</dim>
					<dim>1</dim>
					<dim>3</dim>
					<dim>3</dim>
				</port>
			</output>
		</layer>
		<layer id="479" name="Conv_98/WithoutBiases" type="GroupConvolution" version="opset1">
			<data auto_pad="explicit" strides="1,1" dilations="1,1" pads_begin="1,1" pads_end="1,1"/>
			<input>
				<port id="0">
					<dim>1</dim>
					<dim>32</dim>
					<dim>112</dim>
					<dim>656</dim>
				</port>
				<port id="1">
					<dim>32</dim>
					<dim>1</dim>
					<dim>1</dim>
					<dim>3</dim>
					<dim>3</dim>
				</port>
			</input>
			<output>
				<port id="2" precision="FP32">
					<dim>1</dim>
					<dim>32</dim>
					<dim>112</dim>
					<dim>656</dim>
				</port>
			</output>
		</layer>
		<layer id="480" name="Conv_98/Dims570855517995" type="Const" version="opset1">
			<data offset="85952" size="128" shape="1,32,1,1" element_type="f32"/>
			<output>
				<port id="0" precision="FP32">
					<dim>1</dim>
					<dim>32</dim>
					<dim>1</dim>
					<dim>1</dim>
				</port>
			</output>
		</layer>
		<layer id="481" name="Conv_98" type="Add" version="opset1">
			<data auto_broadcast="numpy"/>
			<input>
				<port id="0">
					<dim>1</dim>
					<dim>32</dim>
					<dim>112</dim>
					<dim>656</dim>
				</port>
				<port id="1">
					<dim>1</dim>
					<dim>32</dim>
					<dim>1</dim>
					<dim>1</dim>
				</port>
			</input>
			<output>
				<port id="2" precision="FP32" names="627">
					<dim>1</dim>
					<dim>32</dim>
					<dim>112</dim>
					<dim>656</dim>
				</port>
			</output>
		</layer>
		<layer id="482" name="Clip_102" type="Clamp" version="opset1">
			<data max="6" min="0"/>
			<input>
				<port id="0">
					<dim>1</dim>
					<dim>32</dim>
					<dim>112</dim>
					<dim>656</dim>
				</port>
			</input>
			<output>
				<port id="1" precision="FP32" names="631">
					<dim>1</dim>
					<dim>32</dim>
					<dim>112</dim>
					<dim>656</dim>
				</port>
			</output>
		</layer>
		<layer id="483" name="Conv_103/WithoutBiases/fq_input_0" type="FakeQuantize" version="opset1">
			<data levels="256" auto_broadcast="numpy"/>
			<input>
				<port id="0">
					<dim>1</dim>
					<dim>32</dim>
					<dim>112</dim>
					<dim>656</dim>
				</port>
				<port id="1"/>
				<port id="2"/>
				<port id="3"/>
				<port id="4"/>
			</input>
			<output>
				<port id="5" precision="FP32">
					<dim>1</dim>
					<dim>32</dim>
					<dim>112</dim>
					<dim>656</dim>
				</port>
			</output>
		</layer>
		<layer id="484" name="20675589139/quantized1063317485" type="Const" version="opset1">
			<data offset="86080" size="768" shape="24,32,1,1" element_type="i8"/>
			<output>
				<port id="0" precision="I8">
					<dim>24</dim>
					<dim>32</dim>
					<dim>1</dim>
					<dim>1</dim>
				</port>
			</output>
		</layer>
		<layer id="485" name="20675589139/quantized/to_f32" type="Convert" version="opset1">
			<data destination_type="f32"/>
			<input>
				<port id="0">
					<dim>24</dim>
					<dim>32</dim>
					<dim>1</dim>
					<dim>1</dim>
				</port>
			</input>
			<output>
				<port id="1" precision="FP32">
					<dim>24</dim>
					<dim>32</dim>
					<dim>1</dim>
					<dim>1</dim>
				</port>
			</output>
		</layer>
		<layer id="486" name="Conv_103/WithoutBiases/fq_weights_1/zero_point1065219711" type="Const" version="opset1">
			<data offset="86848" size="96" shape="24,1,1,1" element_type="f32"/>
			<output>
				<port id="0" precision="FP32">
					<dim>24</dim>
					<dim>1</dim>
					<dim>1</dim>
					<dim>1</dim>
				</port>
			</output>
		</layer>
		<layer id="487" name="Conv_103/WithoutBiases/fq_weights_1/minus_zp" type="Subtract" version="opset1">
			<data auto_broadcast="numpy"/>
			<input>
				<port id="0">
					<dim>24</dim>
					<dim>32</dim>
					<dim>1</dim>
					<dim>1</dim>
				</port>
				<port id="1">
					<dim>24</dim>
					<dim>1</dim>
					<dim>1</dim>
					<dim>1</dim>
				</port>
			</input>
			<output>
				<port id="2" precision="FP32">
					<dim>24</dim>
					<dim>32</dim>
					<dim>1</dim>
					<dim>1</dim>
				</port>
			</output>
		</layer>
		<layer id="488" name="Conv_103/WithoutBiases/fq_weights_1/scale1064119831" type="Const" version="opset1">
			<data offset="86944" size="96" shape="24,1,1,1" element_type="f32"/>
			<output>
				<port id="0" precision="FP32">
					<dim>24</dim>
					<dim>1</dim>
					<dim>1</dim>
					<dim>1</dim>
				</port>
			</output>
		</layer>
		<layer id="489" name="Conv_103/WithoutBiases/fq_weights_1/mulpiply_by_scale" type="Multiply" version="opset1">
			<data auto_broadcast="numpy"/>
			<input>
				<port id="0">
					<dim>24</dim>
					<dim>32</dim>
					<dim>1</dim>
					<dim>1</dim>
				</port>
				<port id="1">
					<dim>24</dim>
					<dim>1</dim>
					<dim>1</dim>
					<dim>1</dim>
				</port>
			</input>
			<output>
				<port id="2" precision="FP32">
					<dim>24</dim>
					<dim>32</dim>
					<dim>1</dim>
					<dim>1</dim>
				</port>
			</output>
		</layer>
		<layer id="490" name="Conv_103/WithoutBiases" type="Convolution" version="opset1">
			<data auto_pad="explicit" strides="1,1" dilations="1,1" pads_begin="0,0" pads_end="0,0"/>
			<input>
				<port id="0">
					<dim>1</dim>
					<dim>32</dim>
					<dim>112</dim>
					<dim>656</dim>
				</port>
				<port id="1">
					<dim>24</dim>
					<dim>32</dim>
					<dim>1</dim>
					<dim>1</dim>
				</port>
			</input>
			<output>
				<port id="2" precision="FP32">
					<dim>1</dim>
					<dim>24</dim>
					<dim>112</dim>
					<dim>656</dim>
				</port>
			</output>
		</layer>
		<layer id="491" name="Conv_103/Dims533056018211" type="Const" version="opset1">
			<data offset="87040" size="96" shape="1,24,1,1" element_type="f32"/>
			<output>
				<port id="0" precision="FP32">
					<dim>1</dim>
					<dim>24</dim>
					<dim>1</dim>
					<dim>1</dim>
				</port>
			</output>
		</layer>
		<layer id="492" name="Conv_103" type="Add" version="opset1">
			<data auto_broadcast="numpy"/>
			<input>
				<port id="0">
					<dim>1</dim>
					<dim>24</dim>
					<dim>112</dim>
					<dim>656</dim>
				</port>
				<port id="1">
					<dim>1</dim>
					<dim>24</dim>
					<dim>1</dim>
					<dim>1</dim>
				</port>
			</input>
			<output>
				<port id="2" precision="FP32" names="632">
					<dim>1</dim>
					<dim>24</dim>
					<dim>112</dim>
					<dim>656</dim>
				</port>
			</output>
		</layer>
		<layer id="493" name="Conv_105/WithoutBiases/fq_input_0" type="FakeQuantize" version="opset1">
			<data levels="256" auto_broadcast="numpy"/>
			<input>
				<port id="0">
					<dim>1</dim>
					<dim>24</dim>
					<dim>112</dim>
					<dim>656</dim>
				</port>
				<port id="1"/>
				<port id="2"/>
				<port id="3"/>
				<port id="4"/>
			</input>
			<output>
				<port id="5" precision="FP32">
					<dim>1</dim>
					<dim>24</dim>
					<dim>112</dim>
					<dim>656</dim>
				</port>
			</output>
		</layer>
		<layer id="494" name="20715629141/quantized1186318814" type="Const" version="opset1">
			<data offset="87136" size="3456" shape="144,24,1,1" element_type="i8"/>
			<output>
				<port id="0" precision="I8">
					<dim>144</dim>
					<dim>24</dim>
					<dim>1</dim>
					<dim>1</dim>
				</port>
			</output>
		</layer>
		<layer id="495" name="20715629141/quantized/to_f32" type="Convert" version="opset1">
			<data destination_type="f32"/>
			<input>
				<port id="0">
					<dim>144</dim>
					<dim>24</dim>
					<dim>1</dim>
					<dim>1</dim>
				</port>
			</input>
			<output>
				<port id="1" precision="FP32">
					<dim>144</dim>
					<dim>24</dim>
					<dim>1</dim>
					<dim>1</dim>
				</port>
			</output>
		</layer>
		<layer id="496" name="Conv_105/WithoutBiases/fq_weights_1/zero_point1188218163" type="Const" version="opset1">
			<data offset="90592" size="576" shape="144,1,1,1" element_type="f32"/>
			<output>
				<port id="0" precision="FP32">
					<dim>144</dim>
					<dim>1</dim>
					<dim>1</dim>
					<dim>1</dim>
				</port>
			</output>
		</layer>
		<layer id="497" name="Conv_105/WithoutBiases/fq_weights_1/minus_zp" type="Subtract" version="opset1">
			<data auto_broadcast="numpy"/>
			<input>
				<port id="0">
					<dim>144</dim>
					<dim>24</dim>
					<dim>1</dim>
					<dim>1</dim>
				</port>
				<port id="1">
					<dim>144</dim>
					<dim>1</dim>
					<dim>1</dim>
					<dim>1</dim>
				</port>
			</input>
			<output>
				<port id="2" precision="FP32">
					<dim>144</dim>
					<dim>24</dim>
					<dim>1</dim>
					<dim>1</dim>
				</port>
			</output>
		</layer>
		<layer id="498" name="Conv_105/WithoutBiases/fq_weights_1/scale1187118082" type="Const" version="opset1">
			<data offset="91168" size="576" shape="144,1,1,1" element_type="f32"/>
			<output>
				<port id="0" precision="FP32">
					<dim>144</dim>
					<dim>1</dim>
					<dim>1</dim>
					<dim>1</dim>
				</port>
			</output>
		</layer>
		<layer id="499" name="Conv_105/WithoutBiases/fq_weights_1/mulpiply_by_scale" type="Multiply" version="opset1">
			<data auto_broadcast="numpy"/>
			<input>
				<port id="0">
					<dim>144</dim>
					<dim>24</dim>
					<dim>1</dim>
					<dim>1</dim>
				</port>
				<port id="1">
					<dim>144</dim>
					<dim>1</dim>
					<dim>1</dim>
					<dim>1</dim>
				</port>
			</input>
			<output>
				<port id="2" precision="FP32">
					<dim>144</dim>
					<dim>24</dim>
					<dim>1</dim>
					<dim>1</dim>
				</port>
			</output>
		</layer>
		<layer id="500" name="Conv_105/WithoutBiases" type="Convolution" version="opset1">
			<data auto_pad="explicit" strides="1,1" dilations="1,1" pads_begin="0,0" pads_end="0,0"/>
			<input>
				<port id="0">
					<dim>1</dim>
					<dim>24</dim>
					<dim>112</dim>
					<dim>656</dim>
				</port>
				<port id="1">
					<dim>144</dim>
					<dim>24</dim>
					<dim>1</dim>
					<dim>1</dim>
				</port>
			</input>
			<output>
				<port id="2" precision="FP32">
					<dim>1</dim>
					<dim>144</dim>
					<dim>112</dim>
					<dim>656</dim>
				</port>
			</output>
		</layer>
		<layer id="501" name="Conv_105/Dims553456419621" type="Const" version="opset1">
			<data offset="91744" size="576" shape="1,144,1,1" element_type="f32"/>
			<output>
				<port id="0" precision="FP32">
					<dim>1</dim>
					<dim>144</dim>
					<dim>1</dim>
					<dim>1</dim>
				</port>
			</output>
		</layer>
		<layer id="502" name="Conv_105" type="Add" version="opset1">
			<data auto_broadcast="numpy"/>
			<input>
				<port id="0">
					<dim>1</dim>
					<dim>144</dim>
					<dim>112</dim>
					<dim>656</dim>
				</port>
				<port id="1">
					<dim>1</dim>
					<dim>144</dim>
					<dim>1</dim>
					<dim>1</dim>
				</port>
			</input>
			<output>
				<port id="2" precision="FP32" names="634">
					<dim>1</dim>
					<dim>144</dim>
					<dim>112</dim>
					<dim>656</dim>
				</port>
			</output>
		</layer>
		<layer id="503" name="Clip_109" type="Clamp" version="opset1">
			<data max="6" min="0"/>
			<input>
				<port id="0">
					<dim>1</dim>
					<dim>144</dim>
					<dim>112</dim>
					<dim>656</dim>
				</port>
			</input>
			<output>
				<port id="1" precision="FP32" names="638">
					<dim>1</dim>
					<dim>144</dim>
					<dim>112</dim>
					<dim>656</dim>
				</port>
			</output>
		</layer>
		<layer id="504" name="Conv_203/WithoutBiases/fq_input_0" type="FakeQuantize" version="opset1">
			<data levels="256" auto_broadcast="numpy"/>
			<input>
				<port id="0">
					<dim>1</dim>
					<dim>144</dim>
					<dim>112</dim>
					<dim>656</dim>
				</port>
				<port id="1">
					<dim>1</dim>
					<dim>144</dim>
					<dim>1</dim>
					<dim>1</dim>
				</port>
				<port id="2">
					<dim>1</dim>
					<dim>144</dim>
					<dim>1</dim>
					<dim>1</dim>
				</port>
				<port id="3">
					<dim>1</dim>
					<dim>144</dim>
					<dim>1</dim>
					<dim>1</dim>
				</port>
				<port id="4">
					<dim>1</dim>
					<dim>144</dim>
					<dim>1</dim>
					<dim>1</dim>
				</port>
			</input>
			<output>
				<port id="5" precision="FP32">
					<dim>1</dim>
					<dim>144</dim>
					<dim>112</dim>
					<dim>656</dim>
				</port>
			</output>
		</layer>
		<layer id="505" name="15188/value1519018433" type="Const" version="opset1">
			<data offset="92320" size="40" shape="5" element_type="i64"/>
			<output>
				<port id="0" precision="I64">
					<dim>5</dim>
				</port>
			</output>
		</layer>
		<layer id="506" name="20755679143/quantized1249319180" type="Const" version="opset1">
			<data offset="92360" size="1296" shape="144,1,3,3" element_type="i8"/>
			<output>
				<port id="0" precision="I8">
					<dim>144</dim>
					<dim>1</dim>
					<dim>3</dim>
					<dim>3</dim>
				</port>
			</output>
		</layer>
		<layer id="507" name="20755679143/quantized/to_f32" type="Convert" version="opset1">
			<data destination_type="f32"/>
			<input>
				<port id="0">
					<dim>144</dim>
					<dim>1</dim>
					<dim>3</dim>
					<dim>3</dim>
				</port>
			</input>
			<output>
				<port id="1" precision="FP32">
					<dim>144</dim>
					<dim>1</dim>
					<dim>3</dim>
					<dim>3</dim>
				</port>
			</output>
		</layer>
		<layer id="508" name="Conv_203/WithoutBiases/fq_weights_1/zero_point1251219678" type="Const" version="opset1">
			<data offset="93656" size="576" shape="144,1,1,1" element_type="f32"/>
			<output>
				<port id="0" precision="FP32">
					<dim>144</dim>
					<dim>1</dim>
					<dim>1</dim>
					<dim>1</dim>
				</port>
			</output>
		</layer>
		<layer id="509" name="Conv_203/WithoutBiases/fq_weights_1/minus_zp" type="Subtract" version="opset1">
			<data auto_broadcast="numpy"/>
			<input>
				<port id="0">
					<dim>144</dim>
					<dim>1</dim>
					<dim>3</dim>
					<dim>3</dim>
				</port>
				<port id="1">
					<dim>144</dim>
					<dim>1</dim>
					<dim>1</dim>
					<dim>1</dim>
				</port>
			</input>
			<output>
				<port id="2" precision="FP32">
					<dim>144</dim>
					<dim>1</dim>
					<dim>3</dim>
					<dim>3</dim>
				</port>
			</output>
		</layer>
		<layer id="510" name="Conv_203/WithoutBiases/fq_weights_1/scale1250118829" type="Const" version="opset1">
			<data offset="94232" size="576" shape="144,1,1,1" element_type="f32"/>
			<output>
				<port id="0" precision="FP32">
					<dim>144</dim>
					<dim>1</dim>
					<dim>1</dim>
					<dim>1</dim>
				</port>
			</output>
		</layer>
		<layer id="511" name="Conv_203/WithoutBiases/fq_weights_1/mulpiply_by_scale" type="Multiply" version="opset1">
			<data auto_broadcast="numpy"/>
			<input>
				<port id="0">
					<dim>144</dim>
					<dim>1</dim>
					<dim>3</dim>
					<dim>3</dim>
				</port>
				<port id="1">
					<dim>144</dim>
					<dim>1</dim>
					<dim>1</dim>
					<dim>1</dim>
				</port>
			</input>
			<output>
				<port id="2" precision="FP32">
					<dim>144</dim>
					<dim>1</dim>
					<dim>3</dim>
					<dim>3</dim>
				</port>
			</output>
		</layer>
		<layer id="512" name="15188" type="Reshape" version="opset1">
			<data special_zero="true"/>
			<input>
				<port id="0">
					<dim>144</dim>
					<dim>1</dim>
					<dim>3</dim>
					<dim>3</dim>
				</port>
				<port id="1">
					<dim>5</dim>
				</port>
			</input>
			<output>
				<port id="2" precision="FP32">
					<dim>144</dim>
					<dim>1</dim>
					<dim>1</dim>
					<dim>3</dim>
					<dim>3</dim>
				</port>
			</output>
		</layer>
		<layer id="513" name="Conv_203/WithoutBiases" type="GroupConvolution" version="opset1">
			<data auto_pad="explicit" strides="2,2" dilations="1,1" pads_begin="0,0" pads_end="1,1"/>
			<input>
				<port id="0">
					<dim>1</dim>
					<dim>144</dim>
					<dim>112</dim>
					<dim>656</dim>
				</port>
				<port id="1">
					<dim>144</dim>
					<dim>1</dim>
					<dim>1</dim>
					<dim>3</dim>
					<dim>3</dim>
				</port>
			</input>
			<output>
				<port id="2" precision="FP32">
					<dim>1</dim>
					<dim>144</dim>
					<dim>56</dim>
					<dim>328</dim>
				</port>
			</output>
		</layer>
		<layer id="514" name="Conv_203/Dims521056918169" type="Const" version="opset1">
			<data offset="94808" size="576" shape="1,144,1,1" element_type="f32"/>
			<output>
				<port id="0" precision="FP32">
					<dim>1</dim>
					<dim>144</dim>
					<dim>1</dim>
					<dim>1</dim>
				</port>
			</output>
		</layer>
		<layer id="515" name="Conv_203" type="Add" version="opset1">
			<data auto_broadcast="numpy"/>
			<input>
				<port id="0">
					<dim>1</dim>
					<dim>144</dim>
					<dim>56</dim>
					<dim>328</dim>
				</port>
				<port id="1">
					<dim>1</dim>
					<dim>144</dim>
					<dim>1</dim>
					<dim>1</dim>
				</port>
			</input>
			<output>
				<port id="2" precision="FP32" names="732">
					<dim>1</dim>
					<dim>144</dim>
					<dim>56</dim>
					<dim>328</dim>
				</port>
			</output>
		</layer>
		<layer id="516" name="Clip_207" type="Clamp" version="opset1">
			<data max="6" min="0"/>
			<input>
				<port id="0">
					<dim>1</dim>
					<dim>144</dim>
					<dim>56</dim>
					<dim>328</dim>
				</port>
			</input>
			<output>
				<port id="1" precision="FP32" names="736">
					<dim>1</dim>
					<dim>144</dim>
					<dim>56</dim>
					<dim>328</dim>
				</port>
			</output>
		</layer>
		<layer id="517" name="Conv_208/WithoutBiases/fq_input_0" type="FakeQuantize" version="opset1">
			<data levels="256" auto_broadcast="numpy"/>
			<input>
				<port id="0">
					<dim>1</dim>
					<dim>144</dim>
					<dim>56</dim>
					<dim>328</dim>
				</port>
				<port id="1"/>
				<port id="2"/>
				<port id="3"/>
				<port id="4"/>
			</input>
			<output>
				<port id="5" precision="FP32">
					<dim>1</dim>
					<dim>144</dim>
					<dim>56</dim>
					<dim>328</dim>
				</port>
			</output>
		</layer>
		<layer id="518" name="20795729145/quantized1066318874" type="Const" version="opset1">
			<data offset="95384" size="4608" shape="32,144,1,1" element_type="i8"/>
			<output>
				<port id="0" precision="I8">
					<dim>32</dim>
					<dim>144</dim>
					<dim>1</dim>
					<dim>1</dim>
				</port>
			</output>
		</layer>
		<layer id="519" name="20795729145/quantized/to_f32" type="Convert" version="opset1">
			<data destination_type="f32"/>
			<input>
				<port id="0">
					<dim>32</dim>
					<dim>144</dim>
					<dim>1</dim>
					<dim>1</dim>
				</port>
			</input>
			<output>
				<port id="1" precision="FP32">
					<dim>32</dim>
					<dim>144</dim>
					<dim>1</dim>
					<dim>1</dim>
				</port>
			</output>
		</layer>
		<layer id="520" name="Conv_208/WithoutBiases/fq_weights_1/zero_point1068219666" type="Const" version="opset1">
			<data offset="99992" size="128" shape="32,1,1,1" element_type="f32"/>
			<output>
				<port id="0" precision="FP32">
					<dim>32</dim>
					<dim>1</dim>
					<dim>1</dim>
					<dim>1</dim>
				</port>
			</output>
		</layer>
		<layer id="521" name="Conv_208/WithoutBiases/fq_weights_1/minus_zp" type="Subtract" version="opset1">
			<data auto_broadcast="numpy"/>
			<input>
				<port id="0">
					<dim>32</dim>
					<dim>144</dim>
					<dim>1</dim>
					<dim>1</dim>
				</port>
				<port id="1">
					<dim>32</dim>
					<dim>1</dim>
					<dim>1</dim>
					<dim>1</dim>
				</port>
			</input>
			<output>
				<port id="2" precision="FP32">
					<dim>32</dim>
					<dim>144</dim>
					<dim>1</dim>
					<dim>1</dim>
				</port>
			</output>
		</layer>
		<layer id="522" name="Conv_208/WithoutBiases/fq_weights_1/scale1067119759" type="Const" version="opset1">
			<data offset="100120" size="128" shape="32,1,1,1" element_type="f32"/>
			<output>
				<port id="0" precision="FP32">
					<dim>32</dim>
					<dim>1</dim>
					<dim>1</dim>
					<dim>1</dim>
				</port>
			</output>
		</layer>
		<layer id="523" name="Conv_208/WithoutBiases/fq_weights_1/mulpiply_by_scale" type="Multiply" version="opset1">
			<data auto_broadcast="numpy"/>
			<input>
				<port id="0">
					<dim>32</dim>
					<dim>144</dim>
					<dim>1</dim>
					<dim>1</dim>
				</port>
				<port id="1">
					<dim>32</dim>
					<dim>1</dim>
					<dim>1</dim>
					<dim>1</dim>
				</port>
			</input>
			<output>
				<port id="2" precision="FP32">
					<dim>32</dim>
					<dim>144</dim>
					<dim>1</dim>
					<dim>1</dim>
				</port>
			</output>
		</layer>
		<layer id="524" name="Conv_208/WithoutBiases" type="Convolution" version="opset1">
			<data auto_pad="explicit" strides="1,1" dilations="1,1" pads_begin="0,0" pads_end="0,0"/>
			<input>
				<port id="0">
					<dim>1</dim>
					<dim>144</dim>
					<dim>56</dim>
					<dim>328</dim>
				</port>
				<port id="1">
					<dim>32</dim>
					<dim>144</dim>
					<dim>1</dim>
					<dim>1</dim>
				</port>
			</input>
			<output>
				<port id="2" precision="FP32">
					<dim>1</dim>
					<dim>32</dim>
					<dim>56</dim>
					<dim>328</dim>
				</port>
			</output>
		</layer>
		<layer id="525" name="Conv_208/Dims563657418307" type="Const" version="opset1">
			<data offset="100248" size="128" shape="1,32,1,1" element_type="f32"/>
			<output>
				<port id="0" precision="FP32">
					<dim>1</dim>
					<dim>32</dim>
					<dim>1</dim>
					<dim>1</dim>
				</port>
			</output>
		</layer>
		<layer id="526" name="Conv_208" type="Add" version="opset1">
			<data auto_broadcast="numpy"/>
			<input>
				<port id="0">
					<dim>1</dim>
					<dim>32</dim>
					<dim>56</dim>
					<dim>328</dim>
				</port>
				<port id="1">
					<dim>1</dim>
					<dim>32</dim>
					<dim>1</dim>
					<dim>1</dim>
				</port>
			</input>
			<output>
				<port id="2" precision="FP32" names="737">
					<dim>1</dim>
					<dim>32</dim>
					<dim>56</dim>
					<dim>328</dim>
				</port>
			</output>
		</layer>
		<layer id="527" name="Add_222/fq_input_1" type="FakeQuantize" version="opset1">
			<data levels="256" auto_broadcast="numpy"/>
			<input>
				<port id="0">
					<dim>1</dim>
					<dim>32</dim>
					<dim>56</dim>
					<dim>328</dim>
				</port>
				<port id="1"/>
				<port id="2"/>
				<port id="3"/>
				<port id="4"/>
			</input>
			<output>
				<port id="5" precision="FP32">
					<dim>1</dim>
					<dim>32</dim>
					<dim>56</dim>
					<dim>328</dim>
				</port>
			</output>
		</layer>
		<layer id="528" name="20835769147/quantized1111317710" type="Const" version="opset1">
			<data offset="100376" size="6144" shape="192,32,1,1" element_type="i8"/>
			<output>
				<port id="0" precision="I8">
					<dim>192</dim>
					<dim>32</dim>
					<dim>1</dim>
					<dim>1</dim>
				</port>
			</output>
		</layer>
		<layer id="529" name="20835769147/quantized/to_f32" type="Convert" version="opset1">
			<data destination_type="f32"/>
			<input>
				<port id="0">
					<dim>192</dim>
					<dim>32</dim>
					<dim>1</dim>
					<dim>1</dim>
				</port>
			</input>
			<output>
				<port id="1" precision="FP32">
					<dim>192</dim>
					<dim>32</dim>
					<dim>1</dim>
					<dim>1</dim>
				</port>
			</output>
		</layer>
		<layer id="530" name="Conv_210/WithoutBiases/fq_weights_1/zero_point1113219189" type="Const" version="opset1">
			<data offset="106520" size="768" shape="192,1,1,1" element_type="f32"/>
			<output>
				<port id="0" precision="FP32">
					<dim>192</dim>
					<dim>1</dim>
					<dim>1</dim>
					<dim>1</dim>
				</port>
			</output>
		</layer>
		<layer id="531" name="Conv_210/WithoutBiases/fq_weights_1/minus_zp" type="Subtract" version="opset1">
			<data auto_broadcast="numpy"/>
			<input>
				<port id="0">
					<dim>192</dim>
					<dim>32</dim>
					<dim>1</dim>
					<dim>1</dim>
				</port>
				<port id="1">
					<dim>192</dim>
					<dim>1</dim>
					<dim>1</dim>
					<dim>1</dim>
				</port>
			</input>
			<output>
				<port id="2" precision="FP32">
					<dim>192</dim>
					<dim>32</dim>
					<dim>1</dim>
					<dim>1</dim>
				</port>
			</output>
		</layer>
		<layer id="532" name="Conv_210/WithoutBiases/fq_weights_1/scale1112118529" type="Const" version="opset1">
			<data offset="107288" size="768" shape="192,1,1,1" element_type="f32"/>
			<output>
				<port id="0" precision="FP32">
					<dim>192</dim>
					<dim>1</dim>
					<dim>1</dim>
					<dim>1</dim>
				</port>
			</output>
		</layer>
		<layer id="533" name="Conv_210/WithoutBiases/fq_weights_1/mulpiply_by_scale" type="Multiply" version="opset1">
			<data auto_broadcast="numpy"/>
			<input>
				<port id="0">
					<dim>192</dim>
					<dim>32</dim>
					<dim>1</dim>
					<dim>1</dim>
				</port>
				<port id="1">
					<dim>192</dim>
					<dim>1</dim>
					<dim>1</dim>
					<dim>1</dim>
				</port>
			</input>
			<output>
				<port id="2" precision="FP32">
					<dim>192</dim>
					<dim>32</dim>
					<dim>1</dim>
					<dim>1</dim>
				</port>
			</output>
		</layer>
		<layer id="534" name="Conv_210/WithoutBiases" type="Convolution" version="opset1">
			<data auto_pad="explicit" strides="1,1" dilations="1,1" pads_begin="0,0" pads_end="0,0"/>
			<input>
				<port id="0">
					<dim>1</dim>
					<dim>32</dim>
					<dim>56</dim>
					<dim>328</dim>
				</port>
				<port id="1">
					<dim>192</dim>
					<dim>32</dim>
					<dim>1</dim>
					<dim>1</dim>
				</port>
			</input>
			<output>
				<port id="2" precision="FP32">
					<dim>1</dim>
					<dim>192</dim>
					<dim>56</dim>
					<dim>328</dim>
				</port>
			</output>
		</layer>
		<layer id="535" name="Conv_210/Dims537857817692" type="Const" version="opset1">
			<data offset="108056" size="768" shape="1,192,1,1" element_type="f32"/>
			<output>
				<port id="0" precision="FP32">
					<dim>1</dim>
					<dim>192</dim>
					<dim>1</dim>
					<dim>1</dim>
				</port>
			</output>
		</layer>
		<layer id="536" name="Conv_210" type="Add" version="opset1">
			<data auto_broadcast="numpy"/>
			<input>
				<port id="0">
					<dim>1</dim>
					<dim>192</dim>
					<dim>56</dim>
					<dim>328</dim>
				</port>
				<port id="1">
					<dim>1</dim>
					<dim>192</dim>
					<dim>1</dim>
					<dim>1</dim>
				</port>
			</input>
			<output>
				<port id="2" precision="FP32" names="739">
					<dim>1</dim>
					<dim>192</dim>
					<dim>56</dim>
					<dim>328</dim>
				</port>
			</output>
		</layer>
		<layer id="537" name="Clip_214" type="Clamp" version="opset1">
			<data max="6" min="0"/>
			<input>
				<port id="0">
					<dim>1</dim>
					<dim>192</dim>
					<dim>56</dim>
					<dim>328</dim>
				</port>
			</input>
			<output>
				<port id="1" precision="FP32" names="743">
					<dim>1</dim>
					<dim>192</dim>
					<dim>56</dim>
					<dim>328</dim>
				</port>
			</output>
		</layer>
		<layer id="538" name="Conv_215/WithoutBiases/fq_input_0" type="FakeQuantize" version="opset1">
			<data levels="256" auto_broadcast="numpy"/>
			<input>
				<port id="0">
					<dim>1</dim>
					<dim>192</dim>
					<dim>56</dim>
					<dim>328</dim>
				</port>
				<port id="1">
					<dim>1</dim>
					<dim>192</dim>
					<dim>1</dim>
					<dim>1</dim>
				</port>
				<port id="2">
					<dim>1</dim>
					<dim>192</dim>
					<dim>1</dim>
					<dim>1</dim>
				</port>
				<port id="3">
					<dim>1</dim>
					<dim>192</dim>
					<dim>1</dim>
					<dim>1</dim>
				</port>
				<port id="4">
					<dim>1</dim>
					<dim>192</dim>
					<dim>1</dim>
					<dim>1</dim>
				</port>
			</input>
			<output>
				<port id="5" precision="FP32">
					<dim>1</dim>
					<dim>192</dim>
					<dim>56</dim>
					<dim>328</dim>
				</port>
			</output>
		</layer>
		<layer id="539" name="15192/value1519417818" type="Const" version="opset1">
			<data offset="108824" size="40" shape="5" element_type="i64"/>
			<output>
				<port id="0" precision="I64">
					<dim>5</dim>
				</port>
			</output>
		</layer>
		<layer id="540" name="20875819149/quantized1060319492" type="Const" version="opset1">
			<data offset="108864" size="1728" shape="192,1,3,3" element_type="i8"/>
			<output>
				<port id="0" precision="I8">
					<dim>192</dim>
					<dim>1</dim>
					<dim>3</dim>
					<dim>3</dim>
				</port>
			</output>
		</layer>
		<layer id="541" name="20875819149/quantized/to_f32" type="Convert" version="opset1">
			<data destination_type="f32"/>
			<input>
				<port id="0">
					<dim>192</dim>
					<dim>1</dim>
					<dim>3</dim>
					<dim>3</dim>
				</port>
			</input>
			<output>
				<port id="1" precision="FP32">
					<dim>192</dim>
					<dim>1</dim>
					<dim>3</dim>
					<dim>3</dim>
				</port>
			</output>
		</layer>
		<layer id="542" name="Conv_215/WithoutBiases/fq_weights_1/zero_point1062217953" type="Const" version="opset1">
			<data offset="110592" size="768" shape="192,1,1,1" element_type="f32"/>
			<output>
				<port id="0" precision="FP32">
					<dim>192</dim>
					<dim>1</dim>
					<dim>1</dim>
					<dim>1</dim>
				</port>
			</output>
		</layer>
		<layer id="543" name="Conv_215/WithoutBiases/fq_weights_1/minus_zp" type="Subtract" version="opset1">
			<data auto_broadcast="numpy"/>
			<input>
				<port id="0">
					<dim>192</dim>
					<dim>1</dim>
					<dim>3</dim>
					<dim>3</dim>
				</port>
				<port id="1">
					<dim>192</dim>
					<dim>1</dim>
					<dim>1</dim>
					<dim>1</dim>
				</port>
			</input>
			<output>
				<port id="2" precision="FP32">
					<dim>192</dim>
					<dim>1</dim>
					<dim>3</dim>
					<dim>3</dim>
				</port>
			</output>
		</layer>
		<layer id="544" name="Conv_215/WithoutBiases/fq_weights_1/scale1061119420" type="Const" version="opset1">
			<data offset="111360" size="768" shape="192,1,1,1" element_type="f32"/>
			<output>
				<port id="0" precision="FP32">
					<dim>192</dim>
					<dim>1</dim>
					<dim>1</dim>
					<dim>1</dim>
				</port>
			</output>
		</layer>
		<layer id="545" name="Conv_215/WithoutBiases/fq_weights_1/mulpiply_by_scale" type="Multiply" version="opset1">
			<data auto_broadcast="numpy"/>
			<input>
				<port id="0">
					<dim>192</dim>
					<dim>1</dim>
					<dim>3</dim>
					<dim>3</dim>
				</port>
				<port id="1">
					<dim>192</dim>
					<dim>1</dim>
					<dim>1</dim>
					<dim>1</dim>
				</port>
			</input>
			<output>
				<port id="2" precision="FP32">
					<dim>192</dim>
					<dim>1</dim>
					<dim>3</dim>
					<dim>3</dim>
				</port>
			</output>
		</layer>
		<layer id="546" name="15192" type="Reshape" version="opset1">
			<data special_zero="true"/>
			<input>
				<port id="0">
					<dim>192</dim>
					<dim>1</dim>
					<dim>3</dim>
					<dim>3</dim>
				</port>
				<port id="1">
					<dim>5</dim>
				</port>
			</input>
			<output>
				<port id="2" precision="FP32">
					<dim>192</dim>
					<dim>1</dim>
					<dim>1</dim>
					<dim>3</dim>
					<dim>3</dim>
				</port>
			</output>
		</layer>
		<layer id="547" name="Conv_215/WithoutBiases" type="GroupConvolution" version="opset1">
			<data auto_pad="explicit" strides="1,1" dilations="1,1" pads_begin="1,1" pads_end="1,1"/>
			<input>
				<port id="0">
					<dim>1</dim>
					<dim>192</dim>
					<dim>56</dim>
					<dim>328</dim>
				</port>
				<port id="1">
					<dim>192</dim>
					<dim>1</dim>
					<dim>1</dim>
					<dim>3</dim>
					<dim>3</dim>
				</port>
			</input>
			<output>
				<port id="2" precision="FP32">
					<dim>1</dim>
					<dim>192</dim>
					<dim>56</dim>
					<dim>328</dim>
				</port>
			</output>
		</layer>
		<layer id="548" name="Conv_215/Dims546258317572" type="Const" version="opset1">
			<data offset="112128" size="768" shape="1,192,1,1" element_type="f32"/>
			<output>
				<port id="0" precision="FP32">
					<dim>1</dim>
					<dim>192</dim>
					<dim>1</dim>
					<dim>1</dim>
				</port>
			</output>
		</layer>
		<layer id="549" name="Conv_215" type="Add" version="opset1">
			<data auto_broadcast="numpy"/>
			<input>
				<port id="0">
					<dim>1</dim>
					<dim>192</dim>
					<dim>56</dim>
					<dim>328</dim>
				</port>
				<port id="1">
					<dim>1</dim>
					<dim>192</dim>
					<dim>1</dim>
					<dim>1</dim>
				</port>
			</input>
			<output>
				<port id="2" precision="FP32" names="744">
					<dim>1</dim>
					<dim>192</dim>
					<dim>56</dim>
					<dim>328</dim>
				</port>
			</output>
		</layer>
		<layer id="550" name="Clip_219" type="Clamp" version="opset1">
			<data max="6" min="0"/>
			<input>
				<port id="0">
					<dim>1</dim>
					<dim>192</dim>
					<dim>56</dim>
					<dim>328</dim>
				</port>
			</input>
			<output>
				<port id="1" precision="FP32" names="748">
					<dim>1</dim>
					<dim>192</dim>
					<dim>56</dim>
					<dim>328</dim>
				</port>
			</output>
		</layer>
		<layer id="551" name="Conv_220/WithoutBiases/fq_input_0" type="FakeQuantize" version="opset1">
			<data levels="256" auto_broadcast="numpy"/>
			<input>
				<port id="0">
					<dim>1</dim>
					<dim>192</dim>
					<dim>56</dim>
					<dim>328</dim>
				</port>
				<port id="1"/>
				<port id="2"/>
				<port id="3"/>
				<port id="4"/>
			</input>
			<output>
				<port id="5" precision="FP32">
					<dim>1</dim>
					<dim>192</dim>
					<dim>56</dim>
					<dim>328</dim>
				</port>
			</output>
		</layer>
		<layer id="552" name="20915869151/quantized1033318520" type="Const" version="opset1">
			<data offset="112896" size="6144" shape="32,192,1,1" element_type="i8"/>
			<output>
				<port id="0" precision="I8">
					<dim>32</dim>
					<dim>192</dim>
					<dim>1</dim>
					<dim>1</dim>
				</port>
			</output>
		</layer>
		<layer id="553" name="20915869151/quantized/to_f32" type="Convert" version="opset1">
			<data destination_type="f32"/>
			<input>
				<port id="0">
					<dim>32</dim>
					<dim>192</dim>
					<dim>1</dim>
					<dim>1</dim>
				</port>
			</input>
			<output>
				<port id="1" precision="FP32">
					<dim>32</dim>
					<dim>192</dim>
					<dim>1</dim>
					<dim>1</dim>
				</port>
			</output>
		</layer>
		<layer id="554" name="Conv_220/WithoutBiases/fq_weights_1/zero_point1035218451" type="Const" version="opset1">
			<data offset="119040" size="128" shape="32,1,1,1" element_type="f32"/>
			<output>
				<port id="0" precision="FP32">
					<dim>32</dim>
					<dim>1</dim>
					<dim>1</dim>
					<dim>1</dim>
				</port>
			</output>
		</layer>
		<layer id="555" name="Conv_220/WithoutBiases/fq_weights_1/minus_zp" type="Subtract" version="opset1">
			<data auto_broadcast="numpy"/>
			<input>
				<port id="0">
					<dim>32</dim>
					<dim>192</dim>
					<dim>1</dim>
					<dim>1</dim>
				</port>
				<port id="1">
					<dim>32</dim>
					<dim>1</dim>
					<dim>1</dim>
					<dim>1</dim>
				</port>
			</input>
			<output>
				<port id="2" precision="FP32">
					<dim>32</dim>
					<dim>192</dim>
					<dim>1</dim>
					<dim>1</dim>
				</port>
			</output>
		</layer>
		<layer id="556" name="Conv_220/WithoutBiases/fq_weights_1/scale1034118139" type="Const" version="opset1">
			<data offset="119168" size="128" shape="32,1,1,1" element_type="f32"/>
			<output>
				<port id="0" precision="FP32">
					<dim>32</dim>
					<dim>1</dim>
					<dim>1</dim>
					<dim>1</dim>
				</port>
			</output>
		</layer>
		<layer id="557" name="Conv_220/WithoutBiases/fq_weights_1/mulpiply_by_scale" type="Multiply" version="opset1">
			<data auto_broadcast="numpy"/>
			<input>
				<port id="0">
					<dim>32</dim>
					<dim>192</dim>
					<dim>1</dim>
					<dim>1</dim>
				</port>
				<port id="1">
					<dim>32</dim>
					<dim>1</dim>
					<dim>1</dim>
					<dim>1</dim>
				</port>
			</input>
			<output>
				<port id="2" precision="FP32">
					<dim>32</dim>
					<dim>192</dim>
					<dim>1</dim>
					<dim>1</dim>
				</port>
			</output>
		</layer>
		<layer id="558" name="Conv_220/WithoutBiases" type="Convolution" version="opset1">
			<data auto_pad="explicit" strides="1,1" dilations="1,1" pads_begin="0,0" pads_end="0,0"/>
			<input>
				<port id="0">
					<dim>1</dim>
					<dim>192</dim>
					<dim>56</dim>
					<dim>328</dim>
				</port>
				<port id="1">
					<dim>32</dim>
					<dim>192</dim>
					<dim>1</dim>
					<dim>1</dim>
				</port>
			</input>
			<output>
				<port id="2" precision="FP32">
					<dim>1</dim>
					<dim>32</dim>
					<dim>56</dim>
					<dim>328</dim>
				</port>
			</output>
		</layer>
		<layer id="559" name="Conv_220/Dims554058817971" type="Const" version="opset1">
			<data offset="119296" size="128" shape="1,32,1,1" element_type="f32"/>
			<output>
				<port id="0" precision="FP32">
					<dim>1</dim>
					<dim>32</dim>
					<dim>1</dim>
					<dim>1</dim>
				</port>
			</output>
		</layer>
		<layer id="560" name="Conv_220" type="Add" version="opset1">
			<data auto_broadcast="numpy"/>
			<input>
				<port id="0">
					<dim>1</dim>
					<dim>32</dim>
					<dim>56</dim>
					<dim>328</dim>
				</port>
				<port id="1">
					<dim>1</dim>
					<dim>32</dim>
					<dim>1</dim>
					<dim>1</dim>
				</port>
			</input>
			<output>
				<port id="2" precision="FP32" names="749">
					<dim>1</dim>
					<dim>32</dim>
					<dim>56</dim>
					<dim>328</dim>
				</port>
			</output>
		</layer>
		<layer id="561" name="Add_222/fq_input_0" type="FakeQuantize" version="opset1">
			<data levels="256" auto_broadcast="numpy"/>
			<input>
				<port id="0">
					<dim>1</dim>
					<dim>32</dim>
					<dim>56</dim>
					<dim>328</dim>
				</port>
				<port id="1"/>
				<port id="2"/>
				<port id="3"/>
				<port id="4"/>
			</input>
			<output>
				<port id="5" precision="FP32">
					<dim>1</dim>
					<dim>32</dim>
					<dim>56</dim>
					<dim>328</dim>
				</port>
			</output>
		</layer>
		<layer id="562" name="Add_222" type="Add" version="opset1">
			<data auto_broadcast="numpy"/>
			<input>
				<port id="0">
					<dim>1</dim>
					<dim>32</dim>
					<dim>56</dim>
					<dim>328</dim>
				</port>
				<port id="1">
					<dim>1</dim>
					<dim>32</dim>
					<dim>56</dim>
					<dim>328</dim>
				</port>
			</input>
			<output>
				<port id="2" precision="FP32" names="751">
					<dim>1</dim>
					<dim>32</dim>
					<dim>56</dim>
					<dim>328</dim>
				</port>
			</output>
		</layer>
		<layer id="563" name="Add_235/fq_input_1" type="FakeQuantize" version="opset1">
			<data levels="256" auto_broadcast="numpy"/>
			<input>
				<port id="0">
					<dim>1</dim>
					<dim>32</dim>
					<dim>56</dim>
…
		<edge from-layer="1233" from-port="2" to-layer="1234" to-port="1"/>
		<edge from-layer="1234" from-port="2" to-layer="1236" to-port="0"/>
		<edge from-layer="1235" from-port="0" to-layer="1236" to-port="1"/>
		<edge from-layer="1236" from-port="2" to-layer="1237" to-port="0"/>
		<edge from-layer="126" from-port="0" to-layer="1237" to-port="1"/>
		<edge from-layer="127" from-port="0" to-layer="1237" to-port="2"/>
		<edge from-layer="128" from-port="0" to-layer="1237" to-port="3"/>
		<edge from-layer="129" from-port="0" to-layer="1237" to-port="4"/>
		<edge from-layer="1237" from-port="5" to-layer="1238" to-port="0"/>
		<edge from-layer="1203" from-port="5" to-layer="1238" to-port="1"/>
		<edge from-layer="1238" from-port="2" to-layer="1239" to-port="0"/>
		<edge from-layer="122" from-port="0" to-layer="1239" to-port="1"/>
		<edge from-layer="123" from-port="0" to-layer="1239" to-port="2"/>
		<edge from-layer="124" from-port="0" to-layer="1239" to-port="3"/>
		<edge from-layer="125" from-port="0" to-layer="1239" to-port="4"/>
		<edge from-layer="1240" from-port="0" to-layer="1241" to-port="0"/>
		<edge from-layer="1241" from-port="1" to-layer="1243" to-port="0"/>
		<edge from-layer="1242" from-port="0" to-layer="1243" to-port="1"/>
		<edge from-layer="1243" from-port="2" to-layer="1245" to-port="0"/>
		<edge from-layer="1244" from-port="0" to-layer="1245" to-port="1"/>
		<edge from-layer="1239" from-port="5" to-layer="1246" to-port="0"/>
		<edge from-layer="1245" from-port="2" to-layer="1246" to-port="1"/>
		<edge from-layer="1246" from-port="2" to-layer="1248" to-port="0"/>
		<edge from-layer="1247" from-port="0" to-layer="1248" to-port="1"/>
		<edge from-layer="1248" from-port="2" to-layer="1249" to-port="0"/>
		<edge from-layer="1249" from-port="1" to-layer="1250" to-port="0"/>
		<edge from-layer="118" from-port="0" to-layer="1250" to-port="1"/>
		<edge from-layer="119" from-port="0" to-layer="1250" to-port="2"/>
		<edge from-layer="120" from-port="0" to-layer="1250" to-port="3"/>
		<edge from-layer="121" from-port="0" to-layer="1250" to-port="4"/>
		<edge from-layer="1252" from-port="0" to-layer="1253" to-port="0"/>
		<edge from-layer="1253" from-port="1" to-layer="1255" to-port="0"/>
		<edge from-layer="1254" from-port="0" to-layer="1255" to-port="1"/>
		<edge from-layer="1255" from-port="2" to-layer="1257" to-port="0"/>
		<edge from-layer="1256" from-port="0" to-layer="1257" to-port="1"/>
		<edge from-layer="1257" from-port="2" to-layer="1258" to-port="0"/>
		<edge from-layer="1251" from-port="0" to-layer="1258" to-port="1"/>
		<edge from-layer="1250" from-port="5" to-layer="1259" to-port="0"/>
		<edge from-layer="1258" from-port="2" to-layer="1259" to-port="1"/>
		<edge from-layer="1259" from-port="2" to-layer="1261" to-port="0"/>
		<edge from-layer="1260" from-port="0" to-layer="1261" to-port="1"/>
		<edge from-layer="1261" from-port="2" to-layer="1262" to-port="0"/>
		<edge from-layer="1262" from-port="1" to-layer="1263" to-port="0"/>
		<edge from-layer="114" from-port="0" to-layer="1263" to-port="1"/>
		<edge from-layer="115" from-port="0" to-layer="1263" to-port="2"/>
		<edge from-layer="116" from-port="0" to-layer="1263" to-port="3"/>
		<edge from-layer="117" from-port="0" to-layer="1263" to-port="4"/>
		<edge from-layer="1264" from-port="0" to-layer="1265" to-port="0"/>
		<edge from-layer="1265" from-port="1" to-layer="1267" to-port="0"/>
		<edge from-layer="1266" from-port="0" to-layer="1267" to-port="1"/>
		<edge from-layer="1267" from-port="2" to-layer="1269" to-port="0"/>
		<edge from-layer="1268" from-port="0" to-layer="1269" to-port="1"/>
		<edge from-layer="1263" from-port="5" to-layer="1270" to-port="0"/>
		<edge from-layer="1269" from-port="2" to-layer="1270" to-port="1"/>
		<edge from-layer="1270" from-port="2" to-layer="1272" to-port="0"/>
		<edge from-layer="1271" from-port="0" to-layer="1272" to-port="1"/>
		<edge from-layer="1272" from-port="2" to-layer="1273" to-port="0"/>
		<edge from-layer="110" from-port="0" to-layer="1273" to-port="1"/>
		<edge from-layer="111" from-port="0" to-layer="1273" to-port="2"/>
		<edge from-layer="112" from-port="0" to-layer="1273" to-port="3"/>
		<edge from-layer="113" from-port="0" to-layer="1273" to-port="4"/>
		<edge from-layer="1273" from-port="5" to-layer="1274" to-port="0"/>
		<edge from-layer="1239" from-port="5" to-layer="1274" to-port="1"/>
		<edge from-layer="1274" from-port="2" to-layer="1275" to-port="0"/>
		<edge from-layer="106" from-port="0" to-layer="1275" to-port="1"/>
		<edge from-layer="107" from-port="0" to-layer="1275" to-port="2"/>
		<edge from-layer="108" from-port="0" to-layer="1275" to-port="3"/>
		<edge from-layer="109" from-port="0" to-layer="1275" to-port="4"/>
		<edge from-layer="1276" from-port="0" to-layer="1277" to-port="0"/>
		<edge from-layer="1277" from-port="1" to-layer="1279" to-port="0"/>
		<edge from-layer="1278" from-port="0" to-layer="1279" to-port="1"/>
		<edge from-layer="1279" from-port="2" to-layer="1281" to-port="0"/>
		<edge from-layer="1280" from-port="0" to-layer="1281" to-port="1"/>
		<edge from-layer="1275" from-port="5" to-layer="1282" to-port="0"/>
		<edge from-layer="1281" from-port="2" to-layer="1282" to-port="1"/>
		<edge from-layer="1282" from-port="2" to-layer="1284" to-port="0"/>
		<edge from-layer="1283" from-port="0" to-layer="1284" to-port="1"/>
		<edge from-layer="1284" from-port="2" to-layer="1285" to-port="0"/>
		<edge from-layer="1285" from-port="1" to-layer="1286" to-port="0"/>
		<edge from-layer="102" from-port="0" to-layer="1286" to-port="1"/>
		<edge from-layer="103" from-port="0" to-layer="1286" to-port="2"/>
		<edge from-layer="104" from-port="0" to-layer="1286" to-port="3"/>
		<edge from-layer="105" from-port="0" to-layer="1286" to-port="4"/>
		<edge from-layer="1288" from-port="0" to-layer="1289" to-port="0"/>
		<edge from-layer="1289" from-port="1" to-layer="1291" to-port="0"/>
		<edge from-layer="1290" from-port="0" to-layer="1291" to-port="1"/>
		<edge from-layer="1291" from-port="2" to-layer="1293" to-port="0"/>
		<edge from-layer="1292" from-port="0" to-layer="1293" to-port="1"/>
		<edge from-layer="1293" from-port="2" to-layer="1294" to-port="0"/>
		<edge from-layer="1287" from-port="0" to-layer="1294" to-port="1"/>
		<edge from-layer="1286" from-port="5" to-layer="1295" to-port="0"/>
		<edge from-layer="1294" from-port="2" to-layer="1295" to-port="1"/>
		<edge from-layer="1295" from-port="2" to-layer="1297" to-port="0"/>
		<edge from-layer="1296" from-port="0" to-layer="1297" to-port="1"/>
		<edge from-layer="1297" from-port="2" to-layer="1298" to-port="0"/>
		<edge from-layer="1298" from-port="1" to-layer="1299" to-port="0"/>
		<edge from-layer="98" from-port="0" to-layer="1299" to-port="1"/>
		<edge from-layer="99" from-port="0" to-layer="1299" to-port="2"/>
		<edge from-layer="100" from-port="0" to-layer="1299" to-port="3"/>
		<edge from-layer="101" from-port="0" to-layer="1299" to-port="4"/>
		<edge from-layer="1300" from-port="0" to-layer="1301" to-port="0"/>
		<edge from-layer="1301" from-port="1" to-layer="1303" to-port="0"/>
		<edge from-layer="1302" from-port="0" to-layer="1303" to-port="1"/>
		<edge from-layer="1303" from-port="2" to-layer="1305" to-port="0"/>
		<edge from-layer="1304" from-port="0" to-layer="1305" to-port="1"/>
		<edge from-layer="1299" from-port="5" to-layer="1306" to-port="0"/>
		<edge from-layer="1305" from-port="2" to-layer="1306" to-port="1"/>
		<edge from-layer="1306" from-port="2" to-layer="1308" to-port="0"/>
		<edge from-layer="1307" from-port="0" to-layer="1308" to-port="1"/>
		<edge from-layer="1308" from-port="2" to-layer="1309" to-port="0"/>
		<edge from-layer="94" from-port="0" to-layer="1309" to-port="1"/>
		<edge from-layer="95" from-port="0" to-layer="1309" to-port="2"/>
		<edge from-layer="96" from-port="0" to-layer="1309" to-port="3"/>
		<edge from-layer="97" from-port="0" to-layer="1309" to-port="4"/>
		<edge from-layer="1310" from-port="0" to-layer="1311" to-port="0"/>
		<edge from-layer="1311" from-port="1" to-layer="1313" to-port="0"/>
		<edge from-layer="1312" from-port="0" to-layer="1313" to-port="1"/>
		<edge from-layer="1313" from-port="2" to-layer="1315" to-port="0"/>
		<edge from-layer="1314" from-port="0" to-layer="1315" to-port="1"/>
		<edge from-layer="1309" from-port="5" to-layer="1316" to-port="0"/>
		<edge from-layer="1315" from-port="2" to-layer="1316" to-port="1"/>
		<edge from-layer="1316" from-port="2" to-layer="1317" to-port="0"/>
		<edge from-layer="93" from-port="0" to-layer="1317" to-port="1"/>
		<edge from-layer="1317" from-port="2" to-layer="1318" to-port="0"/>
		<edge from-layer="1318" from-port="1" to-layer="1319" to-port="0"/>
		<edge from-layer="89" from-port="0" to-layer="1319" to-port="1"/>
		<edge from-layer="90" from-port="0" to-layer="1319" to-port="2"/>
		<edge from-layer="91" from-port="0" to-layer="1319" to-port="3"/>
		<edge from-layer="92" from-port="0" to-layer="1319" to-port="4"/>
		<edge from-layer="1320" from-port="0" to-layer="1321" to-port="0"/>
		<edge from-layer="1321" from-port="1" to-layer="1323" to-port="0"/>
		<edge from-layer="1322" from-port="0" to-layer="1323" to-port="1"/>
		<edge from-layer="1323" from-port="2" to-layer="1325" to-port="0"/>
		<edge from-layer="1324" from-port="0" to-layer="1325" to-port="1"/>
		<edge from-layer="1319" from-port="5" to-layer="1326" to-port="0"/>
		<edge from-layer="1325" from-port="2" to-layer="1326" to-port="1"/>
		<edge from-layer="1326" from-port="2" to-layer="1328" to-port="0"/>
		<edge from-layer="1327" from-port="0" to-layer="1328" to-port="1"/>
		<edge from-layer="1328" from-port="2" to-layer="1329" to-port="0"/>
		<edge from-layer="1329" from-port="1" to-layer="1330" to-port="0"/>
		<edge from-layer="85" from-port="0" to-layer="1330" to-port="1"/>
		<edge from-layer="86" from-port="0" to-layer="1330" to-port="2"/>
		<edge from-layer="87" from-port="0" to-layer="1330" to-port="3"/>
		<edge from-layer="88" from-port="0" to-layer="1330" to-port="4"/>
		<edge from-layer="1331" from-port="0" to-layer="1332" to-port="0"/>
		<edge from-layer="1332" from-port="1" to-layer="1334" to-port="0"/>
		<edge from-layer="1333" from-port="0" to-layer="1334" to-port="1"/>
		<edge from-layer="1334" from-port="2" to-layer="1336" to-port="0"/>
		<edge from-layer="1335" from-port="0" to-layer="1336" to-port="1"/>
		<edge from-layer="1330" from-port="5" to-layer="1337" to-port="0"/>
		<edge from-layer="1336" from-port="2" to-layer="1337" to-port="1"/>
		<edge from-layer="1337" from-port="2" to-layer="1339" to-port="0"/>
		<edge from-layer="1338" from-port="0" to-layer="1339" to-port="1"/>
		<edge from-layer="1339" from-port="2" to-layer="1340" to-port="0"/>
		<edge from-layer="81" from-port="0" to-layer="1340" to-port="1"/>
		<edge from-layer="82" from-port="0" to-layer="1340" to-port="2"/>
		<edge from-layer="83" from-port="0" to-layer="1340" to-port="3"/>
		<edge from-layer="84" from-port="0" to-layer="1340" to-port="4"/>
		<edge from-layer="1317" from-port="2" to-layer="1345" to-port="0"/>
		<edge from-layer="1341" from-port="0" to-layer="1345" to-port="1"/>
		<edge from-layer="1342" from-port="0" to-layer="1345" to-port="2"/>
		<edge from-layer="1343" from-port="0" to-layer="1345" to-port="3"/>
		<edge from-layer="1344" from-port="0" to-layer="1345" to-port="4"/>
		<edge from-layer="1340" from-port="5" to-layer="1346" to-port="0"/>
		<edge from-layer="1345" from-port="5" to-layer="1346" to-port="1"/>
		<edge from-layer="1346" from-port="2" to-layer="1347" to-port="0"/>
		<edge from-layer="1347" from-port="1" to-layer="1348" to-port="0"/>
		<edge from-layer="80" from-port="0" to-layer="1349" to-port="0"/>
		<edge from-layer="1348" from-port="1" to-layer="1349" to-port="1"/>
		<edge from-layer="1349" from-port="2" to-layer="1351" to-port="0"/>
		<edge from-layer="1350" from-port="0" to-layer="1351" to-port="1"/>
		<edge from-layer="1351" from-port="2" to-layer="1355" to-port="0"/>
		<edge from-layer="1352" from-port="0" to-layer="1355" to-port="1"/>
		<edge from-layer="1353" from-port="0" to-layer="1355" to-port="2"/>
		<edge from-layer="1354" from-port="0" to-layer="1355" to-port="3"/>
		<edge from-layer="1346" from-port="2" to-layer="1361" to-port="0"/>
		<edge from-layer="1357" from-port="0" to-layer="1361" to-port="1"/>
		<edge from-layer="1358" from-port="0" to-layer="1361" to-port="2"/>
		<edge from-layer="1359" from-port="0" to-layer="1361" to-port="3"/>
		<edge from-layer="1360" from-port="0" to-layer="1361" to-port="4"/>
		<edge from-layer="1361" from-port="5" to-layer="1363" to-port="0"/>
		<edge from-layer="1362" from-port="0" to-layer="1363" to-port="1"/>
		<edge from-layer="1355" from-port="4" to-layer="1363" to-port="2"/>
		<edge from-layer="1356" from-port="0" to-layer="1363" to-port="3"/>
		<edge from-layer="1363" from-port="4" to-layer="1364" to-port="0"/>
		<edge from-layer="76" from-port="0" to-layer="1364" to-port="1"/>
		<edge from-layer="77" from-port="0" to-layer="1364" to-port="2"/>
		<edge from-layer="78" from-port="0" to-layer="1364" to-port="3"/>
		<edge from-layer="79" from-port="0" to-layer="1364" to-port="4"/>
		<edge from-layer="1365" from-port="0" to-layer="1366" to-port="0"/>
		<edge from-layer="1366" from-port="1" to-layer="1368" to-port="0"/>
		<edge from-layer="1367" from-port="0" to-layer="1368" to-port="1"/>
		<edge from-layer="1368" from-port="2" to-layer="1370" to-port="0"/>
		<edge from-layer="1369" from-port="0" to-layer="1370" to-port="1"/>
		<edge from-layer="1364" from-port="5" to-layer="1371" to-port="0"/>
		<edge from-layer="1370" from-port="2" to-layer="1371" to-port="1"/>
		<edge from-layer="1371" from-port="2" to-layer="1373" to-port="0"/>
		<edge from-layer="1372" from-port="0" to-layer="1373" to-port="1"/>
		<edge from-layer="1373" from-port="2" to-layer="1374" to-port="0"/>
		<edge from-layer="72" from-port="0" to-layer="1374" to-port="1"/>
		<edge from-layer="73" from-port="0" to-layer="1374" to-port="2"/>
		<edge from-layer="74" from-port="0" to-layer="1374" to-port="3"/>
		<edge from-layer="75" from-port="0" to-layer="1374" to-port="4"/>
		<edge from-layer="1392" from-port="0" to-layer="1393" to-port="0"/>
		<edge from-layer="1393" from-port="1" to-layer="1395" to-port="0"/>
		<edge from-layer="1394" from-port="0" to-layer="1395" to-port="1"/>
		<edge from-layer="1395" from-port="2" to-layer="1397" to-port="0"/>
		<edge from-layer="1396" from-port="0" to-layer="1397" to-port="1"/>
		<edge from-layer="1061" from-port="5" to-layer="1398" to-port="0"/>
		<edge from-layer="1397" from-port="2" to-layer="1398" to-port="1"/>
		<edge from-layer="1398" from-port="2" to-layer="1399" to-port="0"/>
		<edge from-layer="1391" from-port="0" to-layer="1399" to-port="1"/>
		<edge from-layer="1399" from-port="2" to-layer="1400" to-port="0"/>
		<edge from-layer="1400" from-port="1" to-layer="1401" to-port="0"/>
		<edge from-layer="1387" from-port="0" to-layer="1401" to-port="1"/>
		<edge from-layer="1388" from-port="0" to-layer="1401" to-port="2"/>
		<edge from-layer="1389" from-port="0" to-layer="1401" to-port="3"/>
		<edge from-layer="1390" from-port="0" to-layer="1401" to-port="4"/>
		<edge from-layer="1402" from-port="0" to-layer="1403" to-port="0"/>
		<edge from-layer="1403" from-port="1" to-layer="1405" to-port="0"/>
		<edge from-layer="1404" from-port="0" to-layer="1405" to-port="1"/>
		<edge from-layer="1405" from-port="2" to-layer="1407" to-port="0"/>
		<edge from-layer="1406" from-port="0" to-layer="1407" to-port="1"/>
		<edge from-layer="1401" from-port="5" to-layer="1408" to-port="0"/>
		<edge from-layer="1407" from-port="2" to-layer="1408" to-port="1"/>
		<edge from-layer="1408" from-port="2" to-layer="1410" to-port="0"/>
		<edge from-layer="1409" from-port="0" to-layer="1410" to-port="1"/>
		<edge from-layer="1410" from-port="2" to-layer="1411" to-port="0"/>
		<edge from-layer="1411" from-port="1" to-layer="1412" to-port="0"/>
		<edge from-layer="1383" from-port="0" to-layer="1412" to-port="1"/>
		<edge from-layer="1384" from-port="0" to-layer="1412" to-port="2"/>
		<edge from-layer="1385" from-port="0" to-layer="1412" to-port="3"/>
		<edge from-layer="1386" from-port="0" to-layer="1412" to-port="4"/>
		<edge from-layer="1413" from-port="0" to-layer="1414" to-port="0"/>
		<edge from-layer="1414" from-port="1" to-layer="1416" to-port="0"/>
		<edge from-layer="1415" from-port="0" to-layer="1416" to-port="1"/>
		<edge from-layer="1416" from-port="2" to-layer="1418" to-port="0"/>
		<edge from-layer="1417" from-port="0" to-layer="1418" to-port="1"/>
		<edge from-layer="1412" from-port="5" to-layer="1419" to-port="0"/>
		<edge from-layer="1418" from-port="2" to-layer="1419" to-port="1"/>
		<edge from-layer="1419" from-port="2" to-layer="1421" to-port="0"/>
		<edge from-layer="1420" from-port="0" to-layer="1421" to-port="1"/>
		<edge from-layer="1421" from-port="2" to-layer="1422" to-port="0"/>
		<edge from-layer="1379" from-port="0" to-layer="1422" to-port="1"/>
		<edge from-layer="1380" from-port="0" to-layer="1422" to-port="2"/>
		<edge from-layer="1381" from-port="0" to-layer="1422" to-port="3"/>
		<edge from-layer="1382" from-port="0" to-layer="1422" to-port="4"/>
		<edge from-layer="1399" from-port="2" to-layer="1427" to-port="0"/>
		<edge from-layer="1423" from-port="0" to-layer="1427" to-port="1"/>
		<edge from-layer="1424" from-port="0" to-layer="1427" to-port="2"/>
		<edge from-layer="1425" from-port="0" to-layer="1427" to-port="3"/>
		<edge from-layer="1426" from-port="0" to-layer="1427" to-port="4"/>
		<edge from-layer="1422" from-port="5" to-layer="1428" to-port="0"/>
		<edge from-layer="1427" from-port="5" to-layer="1428" to-port="1"/>
		<edge from-layer="1428" from-port="2" to-layer="1429" to-port="0"/>
		<edge from-layer="1375" from-port="0" to-layer="1429" to-port="1"/>
		<edge from-layer="1376" from-port="0" to-layer="1429" to-port="2"/>
		<edge from-layer="1377" from-port="0" to-layer="1429" to-port="3"/>
		<edge from-layer="1378" from-port="0" to-layer="1429" to-port="4"/>
		<edge from-layer="1374" from-port="5" to-layer="1430" to-port="0"/>
		<edge from-layer="1429" from-port="5" to-layer="1430" to-port="1"/>
		<edge from-layer="1430" from-port="2" to-layer="1431" to-port="0"/>
		<edge from-layer="1431" from-port="1" to-layer="1432" to-port="0"/>
		<edge from-layer="68" from-port="0" to-layer="1432" to-port="1"/>
		<edge from-layer="69" from-port="0" to-layer="1432" to-port="2"/>
		<edge from-layer="70" from-port="0" to-layer="1432" to-port="3"/>
		<edge from-layer="71" from-port="0" to-layer="1432" to-port="4"/>
		<edge from-layer="1433" from-port="0" to-layer="1434" to-port="0"/>
		<edge from-layer="1434" from-port="1" to-layer="1436" to-port="0"/>
		<edge from-layer="1435" from-port="0" to-layer="1436" to-port="1"/>
		<edge from-layer="1436" from-port="2" to-layer="1438" to-port="0"/>
		<edge from-layer="1437" from-port="0" to-layer="1438" to-port="1"/>
		<edge from-layer="1432" from-port="5" to-layer="1439" to-port="0"/>
		<edge from-layer="1438" from-port="2" to-layer="1439" to-port="1"/>
		<edge from-layer="1439" from-port="2" to-layer="1441" to-port="0"/>
		<edge from-layer="1440" from-port="0" to-layer="1441" to-port="1"/>
		<edge from-layer="1441" from-port="2" to-layer="1442" to-port="0"/>
		<edge from-layer="1442" from-port="1" to-layer="1443" to-port="0"/>
		<edge from-layer="64" from-port="0" to-layer="1443" to-port="1"/>
		<edge from-layer="65" from-port="0" to-layer="1443" to-port="2"/>
		<edge from-layer="66" from-port="0" to-layer="1443" to-port="3"/>
		<edge from-layer="67" from-port="0" to-layer="1443" to-port="4"/>
		<edge from-layer="1444" from-port="0" to-layer="1445" to-port="0"/>
		<edge from-layer="1445" from-port="1" to-layer="1447" to-port="0"/>
		<edge from-layer="1446" from-port="0" to-layer="1447" to-port="1"/>
		<edge from-layer="1447" from-port="2" to-layer="1449" to-port="0"/>
		<edge from-layer="1448" from-port="0" to-layer="1449" to-port="1"/>
		<edge from-layer="1443" from-port="5" to-layer="1450" to-port="0"/>
		<edge from-layer="1449" from-port="2" to-layer="1450" to-port="1"/>
		<edge from-layer="1450" from-port="2" to-layer="1452" to-port="0"/>
		<edge from-layer="1451" from-port="0" to-layer="1452" to-port="1"/>
		<edge from-layer="1452" from-port="2" to-layer="1453" to-port="0"/>
		<edge from-layer="60" from-port="0" to-layer="1453" to-port="1"/>
		<edge from-layer="61" from-port="0" to-layer="1453" to-port="2"/>
		<edge from-layer="62" from-port="0" to-layer="1453" to-port="3"/>
		<edge from-layer="63" from-port="0" to-layer="1453" to-port="4"/>
		<edge from-layer="1430" from-port="2" to-layer="1458" to-port="0"/>
		<edge from-layer="1454" from-port="0" to-layer="1458" to-port="1"/>
		<edge from-layer="1455" from-port="0" to-layer="1458" to-port="2"/>
		<edge from-layer="1456" from-port="0" to-layer="1458" to-port="3"/>
		<edge from-layer="1457" from-port="0" to-layer="1458" to-port="4"/>
		<edge from-layer="1453" from-port="5" to-layer="1459" to-port="0"/>
		<edge from-layer="1458" from-port="5" to-layer="1459" to-port="1"/>
		<edge from-layer="1459" from-port="2" to-layer="1460" to-port="0"/>
		<edge from-layer="1460" from-port="1" to-layer="1461" to-port="0"/>
		<edge from-layer="59" from-port="0" to-layer="1462" to-port="0"/>
		<edge from-layer="1461" from-port="1" to-layer="1462" to-port="1"/>
		<edge from-layer="1462" from-port="2" to-layer="1464" to-port="0"/>
		<edge from-layer="1463" from-port="0" to-layer="1464" to-port="1"/>
		<edge from-layer="1464" from-port="2" to-layer="1468" to-port="0"/>
		<edge from-layer="1465" from-port="0" to-layer="1468" to-port="1"/>
		<edge from-layer="1466" from-port="0" to-layer="1468" to-port="2"/>
		<edge from-layer="1467" from-port="0" to-layer="1468" to-port="3"/>
		<edge from-layer="1459" from-port="2" to-layer="1474" to-port="0"/>
		<edge from-layer="1470" from-port="0" to-layer="1474" to-port="1"/>
		<edge from-layer="1471" from-port="0" to-layer="1474" to-port="2"/>
		<edge from-layer="1472" from-port="0" to-layer="1474" to-port="3"/>
		<edge from-layer="1473" from-port="0" to-layer="1474" to-port="4"/>
		<edge from-layer="1474" from-port="5" to-layer="1476" to-port="0"/>
		<edge from-layer="1475" from-port="0" to-layer="1476" to-port="1"/>
		<edge from-layer="1468" from-port="4" to-layer="1476" to-port="2"/>
		<edge from-layer="1469" from-port="0" to-layer="1476" to-port="3"/>
		<edge from-layer="1476" from-port="4" to-layer="1477" to-port="0"/>
		<edge from-layer="55" from-port="0" to-layer="1477" to-port="1"/>
		<edge from-layer="56" from-port="0" to-layer="1477" to-port="2"/>
		<edge from-layer="57" from-port="0" to-layer="1477" to-port="3"/>
		<edge from-layer="58" from-port="0" to-layer="1477" to-port="4"/>
		<edge from-layer="1478" from-port="0" to-layer="1479" to-port="0"/>
		<edge from-layer="1479" from-port="1" to-layer="1481" to-port="0"/>
		<edge from-layer="1480" from-port="0" to-layer="1481" to-port="1"/>
		<edge from-layer="1481" from-port="2" to-layer="1483" to-port="0"/>
		<edge from-layer="1482" from-port="0" to-layer="1483" to-port="1"/>
		<edge from-layer="1477" from-port="5" to-layer="1484" to-port="0"/>
		<edge from-layer="1483" from-port="2" to-layer="1484" to-port="1"/>
		<edge from-layer="1484" from-port="2" to-layer="1486" to-port="0"/>
		<edge from-layer="1485" from-port="0" to-layer="1486" to-port="1"/>
		<edge from-layer="1486" from-port="2" to-layer="1487" to-port="0"/>
		<edge from-layer="51" from-port="0" to-layer="1487" to-port="1"/>
		<edge from-layer="52" from-port="0" to-layer="1487" to-port="2"/>
		<edge from-layer="53" from-port="0" to-layer="1487" to-port="3"/>
		<edge from-layer="54" from-port="0" to-layer="1487" to-port="4"/>
		<edge from-layer="1505" from-port="0" to-layer="1506" to-port="0"/>
		<edge from-layer="1506" from-port="1" to-layer="1508" to-port="0"/>
		<edge from-layer="1507" from-port="0" to-layer="1508" to-port="1"/>
		<edge from-layer="1508" from-port="2" to-layer="1510" to-port="0"/>
		<edge from-layer="1509" from-port="0" to-layer="1510" to-port="1"/>
		<edge from-layer="705" from-port="5" to-layer="1511" to-port="0"/>
		<edge from-layer="1510" from-port="2" to-layer="1511" to-port="1"/>
		<edge from-layer="1511" from-port="2" to-layer="1512" to-port="0"/>
		<edge from-layer="1504" from-port="0" to-layer="1512" to-port="1"/>
		<edge from-layer="1512" from-port="2" to-layer="1513" to-port="0"/>
		<edge from-layer="1513" from-port="1" to-layer="1514" to-port="0"/>
		<edge from-layer="1500" from-port="0" to-layer="1514" to-port="1"/>
		<edge from-layer="1501" from-port="0" to-layer="1514" to-port="2"/>
		<edge from-layer="1502" from-port="0" to-layer="1514" to-port="3"/>
		<edge from-layer="1503" from-port="0" to-layer="1514" to-port="4"/>
		<edge from-layer="1515" from-port="0" to-layer="1516" to-port="0"/>
		<edge from-layer="1516" from-port="1" to-layer="1518" to-port="0"/>
		<edge from-layer="1517" from-port="0" to-layer="1518" to-port="1"/>
		<edge from-layer="1518" from-port="2" to-layer="1520" to-port="0"/>
		<edge from-layer="1519" from-port="0" to-layer="1520" to-port="1"/>
		<edge from-layer="1514" from-port="5" to-layer="1521" to-port="0"/>
		<edge from-layer="1520" from-port="2" to-layer="1521" to-port="1"/>
		<edge from-layer="1521" from-port="2" to-layer="1523" to-port="0"/>
		<edge from-layer="1522" from-port="0" to-layer="1523" to-port="1"/>
		<edge from-layer="1523" from-port="2" to-layer="1524" to-port="0"/>
		<edge from-layer="1524" from-port="1" to-layer="1525" to-port="0"/>
		<edge from-layer="1496" from-port="0" to-layer="1525" to-port="1"/>
		<edge from-layer="1497" from-port="0" to-layer="1525" to-port="2"/>
		<edge from-layer="1498" from-port="0" to-layer="1525" to-port="3"/>
		<edge from-layer="1499" from-port="0" to-layer="1525" to-port="4"/>
		<edge from-layer="1526" from-port="0" to-layer="1527" to-port="0"/>
		<edge from-layer="1527" from-port="1" to-layer="1529" to-port="0"/>
		<edge from-layer="1528" from-port="0" to-layer="1529" to-port="1"/>
		<edge from-layer="1529" from-port="2" to-layer="1531" to-port="0"/>
		<edge from-layer="1530" from-port="0" to-layer="1531" to-port="1"/>
		<edge from-layer="1525" from-port="5" to-layer="1532" to-port="0"/>
		<edge from-layer="1531" from-port="2" to-layer="1532" to-port="1"/>
		<edge from-layer="1532" from-port="2" to-layer="1534" to-port="0"/>
		<edge from-layer="1533" from-port="0" to-layer="1534" to-port="1"/>
		<edge from-layer="1534" from-port="2" to-layer="1535" to-port="0"/>
		<edge from-layer="1492" from-port="0" to-layer="1535" to-port="1"/>
		<edge from-layer="1493" from-port="0" to-layer="1535" to-port="2"/>
		<edge from-layer="1494" from-port="0" to-layer="1535" to-port="3"/>
		<edge from-layer="1495" from-port="0" to-layer="1535" to-port="4"/>
		<edge from-layer="1512" from-port="2" to-layer="1540" to-port="0"/>
		<edge from-layer="1536" from-port="0" to-layer="1540" to-port="1"/>
		<edge from-layer="1537" from-port="0" to-layer="1540" to-port="2"/>
		<edge from-layer="1538" from-port="0" to-layer="1540" to-port="3"/>
		<edge from-layer="1539" from-port="0" to-layer="1540" to-port="4"/>
		<edge from-layer="1535" from-port="5" to-layer="1541" to-port="0"/>
		<edge from-layer="1540" from-port="5" to-layer="1541" to-port="1"/>
		<edge from-layer="1541" from-port="2" to-layer="1542" to-port="0"/>
		<edge from-layer="1488" from-port="0" to-layer="1542" to-port="1"/>
		<edge from-layer="1489" from-port="0" to-layer="1542" to-port="2"/>
		<edge from-layer="1490" from-port="0" to-layer="1542" to-port="3"/>
		<edge from-layer="1491" from-port="0" to-layer="1542" to-port="4"/>
		<edge from-layer="1487" from-port="5" to-layer="1543" to-port="0"/>
		<edge from-layer="1542" from-port="5" to-layer="1543" to-port="1"/>
		<edge from-layer="1543" from-port="2" to-layer="1544" to-port="0"/>
		<edge from-layer="1544" from-port="1" to-layer="1545" to-port="0"/>
		<edge from-layer="47" from-port="0" to-layer="1545" to-port="1"/>
		<edge from-layer="48" from-port="0" to-layer="1545" to-port="2"/>
		<edge from-layer="49" from-port="0" to-layer="1545" to-port="3"/>
		<edge from-layer="50" from-port="0" to-layer="1545" to-port="4"/>
		<edge from-layer="1546" from-port="0" to-layer="1547" to-port="0"/>
		<edge from-layer="1547" from-port="1" to-layer="1549" to-port="0"/>
		<edge from-layer="1548" from-port="0" to-layer="1549" to-port="1"/>
		<edge from-layer="1549" from-port="2" to-layer="1551" to-port="0"/>
		<edge from-layer="1550" from-port="0" to-layer="1551" to-port="1"/>
		<edge from-layer="1545" from-port="5" to-layer="1552" to-port="0"/>
		<edge from-layer="1551" from-port="2" to-layer="1552" to-port="1"/>
		<edge from-layer="1552" from-port="2" to-layer="1554" to-port="0"/>
		<edge from-layer="1553" from-port="0" to-layer="1554" to-port="1"/>
		<edge from-layer="1554" from-port="2" to-layer="1555" to-port="0"/>
		<edge from-layer="1555" from-port="1" to-layer="1556" to-port="0"/>
		<edge from-layer="43" from-port="0" to-layer="1556" to-port="1"/>
		<edge from-layer="44" from-port="0" to-layer="1556" to-port="2"/>
		<edge from-layer="45" from-port="0" to-layer="1556" to-port="3"/>
		<edge from-layer="46" from-port="0" to-layer="1556" to-port="4"/>
		<edge from-layer="1557" from-port="0" to-layer="1558" to-port="0"/>
		<edge from-layer="1558" from-port="1" to-layer="1560" to-port="0"/>
		<edge from-layer="1559" from-port="0" to-layer="1560" to-port="1"/>
		<edge from-layer="1560" from-port="2" to-layer="1562" to-port="0"/>
		<edge from-layer="1561" from-port="0" to-layer="1562" to-port="1"/>
		<edge from-layer="1556" from-port="5" to-layer="1563" to-port="0"/>
		<edge from-layer="1562" from-port="2" to-layer="1563" to-port="1"/>
		<edge from-layer="1563" from-port="2" to-layer="1565" to-port="0"/>
		<edge from-layer="1564" from-port="0" to-layer="1565" to-port="1"/>
		<edge from-layer="1565" from-port="2" to-layer="1566" to-port="0"/>
		<edge from-layer="39" from-port="0" to-layer="1566" to-port="1"/>
		<edge from-layer="40" from-port="0" to-layer="1566" to-port="2"/>
		<edge from-layer="41" from-port="0" to-layer="1566" to-port="3"/>
		<edge from-layer="42" from-port="0" to-layer="1566" to-port="4"/>
		<edge from-layer="1543" from-port="2" to-layer="1571" to-port="0"/>
		<edge from-layer="1567" from-port="0" to-layer="1571" to-port="1"/>
		<edge from-layer="1568" from-port="0" to-layer="1571" to-port="2"/>
		<edge from-layer="1569" from-port="0" to-layer="1571" to-port="3"/>
		<edge from-layer="1570" from-port="0" to-layer="1571" to-port="4"/>
		<edge from-layer="1566" from-port="5" to-layer="1572" to-port="0"/>
		<edge from-layer="1571" from-port="5" to-layer="1572" to-port="1"/>
		<edge from-layer="1572" from-port="2" to-layer="1573" to-port="0"/>
		<edge from-layer="1573" from-port="1" to-layer="1574" to-port="0"/>
		<edge from-layer="38" from-port="0" to-layer="1575" to-port="0"/>
		<edge from-layer="1574" from-port="1" to-layer="1575" to-port="1"/>
		<edge from-layer="1575" from-port="2" to-layer="1577" to-port="0"/>
		<edge from-layer="1576" from-port="0" to-layer="1577" to-port="1"/>
		<edge from-layer="1577" from-port="2" to-layer="1581" to-port="0"/>
		<edge from-layer="1578" from-port="0" to-layer="1581" to-port="1"/>
		<edge from-layer="1579" from-port="0" to-layer="1581" to-port="2"/>
		<edge from-layer="1580" from-port="0" to-layer="1581" to-port="3"/>
		<edge from-layer="1572" from-port="2" to-layer="1587" to-port="0"/>
		<edge from-layer="1583" from-port="0" to-layer="1587" to-port="1"/>
		<edge from-layer="1584" from-port="0" to-layer="1587" to-port="2"/>
		<edge from-layer="1585" from-port="0" to-layer="1587" to-port="3"/>
		<edge from-layer="1586" from-port="0" to-layer="1587" to-port="4"/>
		<edge from-layer="1587" from-port="5" to-layer="1589" to-port="0"/>
		<edge from-layer="1588" from-port="0" to-layer="1589" to-port="1"/>
		<edge from-layer="1581" from-port="4" to-layer="1589" to-port="2"/>
		<edge from-layer="1582" from-port="0" to-layer="1589" to-port="3"/>
		<edge from-layer="1589" from-port="4" to-layer="1590" to-port="0"/>
		<edge from-layer="34" from-port="0" to-layer="1590" to-port="1"/>
		<edge from-layer="35" from-port="0" to-layer="1590" to-port="2"/>
		<edge from-layer="36" from-port="0" to-layer="1590" to-port="3"/>
		<edge from-layer="37" from-port="0" to-layer="1590" to-port="4"/>
		<edge from-layer="1591" from-port="0" to-layer="1592" to-port="0"/>
		<edge from-layer="1592" from-port="1" to-layer="1594" to-port="0"/>
		<edge from-layer="1593" from-port="0" to-layer="1594" to-port="1"/>
		<edge from-layer="1594" from-port="2" to-layer="1596" to-port="0"/>
		<edge from-layer="1595" from-port="0" to-layer="1596" to-port="1"/>
		<edge from-layer="1590" from-port="5" to-layer="1597" to-port="0"/>
		<edge from-layer="1596" from-port="2" to-layer="1597" to-port="1"/>
		<edge from-layer="1597" from-port="2" to-layer="1599" to-port="0"/>
		<edge from-layer="1598" from-port="0" to-layer="1599" to-port="1"/>
		<edge from-layer="1599" from-port="2" to-layer="1600" to-port="0"/>
		<edge from-layer="30" from-port="0" to-layer="1600" to-port="1"/>
		<edge from-layer="31" from-port="0" to-layer="1600" to-port="2"/>
		<edge from-layer="32" from-port="0" to-layer="1600" to-port="3"/>
		<edge from-layer="33" from-port="0" to-layer="1600" to-port="4"/>
		<edge from-layer="1618" from-port="0" to-layer="1619" to-port="0"/>
		<edge from-layer="1619" from-port="1" to-layer="1621" to-port="0"/>
		<edge from-layer="1620" from-port="0" to-layer="1621" to-port="1"/>
		<edge from-layer="1621" from-port="2" to-layer="1623" to-port="0"/>
		<edge from-layer="1622" from-port="0" to-layer="1623" to-port="1"/>
		<edge from-layer="599" from-port="5" to-layer="1624" to-port="0"/>
		<edge from-layer="1623" from-port="2" to-layer="1624" to-port="1"/>
		<edge from-layer="1624" from-port="2" to-layer="1625" to-port="0"/>
		<edge from-layer="1617" from-port="0" to-layer="1625" to-port="1"/>
		<edge from-layer="1625" from-port="2" to-layer="1626" to-port="0"/>
		<edge from-layer="1626" from-port="1" to-layer="1627" to-port="0"/>
		<edge from-layer="1613" from-port="0" to-layer="1627" to-port="1"/>
		<edge from-layer="1614" from-port="0" to-layer="1627" to-port="2"/>
		<edge from-layer="1615" from-port="0" to-layer="1627" to-port="3"/>
		<edge from-layer="1616" from-port="0" to-layer="1627" to-port="4"/>
		<edge from-layer="1628" from-port="0" to-layer="1629" to-port="0"/>
		<edge from-layer="1629" from-port="1" to-layer="1631" to-port="0"/>
		<edge from-layer="1630" from-port="0" to-layer="1631" to-port="1"/>
		<edge from-layer="1631" from-port="2" to-layer="1633" to-port="0"/>
		<edge from-layer="1632" from-port="0" to-layer="1633" to-port="1"/>
		<edge from-layer="1627" from-port="5" to-layer="1634" to-port="0"/>
		<edge from-layer="1633" from-port="2" to-layer="1634" to-port="1"/>
		<edge from-layer="1634" from-port="2" to-layer="1636" to-port="0"/>
		<edge from-layer="1635" from-port="0" to-layer="1636" to-port="1"/>
		<edge from-layer="1636" from-port="2" to-layer="1637" to-port="0"/>
		<edge from-layer="1637" from-port="1" to-layer="1638" to-port="0"/>
		<edge from-layer="1609" from-port="0" to-layer="1638" to-port="1"/>
		<edge from-layer="1610" from-port="0" to-layer="1638" to-port="2"/>
		<edge from-layer="1611" from-port="0" to-layer="1638" to-port="3"/>
		<edge from-layer="1612" from-port="0" to-layer="1638" to-port="4"/>
		<edge from-layer="1639" from-port="0" to-layer="1640" to-port="0"/>
		<edge from-layer="1640" from-port="1" to-layer="1642" to-port="0"/>
		<edge from-layer="1641" from-port="0" to-layer="1642" to-port="1"/>
		<edge from-layer="1642" from-port="2" to-layer="1644" to-port="0"/>
		<edge from-layer="1643" from-port="0" to-layer="1644" to-port="1"/>
		<edge from-layer="1638" from-port="5" to-layer="1645" to-port="0"/>
		<edge from-layer="1644" from-port="2" to-layer="1645" to-port="1"/>
		<edge from-layer="1645" from-port="2" to-layer="1647" to-port="0"/>
		<edge from-layer="1646" from-port="0" to-layer="1647" to-port="1"/>
		<edge from-layer="1647" from-port="2" to-layer="1648" to-port="0"/>
		<edge from-layer="1605" from-port="0" to-layer="1648" to-port="1"/>
		<edge from-layer="1606" from-port="0" to-layer="1648" to-port="2"/>
		<edge from-layer="1607" from-port="0" to-layer="1648" to-port="3"/>
		<edge from-layer="1608" from-port="0" to-layer="1648" to-port="4"/>
		<edge from-layer="1625" from-port="2" to-layer="1653" to-port="0"/>
		<edge from-layer="1649" from-port="0" to-layer="1653" to-port="1"/>
		<edge from-layer="1650" from-port="0" to-layer="1653" to-port="2"/>
		<edge from-layer="1651" from-port="0" to-layer="1653" to-port="3"/>
		<edge from-layer="1652" from-port="0" to-layer="1653" to-port="4"/>
		<edge from-layer="1648" from-port="5" to-layer="1654" to-port="0"/>
		<edge from-layer="1653" from-port="5" to-layer="1654" to-port="1"/>
		<edge from-layer="1654" from-port="2" to-layer="1655" to-port="0"/>
		<edge from-layer="1601" from-port="0" to-layer="1655" to-port="1"/>
		<edge from-layer="1602" from-port="0" to-layer="1655" to-port="2"/>
		<edge from-layer="1603" from-port="0" to-layer="1655" to-port="3"/>
		<edge from-layer="1604" from-port="0" to-layer="1655" to-port="4"/>
		<edge from-layer="1600" from-port="5" to-layer="1656" to-port="0"/>
		<edge from-layer="1655" from-port="5" to-layer="1656" to-port="1"/>
		<edge from-layer="1656" from-port="2" to-layer="1657" to-port="0"/>
		<edge from-layer="1657" from-port="1" to-layer="1658" to-port="0"/>
		<edge from-layer="26" from-port="0" to-layer="1658" to-port="1"/>
		<edge from-layer="27" from-port="0" to-layer="1658" to-port="2"/>
		<edge from-layer="28" from-port="0" to-layer="1658" to-port="3"/>
		<edge from-layer="29" from-port="0" to-layer="1658" to-port="4"/>
		<edge from-layer="1659" from-port="0" to-layer="1660" to-port="0"/>
		<edge from-layer="1660" from-port="1" to-layer="1662" to-port="0"/>
		<edge from-layer="1661" from-port="0" to-layer="1662" to-port="1"/>
		<edge from-layer="1662" from-port="2" to-layer="1664" to-port="0"/>
		<edge from-layer="1663" from-port="0" to-layer="1664" to-port="1"/>
		<edge from-layer="1658" from-port="5" to-layer="1665" to-port="0"/>
		<edge from-layer="1664" from-port="2" to-layer="1665" to-port="1"/>
		<edge from-layer="1665" from-port="2" to-layer="1667" to-port="0"/>
		<edge from-layer="1666" from-port="0" to-layer="1667" to-port="1"/>
		<edge from-layer="1667" from-port="2" to-layer="1668" to-port="0"/>
		<edge from-layer="1668" from-port="1" to-layer="1669" to-port="0"/>
		<edge from-layer="22" from-port="0" to-layer="1669" to-port="1"/>
		<edge from-layer="23" from-port="0" to-layer="1669" to-port="2"/>
		<edge from-layer="24" from-port="0" to-layer="1669" to-port="3"/>
		<edge from-layer="25" from-port="0" to-layer="1669" to-port="4"/>
		<edge from-layer="1670" from-port="0" to-layer="1671" to-port="0"/>
		<edge from-layer="1671" from-port="1" to-layer="1673" to-port="0"/>
		<edge from-layer="1672" from-port="0" to-layer="1673" to-port="1"/>
		<edge from-layer="1673" from-port="2" to-layer="1675" to-port="0"/>
		<edge from-layer="1674" from-port="0" to-layer="1675" to-port="1"/>
		<edge from-layer="1669" from-port="5" to-layer="1676" to-port="0"/>
		<edge from-layer="1675" from-port="2" to-layer="1676" to-port="1"/>
		<edge from-layer="1676" from-port="2" to-layer="1678" to-port="0"/>
		<edge from-layer="1677" from-port="0" to-layer="1678" to-port="1"/>
		<edge from-layer="1678" from-port="2" to-layer="1679" to-port="0"/>
		<edge from-layer="18" from-port="0" to-layer="1679" to-port="1"/>
		<edge from-layer="19" from-port="0" to-layer="1679" to-port="2"/>
		<edge from-layer="20" from-port="0" to-layer="1679" to-port="3"/>
		<edge from-layer="21" from-port="0" to-layer="1679" to-port="4"/>
		<edge from-layer="1656" from-port="2" to-layer="1684" to-port="0"/>
		<edge from-layer="1680" from-port="0" to-layer="1684" to-port="1"/>
		<edge from-layer="1681" from-port="0" to-layer="1684" to-port="2"/>
		<edge from-layer="1682" from-port="0" to-layer="1684" to-port="3"/>
		<edge from-layer="1683" from-port="0" to-layer="1684" to-port="4"/>
		<edge from-layer="1679" from-port="5" to-layer="1685" to-port="0"/>
		<edge from-layer="1684" from-port="5" to-layer="1685" to-port="1"/>
		<edge from-layer="1685" from-port="2" to-layer="1686" to-port="0"/>
		<edge from-layer="1686" from-port="1" to-layer="1687" to-port="0"/>
		<edge from-layer="17" from-port="0" to-layer="1688" to-port="0"/>
		<edge from-layer="1687" from-port="1" to-layer="1688" to-port="1"/>
		<edge from-layer="1688" from-port="2" to-layer="1690" to-port="0"/>
		<edge from-layer="1689" from-port="0" to-layer="1690" to-port="1"/>
		<edge from-layer="1690" from-port="2" to-layer="1694" to-port="0"/>
		<edge from-layer="1691" from-port="0" to-layer="1694" to-port="1"/>
		<edge from-layer="1692" from-port="0" to-layer="1694" to-port="2"/>
		<edge from-layer="1693" from-port="0" to-layer="1694" to-port="3"/>
		<edge from-layer="1685" from-port="2" to-layer="1700" to-port="0"/>
		<edge from-layer="1696" from-port="0" to-layer="1700" to-port="1"/>
		<edge from-layer="1697" from-port="0" to-layer="1700" to-port="2"/>
		<edge from-layer="1698" from-port="0" to-layer="1700" to-port="3"/>
		<edge from-layer="1699" from-port="0" to-layer="1700" to-port="4"/>
		<edge from-layer="1700" from-port="5" to-layer="1702" to-port="0"/>
		<edge from-layer="1701" from-port="0" to-layer="1702" to-port="1"/>
		<edge from-layer="1694" from-port="4" to-layer="1702" to-port="2"/>
		<edge from-layer="1695" from-port="0" to-layer="1702" to-port="3"/>
		<edge from-layer="1702" from-port="4" to-layer="1703" to-port="0"/>
		<edge from-layer="13" from-port="0" to-layer="1703" to-port="1"/>
		<edge from-layer="14" from-port="0" to-layer="1703" to-port="2"/>
		<edge from-layer="15" from-port="0" to-layer="1703" to-port="3"/>
		<edge from-layer="16" from-port="0" to-layer="1703" to-port="4"/>
		<edge from-layer="1704" from-port="0" to-layer="1705" to-port="0"/>
		<edge from-layer="1705" from-port="1" to-layer="1707" to-port="0"/>
		<edge from-layer="1706" from-port="0" to-layer="1707" to-port="1"/>
		<edge from-layer="1707" from-port="2" to-layer="1709" to-port="0"/>
		<edge from-layer="1708" from-port="0" to-layer="1709" to-port="1"/>
		<edge from-layer="1703" from-port="5" to-layer="1710" to-port="0"/>
		<edge from-layer="1709" from-port="2" to-layer="1710" to-port="1"/>
		<edge from-layer="1710" from-port="2" to-layer="1712" to-port="0"/>
		<edge from-layer="1711" from-port="0" to-layer="1712" to-port="1"/>
		<edge from-layer="1712" from-port="2" to-layer="1713" to-port="0"/>
		<edge from-layer="9" from-port="0" to-layer="1713" to-port="1"/>
		<edge from-layer="10" from-port="0" to-layer="1713" to-port="2"/>
		<edge from-layer="11" from-port="0" to-layer="1713" to-port="3"/>
		<edge from-layer="12" from-port="0" to-layer="1713" to-port="4"/>
		<edge from-layer="1714" from-port="0" to-layer="1715" to-port="0"/>
		<edge from-layer="1715" from-port="1" to-layer="1717" to-port="0"/>
		<edge from-layer="1716" from-port="0" to-layer="1717" to-port="1"/>
		<edge from-layer="1717" from-port="2" to-layer="1719" to-port="0"/>
		<edge from-layer="1718" from-port="0" to-layer="1719" to-port="1"/>
		<edge from-layer="1713" from-port="5" to-layer="1720" to-port="0"/>
		<edge from-layer="1719" from-port="2" to-layer="1720" to-port="1"/>
		<edge from-layer="1720" from-port="2" to-layer="1722" to-port="0"/>
		<edge from-layer="1721" from-port="0" to-layer="1722" to-port="1"/>
		<edge from-layer="1722" from-port="2" to-layer="1723" to-port="0"/>
		<edge from-layer="1723" from-port="1" to-layer="1724" to-port="0"/>
		<edge from-layer="8" from-port="0" to-layer="1725" to-port="0"/>
		<edge from-layer="1724" from-port="1" to-layer="1725" to-port="1"/>
		<edge from-layer="1725" from-port="2" to-layer="1727" to-port="0"/>
		<edge from-layer="1726" from-port="0" to-layer="1727" to-port="1"/>
		<edge from-layer="1727" from-port="2" to-layer="1731" to-port="0"/>
		<edge from-layer="1728" from-port="0" to-layer="1731" to-port="1"/>
		<edge from-layer="1729" from-port="0" to-layer="1731" to-port="2"/>
		<edge from-layer="1730" from-port="0" to-layer="1731" to-port="3"/>
		<edge from-layer="1722" from-port="2" to-layer="1737" to-port="0"/>
		<edge from-layer="1733" from-port="0" to-layer="1737" to-port="1"/>
		<edge from-layer="1734" from-port="0" to-layer="1737" to-port="2"/>
		<edge from-layer="1735" from-port="0" to-layer="1737" to-port="3"/>
		<edge from-layer="1736" from-port="0" to-layer="1737" to-port="4"/>
		<edge from-layer="1737" from-port="5" to-layer="1739" to-port="0"/>
		<edge from-layer="1738" from-port="0" to-layer="1739" to-port="1"/>
		<edge from-layer="1731" from-port="4" to-layer="1739" to-port="2"/>
		<edge from-layer="1732" from-port="0" to-layer="1739" to-port="3"/>
		<edge from-layer="1739" from-port="4" to-layer="1740" to-port="0"/>
		<edge from-layer="4" from-port="0" to-layer="1740" to-port="1"/>
		<edge from-layer="5" from-port="0" to-layer="1740" to-port="2"/>
		<edge from-layer="6" from-port="0" to-layer="1740" to-port="3"/>
		<edge from-layer="7" from-port="0" to-layer="1740" to-port="4"/>
		<edge from-layer="1741" from-port="0" to-layer="1742" to-port="0"/>
		<edge from-layer="1742" from-port="1" to-layer="1744" to-port="0"/>
		<edge from-layer="1743" from-port="0" to-layer="1744" to-port="1"/>
		<edge from-layer="1744" from-port="2" to-layer="1746" to-port="0"/>
		<edge from-layer="1745" from-port="0" to-layer="1746" to-port="1"/>
		<edge from-layer="1740" from-port="5" to-layer="1747" to-port="0"/>
		<edge from-layer="1746" from-port="2" to-layer="1747" to-port="1"/>
		<edge from-layer="1747" from-port="2" to-layer="1749" to-port="0"/>
		<edge from-layer="1748" from-port="0" to-layer="1749" to-port="1"/>
		<edge from-layer="1749" from-port="2" to-layer="1750" to-port="0"/>
		<edge from-layer="1750" from-port="1" to-layer="1751" to-port="0"/>
		<edge from-layer="0" from-port="0" to-layer="1751" to-port="1"/>
		<edge from-layer="1" from-port="0" to-layer="1751" to-port="2"/>
		<edge from-layer="2" from-port="0" to-layer="1751" to-port="3"/>
		<edge from-layer="3" from-port="0" to-layer="1751" to-port="4"/>
		<edge from-layer="1752" from-port="0" to-layer="1753" to-port="0"/>
		<edge from-layer="1753" from-port="1" to-layer="1755" to-port="0"/>
		<edge from-layer="1754" from-port="0" to-layer="1755" to-port="1"/>
		<edge from-layer="1755" from-port="2" to-layer="1757" to-port="0"/>
		<edge from-layer="1756" from-port="0" to-layer="1757" to-port="1"/>
		<edge from-layer="1751" from-port="5" to-layer="1758" to-port="0"/>
		<edge from-layer="1757" from-port="2" to-layer="1758" to-port="1"/>
		<edge from-layer="1758" from-port="2" to-layer="1760" to-port="0"/>
		<edge from-layer="1759" from-port="0" to-layer="1760" to-port="1"/>
		<edge from-layer="1760" from-port="2" to-layer="1761" to-port="0"/>
		<edge from-layer="1761" from-port="1" to-layer="1762" to-port="0"/>
	</edges>
	<meta_data>
		<MO_version value="2021.4.2-3974-e2a469a3450-releases/2021/4"/>
		<cli_parameters>
			<caffe_parser_path value="DIR"/>
			<data_type value="FP32"/>
			<disable_nhwc_to_nchw value="False"/>
			<disable_omitting_optional value="False"/>
			<disable_resnet_optimization value="False"/>
			<disable_weights_compression value="False"/>
			<enable_concat_optimization value="False"/>
			<enable_flattening_nested_params value="False"/>
			<enable_ssd_gluoncv value="False"/>
			<extensions value="DIR"/>
			<framework value="onnx"/>
			<freeze_placeholder_with_value value="{}"/>
			<generate_deprecated_IR_V7 value="False"/>
			<input value="input1"/>
			<input_model value="DIR/5.onnx"/>
			<input_model_is_text value="False"/>
			<input_shape value="[1,3,224,1312]"/>
			<k value="DIR/CustomLayersMapping.xml"/>
			<keep_shape_ops value="True"/>
			<legacy_ir_generation value="False"/>
			<legacy_mxnet_model value="False"/>
			<log_level value="ERROR"/>
			<mean_scale_values value="{'input1': {'mean': array([123.675, 116.28 , 103.53 ]), 'scale': array([58.395, 57.12 , 57.375])}}"/>
			<mean_values value="input1[123.675,116.28,103.53]"/>
			<model_name value="5_onnx"/>
			<output_dir value="DIR"/>
			<placeholder_data_types value="{}"/>
			<placeholder_shapes value="{'input1': array([   1,    3,  224, 1312])}"/>
			<progress value="True"/>
			<remove_memory value="False"/>
			<remove_output_softmax value="False"/>
			<reverse_input_channels value="True"/>
			<save_params_from_nd value="False"/>
			<scale_values value="input1[58.395,57.12,57.375]"/>
			<silent value="False"/>
			<static_shape value="False"/>
			<stream_output value="True"/>
			<transform value=""/>
			<unset unset_cli_parameters="batch, counts, disable_fusing, disable_gfusing, finegrain_fusing, input_checkpoint, input_meta_graph, input_proto, input_symbol, mean_file, mean_file_offsets, move_to_preprocess, nd_prefix_name, output, pretrained_model_name, saved_model_dir, saved_model_tags, scale, tensorboard_logdir, tensorflow_custom_layer_libraries, tensorflow_custom_operations_config_update, tensorflow_object_detection_api_pipeline_config, tensorflow_use_custom_operations_config, transformations_config"/>
		</cli_parameters>
	</meta_data>
	<quantization_parameters>
		<config>{
		'compression': {
			'target_device': 'CPU',
			'algorithms': [
				{
					'name': 'DefaultQuantization',
					'params': {
						'preset': 'performance',
						'stat_subset_size': 500
					}
				}
			]
		},
		'engine': {
			'type': 'simplified',
			'data_source': 'PATH',
			'device': 'CPU'
		}
	}</config>
		<version value="1.0"/>
		<cli_params value="{'quantize': None, 'preset': None, 'model': None, 'weights': None, 'name': None, 'ac_config': None, 'max_drop': None, 'evaluate': False, 'output_dir': 'PATH', 'direct_dump': True, 'log_level': 'INFO', 'pbar': True, 'stream_output': False, 'keep_uncompressed_weights': False}"/>
	</quantization_parameters>
</net>
