<?xml version="1.0" ?>
<net name="midas384_864_150222_without_squeeze_intel_folded" version="10">
	<layers>
		<layer id="0" name="5425542923295" type="Const" version="opset1">
			<data offset="0" size="4" shape="" element_type="f32"/>
			<output>
				<port id="0" precision="FP32"/>
			</output>
		</layer>
		<layer id="1" name="5426543023823" type="Const" version="opset1">
			<data offset="4" size="4" shape="" element_type="f32"/>
			<output>
				<port id="0" precision="FP32"/>
			</output>
		</layer>
		<layer id="2" name="5427543125125" type="Const" version="opset1">
			<data offset="0" size="4" shape="" element_type="f32"/>
			<output>
				<port id="0" precision="FP32"/>
			</output>
		</layer>
		<layer id="3" name="5428543226187" type="Const" version="opset1">
			<data offset="4" size="4" shape="" element_type="f32"/>
			<output>
				<port id="0" precision="FP32"/>
			</output>
		</layer>
		<layer id="4" name="2900290422929" type="Const" version="opset1">
			<data offset="8" size="4" shape="" element_type="f32"/>
			<output>
				<port id="0" precision="FP32"/>
			</output>
		</layer>
		<layer id="5" name="2901290524282" type="Const" version="opset1">
			<data offset="12" size="4" shape="" element_type="f32"/>
			<output>
				<port id="0" precision="FP32"/>
			</output>
		</layer>
		<layer id="6" name="2902290622923" type="Const" version="opset1">
			<data offset="8" size="4" shape="" element_type="f32"/>
			<output>
				<port id="0" precision="FP32"/>
			</output>
		</layer>
		<layer id="7" name="2903290724339" type="Const" version="opset1">
			<data offset="12" size="4" shape="" element_type="f32"/>
			<output>
				<port id="0" precision="FP32"/>
			</output>
		</layer>
		<layer id="8" name="Resize_290/StridedSlice_scales410421848145322641" type="Const" version="opset1">
			<data offset="16" size="8" shape="2" element_type="f32"/>
			<output>
				<port id="0" precision="FP32">
					<dim>2</dim>
				</port>
			</output>
		</layer>
		<layer id="9" name="Resize_290/axis408822271145422980" type="Const" version="opset1">
			<data offset="24" size="16" shape="2" element_type="i64"/>
			<output>
				<port id="0" precision="I64">
					<dim>2</dim>
				</port>
			</output>
		</layer>
		<layer id="10" name="5465546923079" type="Const" version="opset1">
			<data offset="40" size="4" shape="" element_type="f32"/>
			<output>
				<port id="0" precision="FP32"/>
			</output>
		</layer>
		<layer id="11" name="5466547022905" type="Const" version="opset1">
			<data offset="44" size="4" shape="" element_type="f32"/>
			<output>
				<port id="0" precision="FP32"/>
			</output>
		</layer>
		<layer id="12" name="5467547124384" type="Const" version="opset1">
			<data offset="40" size="4" shape="" element_type="f32"/>
			<output>
				<port id="0" precision="FP32"/>
			</output>
		</layer>
		<layer id="13" name="5468547224657" type="Const" version="opset1">
			<data offset="44" size="4" shape="" element_type="f32"/>
			<output>
				<port id="0" precision="FP32"/>
			</output>
		</layer>
		<layer id="14" name="4555455923046" type="Const" version="opset1">
			<data offset="48" size="4" shape="" element_type="f32"/>
			<output>
				<port id="0" precision="FP32"/>
			</output>
		</layer>
		<layer id="15" name="4556456024102" type="Const" version="opset1">
			<data offset="52" size="4" shape="" element_type="f32"/>
			<output>
				<port id="0" precision="FP32"/>
			</output>
		</layer>
		<layer id="16" name="4557456126001" type="Const" version="opset1">
			<data offset="48" size="4" shape="" element_type="f32"/>
			<output>
				<port id="0" precision="FP32"/>
			</output>
		</layer>
		<layer id="17" name="4558456223361" type="Const" version="opset1">
			<data offset="52" size="4" shape="" element_type="f32"/>
			<output>
				<port id="0" precision="FP32"/>
			</output>
		</layer>
		<layer id="18" name="Resize_287/StridedSlice_scales407021779143425065" type="Const" version="opset1">
			<data offset="16" size="8" shape="2" element_type="f32"/>
			<output>
				<port id="0" precision="FP32">
					<dim>2</dim>
				</port>
			</output>
		</layer>
		<layer id="19" name="Resize_287/axis405422157143523472" type="Const" version="opset1">
			<data offset="24" size="16" shape="2" element_type="i64"/>
			<output>
				<port id="0" precision="I64">
					<dim>2</dim>
				</port>
			</output>
		</layer>
		<layer id="20" name="4955495924123" type="Const" version="opset1">
			<data offset="56" size="4" shape="" element_type="f32"/>
			<output>
				<port id="0" precision="FP32"/>
			</output>
		</layer>
		<layer id="21" name="4956496023187" type="Const" version="opset1">
			<data offset="60" size="4" shape="" element_type="f32"/>
			<output>
				<port id="0" precision="FP32"/>
			</output>
		</layer>
		<layer id="22" name="4957496126151" type="Const" version="opset1">
			<data offset="56" size="4" shape="" element_type="f32"/>
			<output>
				<port id="0" precision="FP32"/>
			</output>
		</layer>
		<layer id="23" name="4958496224942" type="Const" version="opset1">
			<data offset="60" size="4" shape="" element_type="f32"/>
			<output>
				<port id="0" precision="FP32"/>
			</output>
		</layer>
		<layer id="24" name="4695469923703" type="Const" version="opset1">
			<data offset="64" size="4" shape="" element_type="f32"/>
			<output>
				<port id="0" precision="FP32"/>
			</output>
		</layer>
		<layer id="25" name="4696470022692" type="Const" version="opset1">
			<data offset="68" size="4" shape="" element_type="f32"/>
			<output>
				<port id="0" precision="FP32"/>
			</output>
		</layer>
		<layer id="26" name="4697470123370" type="Const" version="opset1">
			<data offset="64" size="4" shape="" element_type="f32"/>
			<output>
				<port id="0" precision="FP32"/>
			</output>
		</layer>
		<layer id="27" name="4698470225164" type="Const" version="opset1">
			<data offset="68" size="4" shape="" element_type="f32"/>
			<output>
				<port id="0" precision="FP32"/>
			</output>
		</layer>
		<layer id="28" name="5405540923085" type="Const" version="opset1">
			<data offset="0" size="4" shape="" element_type="f32"/>
			<output>
				<port id="0" precision="FP32"/>
			</output>
		</layer>
		<layer id="29" name="5406541024021" type="Const" version="opset1">
			<data offset="72" size="4" shape="" element_type="f32"/>
			<output>
				<port id="0" precision="FP32"/>
			</output>
		</layer>
		<layer id="30" name="5407541125869" type="Const" version="opset1">
			<data offset="0" size="4" shape="" element_type="f32"/>
			<output>
				<port id="0" precision="FP32"/>
			</output>
		</layer>
		<layer id="31" name="5408541224900" type="Const" version="opset1">
			<data offset="72" size="4" shape="" element_type="f32"/>
			<output>
				<port id="0" precision="FP32"/>
			</output>
		</layer>
		<layer id="32" name="4705470924351" type="Const" version="opset1">
			<data offset="0" size="4" shape="" element_type="f32"/>
			<output>
				<port id="0" precision="FP32"/>
			</output>
		</layer>
		<layer id="33" name="4706471024186" type="Const" version="opset1">
			<data offset="76" size="4" shape="" element_type="f32"/>
			<output>
				<port id="0" precision="FP32"/>
			</output>
		</layer>
		<layer id="34" name="4707471124180" type="Const" version="opset1">
			<data offset="0" size="4" shape="" element_type="f32"/>
			<output>
				<port id="0" precision="FP32"/>
			</output>
		</layer>
		<layer id="35" name="4708471222821" type="Const" version="opset1">
			<data offset="76" size="4" shape="" element_type="f32"/>
			<output>
				<port id="0" precision="FP32"/>
			</output>
		</layer>
		<layer id="36" name="2340234425434" type="Const" version="opset1">
			<data offset="80" size="4" shape="" element_type="f32"/>
			<output>
				<port id="0" precision="FP32"/>
			</output>
		</layer>
		<layer id="37" name="2341234525752" type="Const" version="opset1">
			<data offset="84" size="4" shape="" element_type="f32"/>
			<output>
				<port id="0" precision="FP32"/>
			</output>
		</layer>
		<layer id="38" name="2342234623484" type="Const" version="opset1">
			<data offset="80" size="4" shape="" element_type="f32"/>
			<output>
				<port id="0" precision="FP32"/>
			</output>
		</layer>
		<layer id="39" name="2343234723301" type="Const" version="opset1">
			<data offset="84" size="4" shape="" element_type="f32"/>
			<output>
				<port id="0" precision="FP32"/>
			</output>
		</layer>
		<layer id="40" name="Resize_273/StridedSlice_scales403621518139424144" type="Const" version="opset1">
			<data offset="16" size="8" shape="2" element_type="f32"/>
			<output>
				<port id="0" precision="FP32">
					<dim>2</dim>
				</port>
			</output>
		</layer>
		<layer id="41" name="Resize_273/axis402021965139525743" type="Const" version="opset1">
			<data offset="24" size="16" shape="2" element_type="i64"/>
			<output>
				<port id="0" precision="I64">
					<dim>2</dim>
				</port>
			</output>
		</layer>
		<layer id="42" name="4405440922635" type="Const" version="opset1">
			<data offset="88" size="4" shape="" element_type="f32"/>
			<output>
				<port id="0" precision="FP32"/>
			</output>
		</layer>
		<layer id="43" name="4406441024264" type="Const" version="opset1">
			<data offset="92" size="4" shape="" element_type="f32"/>
			<output>
				<port id="0" precision="FP32"/>
			</output>
		</layer>
		<layer id="44" name="4407441123349" type="Const" version="opset1">
			<data offset="88" size="4" shape="" element_type="f32"/>
			<output>
				<port id="0" precision="FP32"/>
			</output>
		</layer>
		<layer id="45" name="4408441223943" type="Const" version="opset1">
			<data offset="92" size="4" shape="" element_type="f32"/>
			<output>
				<port id="0" precision="FP32"/>
			</output>
		</layer>
		<layer id="46" name="2740274425965" type="Const" version="opset1">
			<data offset="96" size="4" shape="" element_type="f32"/>
			<output>
				<port id="0" precision="FP32"/>
			</output>
		</layer>
		<layer id="47" name="2741274525653" type="Const" version="opset1">
			<data offset="100" size="4" shape="" element_type="f32"/>
			<output>
				<port id="0" precision="FP32"/>
			</output>
		</layer>
		<layer id="48" name="2742274624024" type="Const" version="opset1">
			<data offset="96" size="4" shape="" element_type="f32"/>
			<output>
				<port id="0" precision="FP32"/>
			</output>
		</layer>
		<layer id="49" name="2743274723847" type="Const" version="opset1">
			<data offset="100" size="4" shape="" element_type="f32"/>
			<output>
				<port id="0" precision="FP32"/>
			</output>
		</layer>
		<layer id="50" name="5535553925935" type="Const" version="opset1">
			<data offset="0" size="4" shape="" element_type="f32"/>
			<output>
				<port id="0" precision="FP32"/>
			</output>
		</layer>
		<layer id="51" name="5536554023952" type="Const" version="opset1">
			<data offset="104" size="4" shape="" element_type="f32"/>
			<output>
				<port id="0" precision="FP32"/>
			</output>
		</layer>
		<layer id="52" name="5537554124303" type="Const" version="opset1">
			<data offset="0" size="4" shape="" element_type="f32"/>
			<output>
				<port id="0" precision="FP32"/>
			</output>
		</layer>
		<layer id="53" name="5538554223013" type="Const" version="opset1">
			<data offset="104" size="4" shape="" element_type="f32"/>
			<output>
				<port id="0" precision="FP32"/>
			</output>
		</layer>
		<layer id="54" name="2750275425680" type="Const" version="opset1">
			<data offset="0" size="4" shape="" element_type="f32"/>
			<output>
				<port id="0" precision="FP32"/>
			</output>
		</layer>
		<layer id="55" name="2751275523280" type="Const" version="opset1">
			<data offset="108" size="4" shape="" element_type="f32"/>
			<output>
				<port id="0" precision="FP32"/>
			</output>
		</layer>
		<layer id="56" name="2752275623502" type="Const" version="opset1">
			<data offset="0" size="4" shape="" element_type="f32"/>
			<output>
				<port id="0" precision="FP32"/>
			</output>
		</layer>
		<layer id="57" name="2753275723760" type="Const" version="opset1">
			<data offset="108" size="4" shape="" element_type="f32"/>
			<output>
				<port id="0" precision="FP32"/>
			</output>
		</layer>
		<layer id="58" name="3030303425413" type="Const" version="opset1">
			<data offset="112" size="4" shape="" element_type="f32"/>
			<output>
				<port id="0" precision="FP32"/>
			</output>
		</layer>
		<layer id="59" name="3031303524000" type="Const" version="opset1">
			<data offset="116" size="4" shape="" element_type="f32"/>
			<output>
				<port id="0" precision="FP32"/>
			</output>
		</layer>
		<layer id="60" name="3032303623592" type="Const" version="opset1">
			<data offset="112" size="4" shape="" element_type="f32"/>
			<output>
				<port id="0" precision="FP32"/>
			</output>
		</layer>
		<layer id="61" name="3033303722860" type="Const" version="opset1">
			<data offset="116" size="4" shape="" element_type="f32"/>
			<output>
				<port id="0" precision="FP32"/>
			</output>
		</layer>
		<layer id="62" name="Resize_259/StridedSlice_scales400221809135426115" type="Const" version="opset1">
			<data offset="16" size="8" shape="2" element_type="f32"/>
			<output>
				<port id="0" precision="FP32">
					<dim>2</dim>
				</port>
			</output>
		</layer>
		<layer id="63" name="Resize_259/axis398622088135522554" type="Const" version="opset1">
			<data offset="24" size="16" shape="2" element_type="i64"/>
			<output>
				<port id="0" precision="I64">
					<dim>2</dim>
				</port>
			</output>
		</layer>
		<layer id="64" name="3550355422989" type="Const" version="opset1">
			<data offset="120" size="4" shape="" element_type="f32"/>
			<output>
				<port id="0" precision="FP32"/>
			</output>
		</layer>
		<layer id="65" name="3551355523646" type="Const" version="opset1">
			<data offset="124" size="4" shape="" element_type="f32"/>
			<output>
				<port id="0" precision="FP32"/>
			</output>
		</layer>
		<layer id="66" name="3552355625155" type="Const" version="opset1">
			<data offset="120" size="4" shape="" element_type="f32"/>
			<output>
				<port id="0" precision="FP32"/>
			</output>
		</layer>
		<layer id="67" name="3553355725950" type="Const" version="opset1">
			<data offset="124" size="4" shape="" element_type="f32"/>
			<output>
				<port id="0" precision="FP32"/>
			</output>
		</layer>
		<layer id="68" name="3050305425884" type="Const" version="opset1">
			<data offset="128" size="4" shape="" element_type="f32"/>
			<output>
				<port id="0" precision="FP32"/>
			</output>
		</layer>
		<layer id="69" name="3051305526175" type="Const" version="opset1">
			<data offset="132" size="4" shape="" element_type="f32"/>
			<output>
				<port id="0" precision="FP32"/>
			</output>
		</layer>
		<layer id="70" name="3052305624816" type="Const" version="opset1">
			<data offset="128" size="4" shape="" element_type="f32"/>
			<output>
				<port id="0" precision="FP32"/>
			</output>
		</layer>
		<layer id="71" name="3053305725806" type="Const" version="opset1">
			<data offset="132" size="4" shape="" element_type="f32"/>
			<output>
				<port id="0" precision="FP32"/>
			</output>
		</layer>
		<layer id="72" name="2880288424003" type="Const" version="opset1">
			<data offset="0" size="4" shape="" element_type="f32"/>
			<output>
				<port id="0" precision="FP32"/>
			</output>
		</layer>
		<layer id="73" name="2881288522680" type="Const" version="opset1">
			<data offset="136" size="4" shape="" element_type="f32"/>
			<output>
				<port id="0" precision="FP32"/>
			</output>
		</layer>
		<layer id="74" name="2882288624156" type="Const" version="opset1">
			<data offset="0" size="4" shape="" element_type="f32"/>
			<output>
				<port id="0" precision="FP32"/>
			</output>
		</layer>
		<layer id="75" name="2883288724372" type="Const" version="opset1">
			<data offset="136" size="4" shape="" element_type="f32"/>
			<output>
				<port id="0" precision="FP32"/>
			</output>
		</layer>
		<layer id="76" name="3060306423628" type="Const" version="opset1">
			<data offset="0" size="4" shape="" element_type="f32"/>
			<output>
				<port id="0" precision="FP32"/>
			</output>
		</layer>
		<layer id="77" name="3061306523697" type="Const" version="opset1">
			<data offset="140" size="4" shape="" element_type="f32"/>
			<output>
				<port id="0" precision="FP32"/>
			</output>
		</layer>
		<layer id="78" name="3062306626040" type="Const" version="opset1">
			<data offset="0" size="4" shape="" element_type="f32"/>
			<output>
				<port id="0" precision="FP32"/>
			</output>
		</layer>
		<layer id="79" name="3063306723784" type="Const" version="opset1">
			<data offset="140" size="4" shape="" element_type="f32"/>
			<output>
				<port id="0" precision="FP32"/>
			</output>
		</layer>
		<layer id="80" name="4675467924639" type="Const" version="opset1">
			<data offset="144" size="4" shape="" element_type="f32"/>
			<output>
				<port id="0" precision="FP32"/>
			</output>
		</layer>
		<layer id="81" name="4676468023967" type="Const" version="opset1">
			<data offset="148" size="4" shape="" element_type="f32"/>
			<output>
				<port id="0" precision="FP32"/>
			</output>
		</layer>
		<layer id="82" name="4677468125560" type="Const" version="opset1">
			<data offset="144" size="4" shape="" element_type="f32"/>
			<output>
				<port id="0" precision="FP32"/>
			</output>
		</layer>
		<layer id="83" name="4678468224330" type="Const" version="opset1">
			<data offset="148" size="4" shape="" element_type="f32"/>
			<output>
				<port id="0" precision="FP32"/>
			</output>
		</layer>
		<layer id="84" name="Resize_245/StridedSlice_scales396821542131423154" type="Const" version="opset1">
			<data offset="16" size="8" shape="2" element_type="f32"/>
			<output>
				<port id="0" precision="FP32">
					<dim>2</dim>
				</port>
			</output>
		</layer>
		<layer id="85" name="Resize_245/axis395221611131524912" type="Const" version="opset1">
			<data offset="24" size="16" shape="2" element_type="i64"/>
			<output>
				<port id="0" precision="I64">
					<dim>2</dim>
				</port>
			</output>
		</layer>
		<layer id="86" name="2960296422497" type="Const" version="opset1">
			<data offset="152" size="4" shape="" element_type="f32"/>
			<output>
				<port id="0" precision="FP32"/>
			</output>
		</layer>
		<layer id="87" name="2961296523871" type="Const" version="opset1">
			<data offset="156" size="4" shape="" element_type="f32"/>
			<output>
				<port id="0" precision="FP32"/>
			</output>
		</layer>
		<layer id="88" name="2962296623118" type="Const" version="opset1">
			<data offset="152" size="4" shape="" element_type="f32"/>
			<output>
				<port id="0" precision="FP32"/>
			</output>
		</layer>
		<layer id="89" name="2963296725749" type="Const" version="opset1">
			<data offset="156" size="4" shape="" element_type="f32"/>
			<output>
				<port id="0" precision="FP32"/>
			</output>
		</layer>
		<layer id="90" name="5005500923541" type="Const" version="opset1">
			<data offset="160" size="4" shape="" element_type="f32"/>
			<output>
				<port id="0" precision="FP32"/>
			</output>
		</layer>
		<layer id="91" name="5006501024777" type="Const" version="opset1">
			<data offset="164" size="4" shape="" element_type="f32"/>
			<output>
				<port id="0" precision="FP32"/>
			</output>
		</layer>
		<layer id="92" name="5007501124585" type="Const" version="opset1">
			<data offset="160" size="4" shape="" element_type="f32"/>
			<output>
				<port id="0" precision="FP32"/>
			</output>
		</layer>
		<layer id="93" name="5008501224729" type="Const" version="opset1">
			<data offset="164" size="4" shape="" element_type="f32"/>
			<output>
				<port id="0" precision="FP32"/>
			</output>
		</layer>
		<layer id="94" name="4535453924444" type="Const" version="opset1">
			<data offset="0" size="4" shape="" element_type="f32"/>
			<output>
				<port id="0" precision="FP32"/>
			</output>
		</layer>
		<layer id="95" name="4536454022557" type="Const" version="opset1">
			<data offset="168" size="4" shape="" element_type="f32"/>
			<output>
				<port id="0" precision="FP32"/>
			</output>
		</layer>
		<layer id="96" name="4537454124546" type="Const" version="opset1">
			<data offset="0" size="4" shape="" element_type="f32"/>
			<output>
				<port id="0" precision="FP32"/>
			</output>
		</layer>
		<layer id="97" name="4538454224486" type="Const" version="opset1">
			<data offset="168" size="4" shape="" element_type="f32"/>
			<output>
				<port id="0" precision="FP32"/>
			</output>
		</layer>
		<layer id="98" name="5015501924879" type="Const" version="opset1">
			<data offset="0" size="4" shape="" element_type="f32"/>
			<output>
				<port id="0" precision="FP32"/>
			</output>
		</layer>
		<layer id="99" name="5016502023364" type="Const" version="opset1">
			<data offset="172" size="4" shape="" element_type="f32"/>
			<output>
				<port id="0" precision="FP32"/>
			</output>
		</layer>
		<layer id="100" name="5017502124939" type="Const" version="opset1">
			<data offset="0" size="4" shape="" element_type="f32"/>
			<output>
				<port id="0" precision="FP32"/>
			</output>
		</layer>
		<layer id="101" name="5018502223667" type="Const" version="opset1">
			<data offset="172" size="4" shape="" element_type="f32"/>
			<output>
				<port id="0" precision="FP32"/>
			</output>
		</layer>
		<layer id="102" name="1749175123376" type="Const" version="opset1">
			<data offset="176" size="1024" shape="1,256,1,1" element_type="f32"/>
			<output>
				<port id="0" precision="FP32">
					<dim>1</dim>
					<dim>256</dim>
					<dim>1</dim>
					<dim>1</dim>
				</port>
			</output>
		</layer>
		<layer id="103" name="2840284423892" type="Const" version="opset1">
			<data offset="0" size="4" shape="" element_type="f32"/>
			<output>
				<port id="0" precision="FP32"/>
			</output>
		</layer>
		<layer id="104" name="2841284523040" type="Const" version="opset1">
			<data offset="1200" size="4" shape="" element_type="f32"/>
			<output>
				<port id="0" precision="FP32"/>
			</output>
		</layer>
		<layer id="105" name="2842284625710" type="Const" version="opset1">
			<data offset="0" size="4" shape="" element_type="f32"/>
			<output>
				<port id="0" precision="FP32"/>
			</output>
		</layer>
		<layer id="106" name="2843284724732" type="Const" version="opset1">
			<data offset="1200" size="4" shape="" element_type="f32"/>
			<output>
				<port id="0" precision="FP32"/>
			</output>
		</layer>
		<layer id="107" name="5595559925257" type="Const" version="opset1">
			<data offset="1204" size="4" shape="" element_type="f32"/>
			<output>
				<port id="0" precision="FP32"/>
			</output>
		</layer>
		<layer id="108" name="5596560022551" type="Const" version="opset1">
			<data offset="1208" size="4" shape="" element_type="f32"/>
			<output>
				<port id="0" precision="FP32"/>
			</output>
		</layer>
		<layer id="109" name="5597560124075" type="Const" version="opset1">
			<data offset="1204" size="4" shape="" element_type="f32"/>
			<output>
				<port id="0" precision="FP32"/>
			</output>
		</layer>
		<layer id="110" name="5598560223607" type="Const" version="opset1">
			<data offset="1208" size="4" shape="" element_type="f32"/>
			<output>
				<port id="0" precision="FP32"/>
			</output>
		</layer>
		<layer id="111" name="4415441925788" type="Const" version="opset1">
			<data offset="0" size="4" shape="" element_type="f32"/>
			<output>
				<port id="0" precision="FP32"/>
			</output>
		</layer>
		<layer id="112" name="4416442026064" type="Const" version="opset1">
			<data offset="1212" size="4" shape="" element_type="f32"/>
			<output>
				<port id="0" precision="FP32"/>
			</output>
		</layer>
		<layer id="113" name="4417442123271" type="Const" version="opset1">
			<data offset="0" size="4" shape="" element_type="f32"/>
			<output>
				<port id="0" precision="FP32"/>
			</output>
		</layer>
		<layer id="114" name="4418442224300" type="Const" version="opset1">
			<data offset="1212" size="4" shape="" element_type="f32"/>
			<output>
				<port id="0" precision="FP32"/>
			</output>
		</layer>
		<layer id="115" name="3720372422485" type="Const" version="opset1">
			<data offset="0" size="4" shape="" element_type="f32"/>
			<output>
				<port id="0" precision="FP32"/>
			</output>
		</layer>
		<layer id="116" name="3721372525056" type="Const" version="opset1">
			<data offset="1216" size="4" shape="" element_type="f32"/>
			<output>
				<port id="0" precision="FP32"/>
			</output>
		</layer>
		<layer id="117" name="3722372624360" type="Const" version="opset1">
			<data offset="0" size="4" shape="" element_type="f32"/>
			<output>
				<port id="0" precision="FP32"/>
			</output>
		</layer>
		<layer id="118" name="3723372725071" type="Const" version="opset1">
			<data offset="1216" size="4" shape="" element_type="f32"/>
			<output>
				<port id="0" precision="FP32"/>
			</output>
		</layer>
		<layer id="119" name="5605560924168" type="Const" version="opset1">
			<data offset="0" size="4" shape="" element_type="f32"/>
			<output>
				<port id="0" precision="FP32"/>
			</output>
		</layer>
		<layer id="120" name="5606561023880" type="Const" version="opset1">
			<data offset="1220" size="4" shape="" element_type="f32"/>
			<output>
				<port id="0" precision="FP32"/>
			</output>
		</layer>
		<layer id="121" name="5607561124753" type="Const" version="opset1">
			<data offset="0" size="4" shape="" element_type="f32"/>
			<output>
				<port id="0" precision="FP32"/>
			</output>
		</layer>
		<layer id="122" name="5608561223094" type="Const" version="opset1">
			<data offset="1220" size="4" shape="" element_type="f32"/>
			<output>
				<port id="0" precision="FP32"/>
			</output>
		</layer>
		<layer id="123" name="3470347426118" type="Const" version="opset1">
			<data offset="1224" size="4" shape="" element_type="f32"/>
			<output>
				<port id="0" precision="FP32"/>
			</output>
		</layer>
		<layer id="124" name="3471347523418" type="Const" version="opset1">
			<data offset="1228" size="4" shape="" element_type="f32"/>
			<output>
				<port id="0" precision="FP32"/>
			</output>
		</layer>
		<layer id="125" name="3472347623181" type="Const" version="opset1">
			<data offset="1224" size="4" shape="" element_type="f32"/>
			<output>
				<port id="0" precision="FP32"/>
			</output>
		</layer>
		<layer id="126" name="3473347723217" type="Const" version="opset1">
			<data offset="1228" size="4" shape="" element_type="f32"/>
			<output>
				<port id="0" precision="FP32"/>
			</output>
		</layer>
		<layer id="127" name="4105410926172" type="Const" version="opset1">
			<data offset="0" size="4" shape="" element_type="f32"/>
			<output>
				<port id="0" precision="FP32"/>
			</output>
		</layer>
		<layer id="128" name="4106411024027" type="Const" version="opset1">
			<data offset="1232" size="4" shape="" element_type="f32"/>
			<output>
				<port id="0" precision="FP32"/>
			</output>
		</layer>
		<layer id="129" name="4107411125431" type="Const" version="opset1">
			<data offset="0" size="4" shape="" element_type="f32"/>
			<output>
				<port id="0" precision="FP32"/>
			</output>
		</layer>
		<layer id="130" name="4108411225554" type="Const" version="opset1">
			<data offset="1232" size="4" shape="" element_type="f32"/>
			<output>
				<port id="0" precision="FP32"/>
			</output>
		</layer>
		<layer id="131" name="4875487923988" type="Const" version="opset1">
			<data offset="0" size="4" shape="" element_type="f32"/>
			<output>
				<port id="0" precision="FP32"/>
			</output>
		</layer>
		<layer id="132" name="4876488023385" type="Const" version="opset1">
			<data offset="1236" size="4" shape="" element_type="f32"/>
			<output>
				<port id="0" precision="FP32"/>
			</output>
		</layer>
		<layer id="133" name="4877488123382" type="Const" version="opset1">
			<data offset="0" size="4" shape="" element_type="f32"/>
			<output>
				<port id="0" precision="FP32"/>
			</output>
		</layer>
		<layer id="134" name="4878488224213" type="Const" version="opset1">
			<data offset="1236" size="4" shape="" element_type="f32"/>
			<output>
				<port id="0" precision="FP32"/>
			</output>
		</layer>
		<layer id="135" name="3480348424438" type="Const" version="opset1">
			<data offset="0" size="4" shape="" element_type="f32"/>
			<output>
				<port id="0" precision="FP32"/>
			</output>
		</layer>
		<layer id="136" name="3481348524336" type="Const" version="opset1">
			<data offset="1240" size="4" shape="" element_type="f32"/>
			<output>
				<port id="0" precision="FP32"/>
			</output>
		</layer>
		<layer id="137" name="3482348625998" type="Const" version="opset1">
			<data offset="0" size="4" shape="" element_type="f32"/>
			<output>
				<port id="0" precision="FP32"/>
			</output>
		</layer>
		<layer id="138" name="3483348725188" type="Const" version="opset1">
			<data offset="1240" size="4" shape="" element_type="f32"/>
			<output>
				<port id="0" precision="FP32"/>
			</output>
		</layer>
		<layer id="139" name="4895489926184" type="Const" version="opset1">
			<data offset="1244" size="4" shape="" element_type="f32"/>
			<output>
				<port id="0" precision="FP32"/>
			</output>
		</layer>
		<layer id="140" name="4896490024696" type="Const" version="opset1">
			<data offset="1248" size="4" shape="" element_type="f32"/>
			<output>
				<port id="0" precision="FP32"/>
			</output>
		</layer>
		<layer id="141" name="4897490126142" type="Const" version="opset1">
			<data offset="1244" size="4" shape="" element_type="f32"/>
			<output>
				<port id="0" precision="FP32"/>
			</output>
		</layer>
		<layer id="142" name="4898490222509" type="Const" version="opset1">
			<data offset="1248" size="4" shape="" element_type="f32"/>
			<output>
				<port id="0" precision="FP32"/>
			</output>
		</layer>
		<layer id="143" name="5065506922872" type="Const" version="opset1">
			<data offset="0" size="4" shape="" element_type="f32"/>
			<output>
				<port id="0" precision="FP32"/>
			</output>
		</layer>
		<layer id="144" name="5066507022590" type="Const" version="opset1">
			<data offset="1252" size="4" shape="" element_type="f32"/>
			<output>
				<port id="0" precision="FP32"/>
			</output>
		</layer>
		<layer id="145" name="5067507123856" type="Const" version="opset1">
			<data offset="0" size="4" shape="" element_type="f32"/>
			<output>
				<port id="0" precision="FP32"/>
			</output>
		</layer>
		<layer id="146" name="5068507222674" type="Const" version="opset1">
			<data offset="1252" size="4" shape="" element_type="f32"/>
			<output>
				<port id="0" precision="FP32"/>
			</output>
		</layer>
		<layer id="147" name="4325432925638" type="Const" version="opset1">
			<data offset="0" size="4" shape="" element_type="f32"/>
			<output>
				<port id="0" precision="FP32"/>
			</output>
		</layer>
		<layer id="148" name="4326433023373" type="Const" version="opset1">
			<data offset="1256" size="4" shape="" element_type="f32"/>
			<output>
				<port id="0" precision="FP32"/>
			</output>
		</layer>
		<layer id="149" name="4327433125563" type="Const" version="opset1">
			<data offset="0" size="4" shape="" element_type="f32"/>
			<output>
				<port id="0" precision="FP32"/>
			</output>
		</layer>
		<layer id="150" name="4328433222719" type="Const" version="opset1">
			<data offset="1256" size="4" shape="" element_type="f32"/>
			<output>
				<port id="0" precision="FP32"/>
			</output>
		</layer>
		<layer id="151" name="5165516922755" type="Const" version="opset1">
			<data offset="0" size="4" shape="" element_type="f32"/>
			<output>
				<port id="0" precision="FP32"/>
			</output>
		</layer>
		<layer id="152" name="5166517023772" type="Const" version="opset1">
			<data offset="1260" size="4" shape="" element_type="f32"/>
			<output>
				<port id="0" precision="FP32"/>
			</output>
		</layer>
		<layer id="153" name="5167517125506" type="Const" version="opset1">
			<data offset="0" size="4" shape="" element_type="f32"/>
			<output>
				<port id="0" precision="FP32"/>
			</output>
		</layer>
		<layer id="154" name="5168517223676" type="Const" version="opset1">
			<data offset="1260" size="4" shape="" element_type="f32"/>
			<output>
				<port id="0" precision="FP32"/>
			</output>
		</layer>
		<layer id="155" name="2660266425581" type="Const" version="opset1">
			<data offset="1264" size="4" shape="" element_type="f32"/>
			<output>
				<port id="0" precision="FP32"/>
			</output>
		</layer>
		<layer id="156" name="2661266523790" type="Const" version="opset1">
			<data offset="1268" size="4" shape="" element_type="f32"/>
			<output>
				<port id="0" precision="FP32"/>
			</output>
		</layer>
		<layer id="157" name="2662266623532" type="Const" version="opset1">
			<data offset="1264" size="4" shape="" element_type="f32"/>
			<output>
				<port id="0" precision="FP32"/>
			</output>
		</layer>
		<layer id="158" name="2663266722569" type="Const" version="opset1">
			<data offset="1268" size="4" shape="" element_type="f32"/>
			<output>
				<port id="0" precision="FP32"/>
			</output>
		</layer>
		<layer id="159" name="4185418926178" type="Const" version="opset1">
			<data offset="0" size="4" shape="" element_type="f32"/>
			<output>
				<port id="0" precision="FP32"/>
			</output>
		</layer>
		<layer id="160" name="4186419025881" type="Const" version="opset1">
			<data offset="1272" size="4" shape="" element_type="f32"/>
			<output>
				<port id="0" precision="FP32"/>
			</output>
		</layer>
		<layer id="161" name="4187419122524" type="Const" version="opset1">
			<data offset="0" size="4" shape="" element_type="f32"/>
			<output>
				<port id="0" precision="FP32"/>
			</output>
		</layer>
		<layer id="162" name="4188419223091" type="Const" version="opset1">
			<data offset="1272" size="4" shape="" element_type="f32"/>
			<output>
				<port id="0" precision="FP32"/>
			</output>
		</layer>
		<layer id="163" name="2400240424735" type="Const" version="opset1">
			<data offset="0" size="4" shape="" element_type="f32"/>
			<output>
				<port id="0" precision="FP32"/>
			</output>
		</layer>
		<layer id="164" name="2401240522695" type="Const" version="opset1">
			<data offset="1276" size="4" shape="" element_type="f32"/>
			<output>
				<port id="0" precision="FP32"/>
			</output>
		</layer>
		<layer id="165" name="2402240622944" type="Const" version="opset1">
			<data offset="0" size="4" shape="" element_type="f32"/>
			<output>
				<port id="0" precision="FP32"/>
			</output>
		</layer>
		<layer id="166" name="2403240725551" type="Const" version="opset1">
			<data offset="1276" size="4" shape="" element_type="f32"/>
			<output>
				<port id="0" precision="FP32"/>
			</output>
		</layer>
		<layer id="167" name="2670267424363" type="Const" version="opset1">
			<data offset="0" size="4" shape="" element_type="f32"/>
			<output>
				<port id="0" precision="FP32"/>
			</output>
		</layer>
		<layer id="168" name="2671267523970" type="Const" version="opset1">
			<data offset="1280" size="4" shape="" element_type="f32"/>
			<output>
				<port id="0" precision="FP32"/>
			</output>
		</layer>
		<layer id="169" name="2672267624750" type="Const" version="opset1">
			<data offset="0" size="4" shape="" element_type="f32"/>
			<output>
				<port id="0" precision="FP32"/>
			</output>
		</layer>
		<layer id="170" name="2673267725107" type="Const" version="opset1">
			<data offset="1280" size="4" shape="" element_type="f32"/>
			<output>
				<port id="0" precision="FP32"/>
			</output>
		</layer>
		<layer id="171" name="5125512925722" type="Const" version="opset1">
			<data offset="1284" size="4" shape="" element_type="f32"/>
			<output>
				<port id="0" precision="FP32"/>
			</output>
		</layer>
		<layer id="172" name="5126513022620" type="Const" version="opset1">
			<data offset="1288" size="4" shape="" element_type="f32"/>
			<output>
				<port id="0" precision="FP32"/>
			</output>
		</layer>
		<layer id="173" name="5127513125314" type="Const" version="opset1">
			<data offset="1284" size="4" shape="" element_type="f32"/>
			<output>
				<port id="0" precision="FP32"/>
			</output>
		</layer>
		<layer id="174" name="5128513222617" type="Const" version="opset1">
			<data offset="1288" size="4" shape="" element_type="f32"/>
			<output>
				<port id="0" precision="FP32"/>
			</output>
		</layer>
		<layer id="175" name="5555555925143" type="Const" version="opset1">
			<data offset="0" size="4" shape="" element_type="f32"/>
			<output>
				<port id="0" precision="FP32"/>
			</output>
		</layer>
		<layer id="176" name="5556556024810" type="Const" version="opset1">
			<data offset="1292" size="4" shape="" element_type="f32"/>
			<output>
				<port id="0" precision="FP32"/>
			</output>
		</layer>
		<layer id="177" name="5557556125077" type="Const" version="opset1">
			<data offset="0" size="4" shape="" element_type="f32"/>
			<output>
				<port id="0" precision="FP32"/>
			</output>
		</layer>
		<layer id="178" name="5558556224798" type="Const" version="opset1">
			<data offset="1292" size="4" shape="" element_type="f32"/>
			<output>
				<port id="0" precision="FP32"/>
			</output>
		</layer>
		<layer id="179" name="4385438923106" type="Const" version="opset1">
			<data offset="0" size="4" shape="" element_type="f32"/>
			<output>
				<port id="0" precision="FP32"/>
			</output>
		</layer>
		<layer id="180" name="4386439024957" type="Const" version="opset1">
			<data offset="1296" size="4" shape="" element_type="f32"/>
			<output>
				<port id="0" precision="FP32"/>
			</output>
		</layer>
		<layer id="181" name="4387439122488" type="Const" version="opset1">
			<data offset="0" size="4" shape="" element_type="f32"/>
			<output>
				<port id="0" precision="FP32"/>
			</output>
		</layer>
		<layer id="182" name="4388439224534" type="Const" version="opset1">
			<data offset="1296" size="4" shape="" element_type="f32"/>
			<output>
				<port id="0" precision="FP32"/>
			</output>
		</layer>
		<layer id="183" name="5135513925032" type="Const" version="opset1">
			<data offset="0" size="4" shape="" element_type="f32"/>
			<output>
				<port id="0" precision="FP32"/>
			</output>
		</layer>
		<layer id="184" name="5136514023619" type="Const" version="opset1">
			<data offset="1300" size="4" shape="" element_type="f32"/>
			<output>
				<port id="0" precision="FP32"/>
			</output>
		</layer>
		<layer id="185" name="5137514123832" type="Const" version="opset1">
			<data offset="0" size="4" shape="" element_type="f32"/>
			<output>
				<port id="0" precision="FP32"/>
			</output>
		</layer>
		<layer id="186" name="5138514223400" type="Const" version="opset1">
			<data offset="1300" size="4" shape="" element_type="f32"/>
			<output>
				<port id="0" precision="FP32"/>
			</output>
		</layer>
		<layer id="187" name="4795479922605" type="Const" version="opset1">
			<data offset="1304" size="4" shape="" element_type="f32"/>
			<output>
				<port id="0" precision="FP32"/>
			</output>
		</layer>
		<layer id="188" name="4796480022974" type="Const" version="opset1">
			<data offset="1308" size="4" shape="" element_type="f32"/>
			<output>
				<port id="0" precision="FP32"/>
			</output>
		</layer>
		<layer id="189" name="4797480125299" type="Const" version="opset1">
			<data offset="1304" size="4" shape="" element_type="f32"/>
			<output>
				<port id="0" precision="FP32"/>
			</output>
		</layer>
		<layer id="190" name="4798480224045" type="Const" version="opset1">
			<data offset="1308" size="4" shape="" element_type="f32"/>
			<output>
				<port id="0" precision="FP32"/>
			</output>
		</layer>
		<layer id="191" name="5495549923214" type="Const" version="opset1">
			<data offset="0" size="4" shape="" element_type="f32"/>
			<output>
				<port id="0" precision="FP32"/>
			</output>
		</layer>
		<layer id="192" name="5496550025902" type="Const" version="opset1">
			<data offset="1312" size="4" shape="" element_type="f32"/>
			<output>
				<port id="0" precision="FP32"/>
			</output>
		</layer>
		<layer id="193" name="5497550125401" type="Const" version="opset1">
			<data offset="0" size="4" shape="" element_type="f32"/>
			<output>
				<port id="0" precision="FP32"/>
			</output>
		</layer>
		<layer id="194" name="5498550224504" type="Const" version="opset1">
			<data offset="1312" size="4" shape="" element_type="f32"/>
			<output>
				<port id="0" precision="FP32"/>
			</output>
		</layer>
		<layer id="195" name="2580258425941" type="Const" version="opset1">
			<data offset="0" size="4" shape="" element_type="f32"/>
			<output>
				<port id="0" precision="FP32"/>
			</output>
		</layer>
		<layer id="196" name="2581258525812" type="Const" version="opset1">
			<data offset="1316" size="4" shape="" element_type="f32"/>
			<output>
				<port id="0" precision="FP32"/>
			</output>
		</layer>
		<layer id="197" name="2582258623640" type="Const" version="opset1">
			<data offset="0" size="4" shape="" element_type="f32"/>
			<output>
				<port id="0" precision="FP32"/>
			</output>
		</layer>
		<layer id="198" name="2583258725863" type="Const" version="opset1">
			<data offset="1316" size="4" shape="" element_type="f32"/>
			<output>
				<port id="0" precision="FP32"/>
			</output>
		</layer>
		<layer id="199" name="4805480922836" type="Const" version="opset1">
			<data offset="0" size="4" shape="" element_type="f32"/>
			<output>
				<port id="0" precision="FP32"/>
			</output>
		</layer>
		<layer id="200" name="4806481024654" type="Const" version="opset1">
			<data offset="1320" size="4" shape="" element_type="f32"/>
			<output>
				<port id="0" precision="FP32"/>
			</output>
		</layer>
		<layer id="201" name="4807481124849" type="Const" version="opset1">
			<data offset="0" size="4" shape="" element_type="f32"/>
			<output>
				<port id="0" precision="FP32"/>
			</output>
		</layer>
		<layer id="202" name="4808481224399" type="Const" version="opset1">
			<data offset="1320" size="4" shape="" element_type="f32"/>
			<output>
				<port id="0" precision="FP32"/>
			</output>
		</layer>
		<layer id="203" name="3920392426157" type="Const" version="opset1">
			<data offset="1324" size="4" shape="" element_type="f32"/>
			<output>
				<port id="0" precision="FP32"/>
			</output>
		</layer>
		<layer id="204" name="3921392524882" type="Const" version="opset1">
			<data offset="1328" size="4" shape="" element_type="f32"/>
			<output>
				<port id="0" precision="FP32"/>
			</output>
		</layer>
		<layer id="205" name="3922392624042" type="Const" version="opset1">
			<data offset="1324" size="4" shape="" element_type="f32"/>
			<output>
				<port id="0" precision="FP32"/>
			</output>
		</layer>
		<layer id="206" name="3923392723247" type="Const" version="opset1">
			<data offset="1328" size="4" shape="" element_type="f32"/>
			<output>
				<port id="0" precision="FP32"/>
			</output>
		</layer>
		<layer id="207" name="3820382424288" type="Const" version="opset1">
			<data offset="0" size="4" shape="" element_type="f32"/>
			<output>
				<port id="0" precision="FP32"/>
			</output>
		</layer>
		<layer id="208" name="3821382524234" type="Const" version="opset1">
			<data offset="1332" size="4" shape="" element_type="f32"/>
			<output>
				<port id="0" precision="FP32"/>
			</output>
		</layer>
		<layer id="209" name="3822382623223" type="Const" version="opset1">
			<data offset="0" size="4" shape="" element_type="f32"/>
			<output>
				<port id="0" precision="FP32"/>
			</output>
		</layer>
		<layer id="210" name="3823382724897" type="Const" version="opset1">
			<data offset="1332" size="4" shape="" element_type="f32"/>
			<output>
				<port id="0" precision="FP32"/>
			</output>
		</layer>
		<layer id="211" name="4835483925128" type="Const" version="opset1">
			<data offset="0" size="4" shape="" element_type="f32"/>
			<output>
				<port id="0" precision="FP32"/>
			</output>
		</layer>
		<layer id="212" name="4836484024666" type="Const" version="opset1">
			<data offset="1336" size="4" shape="" element_type="f32"/>
			<output>
				<port id="0" precision="FP32"/>
			</output>
		</layer>
		<layer id="213" name="4837484124861" type="Const" version="opset1">
			<data offset="0" size="4" shape="" element_type="f32"/>
			<output>
				<port id="0" precision="FP32"/>
			</output>
		</layer>
		<layer id="214" name="4838484222428" type="Const" version="opset1">
			<data offset="1336" size="4" shape="" element_type="f32"/>
			<output>
				<port id="0" precision="FP32"/>
			</output>
		</layer>
		<layer id="215" name="3930393422479" type="Const" version="opset1">
			<data offset="0" size="4" shape="" element_type="f32"/>
			<output>
				<port id="0" precision="FP32"/>
			</output>
		</layer>
		<layer id="216" name="3931393523961" type="Const" version="opset1">
			<data offset="1340" size="4" shape="" element_type="f32"/>
			<output>
				<port id="0" precision="FP32"/>
			</output>
		</layer>
		<layer id="217" name="3932393623769" type="Const" version="opset1">
			<data offset="0" size="4" shape="" element_type="f32"/>
			<output>
				<port id="0" precision="FP32"/>
			</output>
		</layer>
		<layer id="218" name="3933393722491" type="Const" version="opset1">
			<data offset="1340" size="4" shape="" element_type="f32"/>
			<output>
				<port id="0" precision="FP32"/>
			</output>
		</layer>
		<layer id="219" name="2760276422941" type="Const" version="opset1">
			<data offset="1344" size="4" shape="" element_type="f32"/>
			<output>
				<port id="0" precision="FP32"/>
			</output>
		</layer>
		<layer id="220" name="2761276524837" type="Const" version="opset1">
			<data offset="1348" size="4" shape="" element_type="f32"/>
			<output>
				<port id="0" precision="FP32"/>
			</output>
		</layer>
		<layer id="221" name="2762276625968" type="Const" version="opset1">
			<data offset="1344" size="4" shape="" element_type="f32"/>
			<output>
				<port id="0" precision="FP32"/>
			</output>
		</layer>
		<layer id="222" name="2763276724153" type="Const" version="opset1">
			<data offset="1348" size="4" shape="" element_type="f32"/>
			<output>
				<port id="0" precision="FP32"/>
			</output>
		</layer>
		<layer id="223" name="3190319425230" type="Const" version="opset1">
			<data offset="0" size="4" shape="" element_type="f32"/>
			<output>
				<port id="0" precision="FP32"/>
			</output>
		</layer>
		<layer id="224" name="3191319526166" type="Const" version="opset1">
			<data offset="1352" size="4" shape="" element_type="f32"/>
			<output>
				<port id="0" precision="FP32"/>
			</output>
		</layer>
		<layer id="225" name="3192319624390" type="Const" version="opset1">
			<data offset="0" size="4" shape="" element_type="f32"/>
			<output>
				<port id="0" precision="FP32"/>
			</output>
		</layer>
		<layer id="226" name="3193319725044" type="Const" version="opset1">
			<data offset="1352" size="4" shape="" element_type="f32"/>
			<output>
				<port id="0" precision="FP32"/>
			</output>
		</layer>
		<layer id="227" name="5515551924885" type="Const" version="opset1">
			<data offset="0" size="4" shape="" element_type="f32"/>
			<output>
				<port id="0" precision="FP32"/>
			</output>
		</layer>
		<layer id="228" name="5516552024177" type="Const" version="opset1">
			<data offset="1356" size="4" shape="" element_type="f32"/>
			<output>
				<port id="0" precision="FP32"/>
			</output>
		</layer>
		<layer id="229" name="5517552125233" type="Const" version="opset1">
			<data offset="0" size="4" shape="" element_type="f32"/>
			<output>
				<port id="0" precision="FP32"/>
			</output>
		</layer>
		<layer id="230" name="5518552225212" type="Const" version="opset1">
			<data offset="1356" size="4" shape="" element_type="f32"/>
			<output>
				<port id="0" precision="FP32"/>
			</output>
		</layer>
		<layer id="231" name="2770277423346" type="Const" version="opset1">
			<data offset="0" size="4" shape="" element_type="f32"/>
			<output>
				<port id="0" precision="FP32"/>
			</output>
		</layer>
		<layer id="232" name="2771277524423" type="Const" version="opset1">
			<data offset="1360" size="4" shape="" element_type="f32"/>
			<output>
				<port id="0" precision="FP32"/>
			</output>
		</layer>
		<layer id="233" name="2772277623262" type="Const" version="opset1">
			<data offset="0" size="4" shape="" element_type="f32"/>
			<output>
				<port id="0" precision="FP32"/>
			</output>
		</layer>
		<layer id="234" name="2773277723685" type="Const" version="opset1">
			<data offset="1360" size="4" shape="" element_type="f32"/>
			<output>
				<port id="0" precision="FP32"/>
			</output>
		</layer>
		<layer id="235" name="4165416924432" type="Const" version="opset1">
			<data offset="1364" size="4" shape="" element_type="f32"/>
			<output>
				<port id="0" precision="FP32"/>
			</output>
		</layer>
		<layer id="236" name="4166417023088" type="Const" version="opset1">
			<data offset="1368" size="4" shape="" element_type="f32"/>
			<output>
				<port id="0" precision="FP32"/>
			</output>
		</layer>
		<layer id="237" name="4167417122518" type="Const" version="opset1">
			<data offset="1364" size="4" shape="" element_type="f32"/>
			<output>
				<port id="0" precision="FP32"/>
			</output>
		</layer>
		<layer id="238" name="4168417223358" type="Const" version="opset1">
			<data offset="1368" size="4" shape="" element_type="f32"/>
			<output>
				<port id="0" precision="FP32"/>
			</output>
		</layer>
		<layer id="239" name="4495449923199" type="Const" version="opset1">
			<data offset="0" size="4" shape="" element_type="f32"/>
			<output>
				<port id="0" precision="FP32"/>
			</output>
		</layer>
		<layer id="240" name="4496450022563" type="Const" version="opset1">
			<data offset="1372" size="4" shape="" element_type="f32"/>
			<output>
				<port id="0" precision="FP32"/>
			</output>
		</layer>
		<layer id="241" name="4497450122746" type="Const" version="opset1">
			<data offset="0" size="4" shape="" element_type="f32"/>
			<output>
				<port id="0" precision="FP32"/>
			</output>
		</layer>
		<layer id="242" name="4498450223526" type="Const" version="opset1">
			<data offset="1372" size="4" shape="" element_type="f32"/>
			<output>
				<port id="0" precision="FP32"/>
			</output>
		</layer>
		<layer id="243" name="3880388422578" type="Const" version="opset1">
			<data offset="0" size="4" shape="" element_type="f32"/>
			<output>
				<port id="0" precision="FP32"/>
			</output>
		</layer>
		<layer id="244" name="3881388524687" type="Const" version="opset1">
			<data offset="1376" size="4" shape="" element_type="f32"/>
			<output>
				<port id="0" precision="FP32"/>
			</output>
		</layer>
		<layer id="245" name="3882388626022" type="Const" version="opset1">
			<data offset="0" size="4" shape="" element_type="f32"/>
			<output>
				<port id="0" precision="FP32"/>
			</output>
		</layer>
		<layer id="246" name="3883388724771" type="Const" version="opset1">
			<data offset="1376" size="4" shape="" element_type="f32"/>
			<output>
				<port id="0" precision="FP32"/>
			</output>
		</layer>
		<layer id="247" name="4175417922446" type="Const" version="opset1">
			<data offset="0" size="4" shape="" element_type="f32"/>
			<output>
				<port id="0" precision="FP32"/>
			</output>
		</layer>
		<layer id="248" name="4176418025008" type="Const" version="opset1">
			<data offset="1380" size="4" shape="" element_type="f32"/>
			<output>
				<port id="0" precision="FP32"/>
			</output>
		</layer>
		<layer id="249" name="4177418124429" type="Const" version="opset1">
			<data offset="0" size="4" shape="" element_type="f32"/>
			<output>
				<port id="0" precision="FP32"/>
			</output>
		</layer>
		<layer id="250" name="4178418225929" type="Const" version="opset1">
			<data offset="1380" size="4" shape="" element_type="f32"/>
			<output>
				<port id="0" precision="FP32"/>
			</output>
		</layer>
		<layer id="251" name="3700370426133" type="Const" version="opset1">
			<data offset="1384" size="4" shape="" element_type="f32"/>
			<output>
				<port id="0" precision="FP32"/>
			</output>
		</layer>
		<layer id="252" name="3701370524834" type="Const" version="opset1">
			<data offset="1388" size="4" shape="" element_type="f32"/>
			<output>
				<port id="0" precision="FP32"/>
			</output>
		</layer>
		<layer id="253" name="3702370626193" type="Const" version="opset1">
			<data offset="1384" size="4" shape="" element_type="f32"/>
			<output>
				<port id="0" precision="FP32"/>
			</output>
		</layer>
		<layer id="254" name="3703370724801" type="Const" version="opset1">
			<data offset="1388" size="4" shape="" element_type="f32"/>
			<output>
				<port id="0" precision="FP32"/>
			</output>
		</layer>
		<layer id="255" name="4365436925575" type="Const" version="opset1">
			<data offset="0" size="4" shape="" element_type="f32"/>
			<output>
				<port id="0" precision="FP32"/>
			</output>
		</layer>
		<layer id="256" name="4366437025755" type="Const" version="opset1">
			<data offset="1392" size="4" shape="" element_type="f32"/>
			<output>
				<port id="0" precision="FP32"/>
			</output>
		</layer>
		<layer id="257" name="4367437124474" type="Const" version="opset1">
			<data offset="0" size="4" shape="" element_type="f32"/>
			<output>
				<port id="0" precision="FP32"/>
			</output>
		</layer>
		<layer id="258" name="4368437223184" type="Const" version="opset1">
			<data offset="1392" size="4" shape="" element_type="f32"/>
			<output>
				<port id="0" precision="FP32"/>
			</output>
		</layer>
		<layer id="259" name="5105510924441" type="Const" version="opset1">
			<data offset="0" size="4" shape="" element_type="f32"/>
			<output>
				<port id="0" precision="FP32"/>
			</output>
		</layer>
		<layer id="260" name="5106511022701" type="Const" version="opset1">
			<data offset="1396" size="4" shape="" element_type="f32"/>
			<output>
				<port id="0" precision="FP32"/>
			</output>
		</layer>
		<layer id="261" name="5107511124603" type="Const" version="opset1">
			<data offset="0" size="4" shape="" element_type="f32"/>
			<output>
				<port id="0" precision="FP32"/>
			</output>
		</layer>
		<layer id="262" name="5108511224009" type="Const" version="opset1">
			<data offset="1396" size="4" shape="" element_type="f32"/>
			<output>
				<port id="0" precision="FP32"/>
			</output>
		</layer>
		<layer id="263" name="3710371423019" type="Const" version="opset1">
			<data offset="0" size="4" shape="" element_type="f32"/>
			<output>
				<port id="0" precision="FP32"/>
			</output>
		</layer>
		<layer id="264" name="3711371524411" type="Const" version="opset1">
			<data offset="1400" size="4" shape="" element_type="f32"/>
			<output>
				<port id="0" precision="FP32"/>
			</output>
		</layer>
		<layer id="265" name="3712371624999" type="Const" version="opset1">
			<data offset="0" size="4" shape="" element_type="f32"/>
			<output>
				<port id="0" precision="FP32"/>
			</output>
		</layer>
		<layer id="266" name="3713371722773" type="Const" version="opset1">
			<data offset="1400" size="4" shape="" element_type="f32"/>
			<output>
				<port id="0" precision="FP32"/>
			</output>
		</layer>
		<layer id="267" name="3250325423910" type="Const" version="opset1">
			<data offset="1404" size="4" shape="" element_type="f32"/>
			<output>
				<port id="0" precision="FP32"/>
			</output>
		</layer>
		<layer id="268" name="3251325525368" type="Const" version="opset1">
			<data offset="1408" size="4" shape="" element_type="f32"/>
			<output>
				<port id="0" precision="FP32"/>
			</output>
		</layer>
		<layer id="269" name="3252325626190" type="Const" version="opset1">
			<data offset="1404" size="4" shape="" element_type="f32"/>
			<output>
				<port id="0" precision="FP32"/>
			</output>
		</layer>
		<layer id="270" name="3253325722713" type="Const" version="opset1">
			<data offset="1408" size="4" shape="" element_type="f32"/>
			<output>
				<port id="0" precision="FP32"/>
			</output>
		</layer>
		<layer id="271" name="4205420924870" type="Const" version="opset1">
			<data offset="0" size="4" shape="" element_type="f32"/>
			<output>
				<port id="0" precision="FP32"/>
			</output>
		</layer>
		<layer id="272" name="4206421025887" type="Const" version="opset1">
			<data offset="1412" size="4" shape="" element_type="f32"/>
			<output>
				<port id="0" precision="FP32"/>
			</output>
		</layer>
		<layer id="273" name="4207421124342" type="Const" version="opset1">
			<data offset="0" size="4" shape="" element_type="f32"/>
			<output>
				<port id="0" precision="FP32"/>
			</output>
		</layer>
		<layer id="274" name="4208421223547" type="Const" version="opset1">
			<data offset="1412" size="4" shape="" element_type="f32"/>
			<output>
				<port id="0" precision="FP32"/>
			</output>
		</layer>
		<layer id="275" name="2640264425800" type="Const" version="opset1">
			<data offset="0" size="4" shape="" element_type="f32"/>
			<output>
				<port id="0" precision="FP32"/>
			</output>
		</layer>
		<layer id="276" name="2641264522845" type="Const" version="opset1">
			<data offset="1416" size="4" shape="" element_type="f32"/>
			<output>
				<port id="0" precision="FP32"/>
			</output>
		</layer>
		<layer id="277" name="2642264623652" type="Const" version="opset1">
			<data offset="0" size="4" shape="" element_type="f32"/>
			<output>
				<port id="0" precision="FP32"/>
			</output>
		</layer>
		<layer id="278" name="2643264725134" type="Const" version="opset1">
			<data offset="1416" size="4" shape="" element_type="f32"/>
			<output>
				<port id="0" precision="FP32"/>
			</output>
		</layer>
		<layer id="279" name="3260326423850" type="Const" version="opset1">
			<data offset="0" size="4" shape="" element_type="f32"/>
			<output>
				<port id="0" precision="FP32"/>
			</output>
		</layer>
		<layer id="280" name="3261326525191" type="Const" version="opset1">
			<data offset="1420" size="4" shape="" element_type="f32"/>
			<output>
				<port id="0" precision="FP32"/>
			</output>
		</layer>
		<layer id="281" name="3262326624366" type="Const" version="opset1">
			<data offset="0" size="4" shape="" element_type="f32"/>
			<output>
				<port id="0" precision="FP32"/>
			</output>
		</layer>
		<layer id="282" name="3263326725791" type="Const" version="opset1">
			<data offset="1420" size="4" shape="" element_type="f32"/>
			<output>
				<port id="0" precision="FP32"/>
			</output>
		</layer>
		<layer id="283" name="4935493923406" type="Const" version="opset1">
			<data offset="1424" size="4" shape="" element_type="f32"/>
			<output>
				<port id="0" precision="FP32"/>
			</output>
		</layer>
		<layer id="284" name="4936494025701" type="Const" version="opset1">
			<data offset="1428" size="4" shape="" element_type="f32"/>
			<output>
				<port id="0" precision="FP32"/>
			</output>
		</layer>
		<layer id="285" name="4937494122494" type="Const" version="opset1">
			<data offset="1424" size="4" shape="" element_type="f32"/>
			<output>
				<port id="0" precision="FP32"/>
			</output>
		</layer>
		<layer id="286" name="4938494225353" type="Const" version="opset1">
			<data offset="1428" size="4" shape="" element_type="f32"/>
			<output>
				<port id="0" precision="FP32"/>
			</output>
		</layer>
		<layer id="287" name="3450345423490" type="Const" version="opset1">
			<data offset="0" size="4" shape="" element_type="f32"/>
			<output>
				<port id="0" precision="FP32"/>
			</output>
		</layer>
		<layer id="288" name="3451345524648" type="Const" version="opset1">
			<data offset="1432" size="4" shape="" element_type="f32"/>
			<output>
				<port id="0" precision="FP32"/>
			</output>
		</layer>
		<layer id="289" name="3452345626088" type="Const" version="opset1">
			<data offset="0" size="4" shape="" element_type="f32"/>
			<output>
				<port id="0" precision="FP32"/>
			</output>
		</layer>
		<layer id="290" name="3453345723529" type="Const" version="opset1">
			<data offset="1432" size="4" shape="" element_type="f32"/>
			<output>
				<port id="0" precision="FP32"/>
			</output>
		</layer>
		<layer id="291" name="2440244422887" type="Const" version="opset1">
			<data offset="0" size="4" shape="" element_type="f32"/>
			<output>
				<port id="0" precision="FP32"/>
			</output>
		</layer>
		<layer id="292" name="2441244523820" type="Const" version="opset1">
			<data offset="1436" size="4" shape="" element_type="f32"/>
			<output>
				<port id="0" precision="FP32"/>
			</output>
		</layer>
		<layer id="293" name="2442244623397" type="Const" version="opset1">
			<data offset="0" size="4" shape="" element_type="f32"/>
			<output>
				<port id="0" precision="FP32"/>
			</output>
		</layer>
		<layer id="294" name="2443244722734" type="Const" version="opset1">
			<data offset="1436" size="4" shape="" element_type="f32"/>
			<output>
				<port id="0" precision="FP32"/>
			</output>
		</layer>
		<layer id="295" name="4945494925113" type="Const" version="opset1">
			<data offset="0" size="4" shape="" element_type="f32"/>
			<output>
				<port id="0" precision="FP32"/>
			</output>
		</layer>
		<layer id="296" name="4946495024015" type="Const" version="opset1">
			<data offset="1440" size="4" shape="" element_type="f32"/>
			<output>
				<port id="0" precision="FP32"/>
			</output>
		</layer>
		<layer id="297" name="4947495124843" type="Const" version="opset1">
			<data offset="0" size="4" shape="" element_type="f32"/>
			<output>
				<port id="0" precision="FP32"/>
			</output>
		</layer>
		<layer id="298" name="4948495225596" type="Const" version="opset1">
			<data offset="1440" size="4" shape="" element_type="f32"/>
			<output>
				<port id="0" precision="FP32"/>
			</output>
		</layer>
		<layer id="299" name="3780378424762" type="Const" version="opset1">
			<data offset="1444" size="4" shape="" element_type="f32"/>
			<output>
				<port id="0" precision="FP32"/>
			</output>
		</layer>
		<layer id="300" name="3781378525509" type="Const" version="opset1">
			<data offset="1448" size="4" shape="" element_type="f32"/>
			<output>
				<port id="0" precision="FP32"/>
			</output>
		</layer>
		<layer id="301" name="3782378623517" type="Const" version="opset1">
			<data offset="1444" size="4" shape="" element_type="f32"/>
			<output>
				<port id="0" precision="FP32"/>
			</output>
		</layer>
		<layer id="302" name="3783378723136" type="Const" version="opset1">
			<data offset="1448" size="4" shape="" element_type="f32"/>
			<output>
				<port id="0" precision="FP32"/>
			</output>
		</layer>
		<layer id="303" name="4915491922869" type="Const" version="opset1">
			<data offset="0" size="4" shape="" element_type="f32"/>
			<output>
				<port id="0" precision="FP32"/>
			</output>
		</layer>
		<layer id="304" name="4916492024567" type="Const" version="opset1">
			<data offset="1452" size="4" shape="" element_type="f32"/>
			<output>
				<port id="0" precision="FP32"/>
			</output>
		</layer>
		<layer id="305" name="4917492124825" type="Const" version="opset1">
			<data offset="0" size="4" shape="" element_type="f32"/>
			<output>
				<port id="0" precision="FP32"/>
			</output>
		</layer>
		<layer id="306" name="4918492222461" type="Const" version="opset1">
			<data offset="1452" size="4" shape="" element_type="f32"/>
			<output>
				<port id="0" precision="FP32"/>
			</output>
		</layer>
		<layer id="307" name="2860286423688" type="Const" version="opset1">
			<data offset="0" size="4" shape="" element_type="f32"/>
			<output>
				<port id="0" precision="FP32"/>
			</output>
		</layer>
		<layer id="308" name="2861286525308" type="Const" version="opset1">
			<data offset="1456" size="4" shape="" element_type="f32"/>
			<output>
				<port id="0" precision="FP32"/>
			</output>
		</layer>
		<layer id="309" name="2862286624966" type="Const" version="opset1">
			<data offset="0" size="4" shape="" element_type="f32"/>
			<output>
				<port id="0" precision="FP32"/>
			</output>
		</layer>
		<layer id="310" name="2863286723715" type="Const" version="opset1">
			<data offset="1456" size="4" shape="" element_type="f32"/>
			<output>
				<port id="0" precision="FP32"/>
			</output>
		</layer>
		<layer id="311" name="3790379423103" type="Const" version="opset1">
			<data offset="0" size="4" shape="" element_type="f32"/>
			<output>
				<port id="0" precision="FP32"/>
			</output>
		</layer>
		<layer id="312" name="3791379523673" type="Const" version="opset1">
			<data offset="1460" size="4" shape="" element_type="f32"/>
			<output>
				<port id="0" precision="FP32"/>
			</output>
		</layer>
		<layer id="313" name="3792379625716" type="Const" version="opset1">
			<data offset="0" size="4" shape="" element_type="f32"/>
			<output>
				<port id="0" precision="FP32"/>
			</output>
		</layer>
		<layer id="314" name="3793379724723" type="Const" version="opset1">
			<data offset="1460" size="4" shape="" element_type="f32"/>
			<output>
				<port id="0" precision="FP32"/>
			</output>
		</layer>
		<layer id="315" name="4245424923334" type="Const" version="opset1">
			<data offset="1464" size="4" shape="" element_type="f32"/>
			<output>
				<port id="0" precision="FP32"/>
			</output>
		</layer>
		<layer id="316" name="4246425025590" type="Const" version="opset1">
			<data offset="1468" size="4" shape="" element_type="f32"/>
			<output>
				<port id="0" precision="FP32"/>
			</output>
		</layer>
		<layer id="317" name="4247425122776" type="Const" version="opset1">
			<data offset="1464" size="4" shape="" element_type="f32"/>
			<output>
				<port id="0" precision="FP32"/>
			</output>
		</layer>
		<layer id="318" name="4248425225878" type="Const" version="opset1">
			<data offset="1468" size="4" shape="" element_type="f32"/>
			<output>
				<port id="0" precision="FP32"/>
			</output>
		</layer>
		<layer id="319" name="5325532923616" type="Const" version="opset1">
			<data offset="0" size="4" shape="" element_type="f32"/>
			<output>
				<port id="0" precision="FP32"/>
			</output>
		</layer>
		<layer id="320" name="5326533024219" type="Const" version="opset1">
			<data offset="1472" size="4" shape="" element_type="f32"/>
			<output>
				<port id="0" precision="FP32"/>
			</output>
		</layer>
		<layer id="321" name="5327533125380" type="Const" version="opset1">
			<data offset="0" size="4" shape="" element_type="f32"/>
			<output>
				<port id="0" precision="FP32"/>
			</output>
		</layer>
		<layer id="322" name="5328533222572" type="Const" version="opset1">
			<data offset="1472" size="4" shape="" element_type="f32"/>
			<output>
				<port id="0" precision="FP32"/>
			</output>
		</layer>
		<layer id="323" name="4125412923796" type="Const" version="opset1">
			<data offset="0" size="4" shape="" element_type="f32"/>
			<output>
				<port id="0" precision="FP32"/>
			</output>
		</layer>
		<layer id="324" name="4126413024867" type="Const" version="opset1">
			<data offset="1476" size="4" shape="" element_type="f32"/>
			<output>
				<port id="0" precision="FP32"/>
			</output>
		</layer>
		<layer id="325" name="4127413124873" type="Const" version="opset1">
			<data offset="0" size="4" shape="" element_type="f32"/>
			<output>
				<port id="0" precision="FP32"/>
			</output>
		</layer>
		<layer id="326" name="4128413223235" type="Const" version="opset1">
			<data offset="1476" size="4" shape="" element_type="f32"/>
			<output>
				<port id="0" precision="FP32"/>
			</output>
		</layer>
		<layer id="327" name="4255425922722" type="Const" version="opset1">
			<data offset="0" size="4" shape="" element_type="f32"/>
			<output>
				<port id="0" precision="FP32"/>
			</output>
		</layer>
		<layer id="328" name="4256426022833" type="Const" version="opset1">
			<data offset="1480" size="4" shape="" element_type="f32"/>
			<output>
				<port id="0" precision="FP32"/>
			</output>
		</layer>
		<layer id="329" name="4257426123076" type="Const" version="opset1">
			<data offset="0" size="4" shape="" element_type="f32"/>
			<output>
				<port id="0" precision="FP32"/>
			</output>
		</layer>
		<layer id="330" name="4258426223589" type="Const" version="opset1">
			<data offset="1480" size="4" shape="" element_type="f32"/>
			<output>
				<port id="0" precision="FP32"/>
			</output>
		</layer>
		<layer id="331" name="5365536924114" type="Const" version="opset1">
			<data offset="1484" size="4" shape="" element_type="f32"/>
			<output>
				<port id="0" precision="FP32"/>
			</output>
		</layer>
		<layer id="332" name="5366537023694" type="Const" version="opset1">
			<data offset="1488" size="4" shape="" element_type="f32"/>
			<output>
				<port id="0" precision="FP32"/>
			</output>
		</layer>
		<layer id="333" name="5367537125320" type="Const" version="opset1">
			<data offset="1484" size="4" shape="" element_type="f32"/>
			<output>
				<port id="0" precision="FP32"/>
			</output>
		</layer>
		<layer id="334" name="5368537226076" type="Const" version="opset1">
			<data offset="1488" size="4" shape="" element_type="f32"/>
			<output>
				<port id="0" precision="FP32"/>
			</output>
		</layer>
		<layer id="335" name="3090309425971" type="Const" version="opset1">
			<data offset="0" size="4" shape="" element_type="f32"/>
			<output>
				<port id="0" precision="FP32"/>
			</output>
		</layer>
		<layer id="336" name="3091309525782" type="Const" version="opset1">
			<data offset="1492" size="4" shape="" element_type="f32"/>
			<output>
				<port id="0" precision="FP32"/>
			</output>
		</layer>
		<layer id="337" name="3092309622422" type="Const" version="opset1">
			<data offset="0" size="4" shape="" element_type="f32"/>
			<output>
				<port id="0" precision="FP32"/>
			</output>
		</layer>
		<layer id="338" name="3093309726106" type="Const" version="opset1">
			<data offset="1492" size="4" shape="" element_type="f32"/>
			<output>
				<port id="0" precision="FP32"/>
			</output>
		</layer>
		<layer id="339" name="3620362423445" type="Const" version="opset1">
			<data offset="0" size="4" shape="" element_type="f32"/>
			<output>
				<port id="0" precision="FP32"/>
			</output>
		</layer>
		<layer id="340" name="3621362525617" type="Const" version="opset1">
			<data offset="1496" size="4" shape="" element_type="f32"/>
			<output>
				<port id="0" precision="FP32"/>
			</output>
		</layer>
		<layer id="341" name="3622362625944" type="Const" version="opset1">
			<data offset="0" size="4" shape="" element_type="f32"/>
			<output>
				<port id="0" precision="FP32"/>
			</output>
		</layer>
		<layer id="342" name="3623362722707" type="Const" version="opset1">
			<data offset="1496" size="4" shape="" element_type="f32"/>
			<output>
				<port id="0" precision="FP32"/>
			</output>
		</layer>
		<layer id="343" name="5375537922725" type="Const" version="opset1">
			<data offset="0" size="4" shape="" element_type="f32"/>
			<output>
				<port id="0" precision="FP32"/>
			</output>
		</layer>
		<layer id="344" name="5376538025875" type="Const" version="opset1">
			<data offset="1500" size="4" shape="" element_type="f32"/>
			<output>
				<port id="0" precision="FP32"/>
			</output>
		</layer>
		<layer id="345" name="5377538123886" type="Const" version="opset1">
			<data offset="0" size="4" shape="" element_type="f32"/>
			<output>
				<port id="0" precision="FP32"/>
			</output>
		</layer>
		<layer id="346" name="5378538223742" type="Const" version="opset1">
			<data offset="1500" size="4" shape="" element_type="f32"/>
			<output>
				<port id="0" precision="FP32"/>
			</output>
		</layer>
		<layer id="347" name="4003400724117" type="Const" version="opset1">
			<data offset="1504" size="4" shape="" element_type="f32"/>
			<output>
				<port id="0" precision="FP32"/>
			</output>
		</layer>
		<layer id="348" name="4004400823139" type="Const" version="opset1">
			<data offset="1508" size="4" shape="" element_type="f32"/>
			<output>
				<port id="0" precision="FP32"/>
			</output>
		</layer>
		<layer id="349" name="4005400923718" type="Const" version="opset1">
			<data offset="1504" size="4" shape="" element_type="f32"/>
			<output>
				<port id="0" precision="FP32"/>
			</output>
		</layer>
		<layer id="350" name="4006401023208" type="Const" version="opset1">
			<data offset="1508" size="4" shape="" element_type="f32"/>
			<output>
				<port id="0" precision="FP32"/>
			</output>
		</layer>
		<layer id="351" name="4225422926007" type="Const" version="opset1">
			<data offset="0" size="4" shape="" element_type="f32"/>
			<output>
				<port id="0" precision="FP32"/>
			</output>
		</layer>
		<layer id="352" name="4226423023544" type="Const" version="opset1">
			<data offset="1512" size="4" shape="" element_type="f32"/>
			<output>
				<port id="0" precision="FP32"/>
			</output>
		</layer>
		<layer id="353" name="4227423124252" type="Const" version="opset1">
			<data offset="0" size="4" shape="" element_type="f32"/>
			<output>
				<port id="0" precision="FP32"/>
			</output>
		</layer>
		<layer id="354" name="4228423225089" type="Const" version="opset1">
			<data offset="1512" size="4" shape="" element_type="f32"/>
			<output>
				<port id="0" precision="FP32"/>
			</output>
		</layer>
		<layer id="355" name="2380238424216" type="Const" version="opset1">
			<data offset="0" size="4" shape="" element_type="f32"/>
			<output>
				<port id="0" precision="FP32"/>
			</output>
		</layer>
		<layer id="356" name="2381238523505" type="Const" version="opset1">
			<data offset="1516" size="4" shape="" element_type="f32"/>
			<output>
				<port id="0" precision="FP32"/>
			</output>
		</layer>
		<layer id="357" name="2382238623508" type="Const" version="opset1">
			<data offset="0" size="4" shape="" element_type="f32"/>
			<output>
				<port id="0" precision="FP32"/>
			</output>
		</layer>
		<layer id="358" name="2383238725278" type="Const" version="opset1">
			<data offset="1516" size="4" shape="" element_type="f32"/>
			<output>
				<port id="0" precision="FP32"/>
			</output>
		</layer>
		<layer id="359" name="4013401724894" type="Const" version="opset1">
			<data offset="0" size="4" shape="" element_type="f32"/>
			<output>
				<port id="0" precision="FP32"/>
			</output>
		</layer>
		<layer id="360" name="4014401823412" type="Const" version="opset1">
			<data offset="1520" size="4" shape="" element_type="f32"/>
			<output>
				<port id="0" precision="FP32"/>
			</output>
		</layer>
		<layer id="361" name="4015401926124" type="Const" version="opset1">
			<data offset="0" size="4" shape="" element_type="f32"/>
			<output>
				<port id="0" precision="FP32"/>
			</output>
		</layer>
		<layer id="362" name="4016402024495" type="Const" version="opset1">
			<data offset="1520" size="4" shape="" element_type="f32"/>
			<output>
				<port id="0" precision="FP32"/>
			</output>
		</layer>
		<layer id="363" name="2520252424864" type="Const" version="opset1">
			<data offset="1524" size="4" shape="" element_type="f32"/>
			<output>
				<port id="0" precision="FP32"/>
			</output>
		</layer>
		<layer id="364" name="2521252525428" type="Const" version="opset1">
			<data offset="1528" size="4" shape="" element_type="f32"/>
			<output>
				<port id="0" precision="FP32"/>
			</output>
		</layer>
		<layer id="365" name="2522252625773" type="Const" version="opset1">
			<data offset="1524" size="4" shape="" element_type="f32"/>
			<output>
				<port id="0" precision="FP32"/>
			</output>
		</layer>
		<layer id="366" name="2523252725425" type="Const" version="opset1">
			<data offset="1528" size="4" shape="" element_type="f32"/>
			<output>
				<port id="0" precision="FP32"/>
			</output>
		</layer>
		<layer id="367" name="4044404824522" type="Const" version="opset1">
			<data offset="0" size="4" shape="" element_type="f32"/>
			<output>
				<port id="0" precision="FP32"/>
			</output>
		</layer>
		<layer id="368" name="4045404924588" type="Const" version="opset1">
			<data offset="1532" size="4" shape="" element_type="f32"/>
			<output>
				<port id="0" precision="FP32"/>
			</output>
		</layer>
		<layer id="369" name="4046405023433" type="Const" version="opset1">
			<data offset="0" size="4" shape="" element_type="f32"/>
			<output>
				<port id="0" precision="FP32"/>
			</output>
		</layer>
		<layer id="370" name="4047405125053" type="Const" version="opset1">
			<data offset="1532" size="4" shape="" element_type="f32"/>
			<output>
				<port id="0" precision="FP32"/>
			</output>
		</layer>
		<layer id="371" name="3840384423634" type="Const" version="opset1">
			<data offset="0" size="4" shape="" element_type="f32"/>
			<output>
				<port id="0" precision="FP32"/>
			</output>
		</layer>
		<layer id="372" name="3841384524540" type="Const" version="opset1">
			<data offset="1536" size="4" shape="" element_type="f32"/>
			<output>
				<port id="0" precision="FP32"/>
			</output>
		</layer>
		<layer id="373" name="3842384622893" type="Const" version="opset1">
			<data offset="0" size="4" shape="" element_type="f32"/>
			<output>
				<port id="0" precision="FP32"/>
			</output>
		</layer>
		<layer id="374" name="3843384724078" type="Const" version="opset1">
			<data offset="1536" size="4" shape="" element_type="f32"/>
			<output>
				<port id="0" precision="FP32"/>
			</output>
		</layer>
		<layer id="375" name="2530253423775" type="Const" version="opset1">
			<data offset="0" size="4" shape="" element_type="f32"/>
			<output>
				<port id="0" precision="FP32"/>
			</output>
		</layer>
		<layer id="376" name="2531253523868" type="Const" version="opset1">
			<data offset="1540" size="4" shape="" element_type="f32"/>
			<output>
				<port id="0" precision="FP32"/>
			</output>
		</layer>
		<layer id="377" name="2532253623265" type="Const" version="opset1">
			<data offset="0" size="4" shape="" element_type="f32"/>
			<output>
				<port id="0" precision="FP32"/>
			</output>
		</layer>
		<layer id="378" name="2533253726079" type="Const" version="opset1">
			<data offset="1540" size="4" shape="" element_type="f32"/>
			<output>
				<port id="0" precision="FP32"/>
			</output>
		</layer>
		<layer id="379" name="4655465924774" type="Const" version="opset1">
			<data offset="1544" size="4" shape="" element_type="f32"/>
			<output>
				<port id="0" precision="FP32"/>
			</output>
		</layer>
		<layer id="380" name="4656466022647" type="Const" version="opset1">
			<data offset="1548" size="4" shape="" element_type="f32"/>
			<output>
				<port id="0" precision="FP32"/>
			</output>
		</layer>
		<layer id="381" name="4657466125146" type="Const" version="opset1">
			<data offset="1544" size="4" shape="" element_type="f32"/>
			<output>
				<port id="0" precision="FP32"/>
			</output>
		</layer>
		<layer id="382" name="4658466224237" type="Const" version="opset1">
			<data offset="1548" size="4" shape="" element_type="f32"/>
			<output>
				<port id="0" precision="FP32"/>
			</output>
		</layer>
		<layer id="383" name="3170317423991" type="Const" version="opset1">
			<data offset="0" size="4" shape="" element_type="f32"/>
			<output>
				<port id="0" precision="FP32"/>
			</output>
		</layer>
		<layer id="384" name="3171317525152" type="Const" version="opset1">
			<data offset="1552" size="4" shape="" element_type="f32"/>
			<output>
				<port id="0" precision="FP32"/>
			</output>
		</layer>
		<layer id="385" name="3172317625104" type="Const" version="opset1">
			<data offset="0" size="4" shape="" element_type="f32"/>
			<output>
				<port id="0" precision="FP32"/>
			</output>
		</layer>
		<layer id="386" name="3173317724600" type="Const" version="opset1">
			<data offset="1552" size="4" shape="" element_type="f32"/>
			<output>
				<port id="0" precision="FP32"/>
			</output>
		</layer>
		<layer id="387" name="3270327425674" type="Const" version="opset1">
			<data offset="0" size="4" shape="" element_type="f32"/>
			<output>
				<port id="0" precision="FP32"/>
			</output>
		</layer>
		<layer id="388" name="3271327523160" type="Const" version="opset1">
			<data offset="1556" size="4" shape="" element_type="f32"/>
			<output>
				<port id="0" precision="FP32"/>
			</output>
		</layer>
		<layer id="389" name="3272327624813" type="Const" version="opset1">
			<data offset="0" size="4" shape="" element_type="f32"/>
			<output>
				<port id="0" precision="FP32"/>
			</output>
		</layer>
		<layer id="390" name="3273327723304" type="Const" version="opset1">
			<data offset="1556" size="4" shape="" element_type="f32"/>
			<output>
				<port id="0" precision="FP32"/>
			</output>
		</layer>
		<layer id="391" name="4665466925587" type="Const" version="opset1">
			<data offset="0" size="4" shape="" element_type="f32"/>
			<output>
				<port id="0" precision="FP32"/>
			</output>
		</layer>
		<layer id="392" name="4666467025512" type="Const" version="opset1">
			<data offset="1560" size="4" shape="" element_type="f32"/>
			<output>
				<port id="0" precision="FP32"/>
			</output>
		</layer>
		<layer id="393" name="4667467125539" type="Const" version="opset1">
			<data offset="0" size="4" shape="" element_type="f32"/>
			<output>
				<port id="0" precision="FP32"/>
			</output>
		</layer>
		<layer id="394" name="4668467224624" type="Const" version="opset1">
			<data offset="1560" size="4" shape="" element_type="f32"/>
			<output>
				<port id="0" precision="FP32"/>
			</output>
		</layer>
		<layer id="395" name="4715471924417" type="Const" version="opset1">
			<data offset="1564" size="4" shape="" element_type="f32"/>
			<output>
				<port id="0" precision="FP32"/>
			</output>
		</layer>
		<layer id="396" name="4716472023844" type="Const" version="opset1">
			<data offset="1568" size="4" shape="" element_type="f32"/>
			<output>
				<port id="0" precision="FP32"/>
			</output>
		</layer>
		<layer id="397" name="4717472125830" type="Const" version="opset1">
			<data offset="1564" size="4" shape="" element_type="f32"/>
			<output>
				<port id="0" precision="FP32"/>
			</output>
		</layer>
		<layer id="398" name="4718472223739" type="Const" version="opset1">
			<data offset="1568" size="4" shape="" element_type="f32"/>
			<output>
				<port id="0" precision="FP32"/>
			</output>
		</layer>
		<layer id="399" name="2720272426019" type="Const" version="opset1">
			<data offset="0" size="4" shape="" element_type="f32"/>
			<output>
				<port id="0" precision="FP32"/>
			</output>
		</layer>
		<layer id="400" name="2721272522986" type="Const" version="opset1">
			<data offset="1572" size="4" shape="" element_type="f32"/>
			<output>
				<port id="0" precision="FP32"/>
			</output>
		</layer>
		<layer id="401" name="2722272624612" type="Const" version="opset1">
			<data offset="0" size="4" shape="" element_type="f32"/>
			<output>
				<port id="0" precision="FP32"/>
			</output>
		</layer>
		<layer id="402" name="2723272723523" type="Const" version="opset1">
			<data offset="1572" size="4" shape="" element_type="f32"/>
			<output>
				<port id="0" precision="FP32"/>
			</output>
		</layer>
		<layer id="403" name="4305430924348" type="Const" version="opset1">
			<data offset="0" size="4" shape="" element_type="f32"/>
			<output>
				<port id="0" precision="FP32"/>
			</output>
		</layer>
		<layer id="404" name="4306431026016" type="Const" version="opset1">
			<data offset="1576" size="4" shape="" element_type="f32"/>
			<output>
				<port id="0" precision="FP32"/>
			</output>
		</layer>
		<layer id="405" name="4307431124267" type="Const" version="opset1">
			<data offset="0" size="4" shape="" element_type="f32"/>
			<output>
				<port id="0" precision="FP32"/>
			</output>
		</layer>
		<layer id="406" name="4308431222506" type="Const" version="opset1">
			<data offset="1576" size="4" shape="" element_type="f32"/>
			<output>
				<port id="0" precision="FP32"/>
			</output>
		</layer>
		<layer id="407" name="4725472922794" type="Const" version="opset1">
			<data offset="0" size="4" shape="" element_type="f32"/>
			<output>
				<port id="0" precision="FP32"/>
			</output>
		</layer>
		<layer id="408" name="4726473023112" type="Const" version="opset1">
			<data offset="1580" size="4" shape="" element_type="f32"/>
			<output>
				<port id="0" precision="FP32"/>
			</output>
		</layer>
		<layer id="409" name="4727473123130" type="Const" version="opset1">
			<data offset="0" size="4" shape="" element_type="f32"/>
			<output>
				<port id="0" precision="FP32"/>
			</output>
		</layer>
		<layer id="410" name="4728473224780" type="Const" version="opset1">
			<data offset="1580" size="4" shape="" element_type="f32"/>
			<output>
				<port id="0" precision="FP32"/>
			</output>
		</layer>
		<layer id="411" name="4145414923826" type="Const" version="opset1">
			<data offset="1584" size="4" shape="" element_type="f32"/>
			<output>
				<port id="0" precision="FP32"/>
			</output>
		</layer>
		<layer id="412" name="4146415024048" type="Const" version="opset1">
			<data offset="1588" size="4" shape="" element_type="f32"/>
			<output>
				<port id="0" precision="FP32"/>
			</output>
		</layer>
		<layer id="413" name="4147415122758" type="Const" version="opset1">
			<data offset="1584" size="4" shape="" element_type="f32"/>
			<output>
				<port id="0" precision="FP32"/>
			</output>
		</layer>
		<layer id="414" name="4148415222866" type="Const" version="opset1">
			<data offset="1588" size="4" shape="" element_type="f32"/>
			<output>
				<port id="0" precision="FP32"/>
			</output>
		</layer>
		<layer id="415" name="5265526925704" type="Const" version="opset1">
			<data offset="0" size="4" shape="" element_type="f32"/>
			<output>
				<port id="0" precision="FP32"/>
			</output>
		</layer>
		<layer id="416" name="5266527023205" type="Const" version="opset1">
			<data offset="1592" size="4" shape="" element_type="f32"/>
			<output>
				<port id="0" precision="FP32"/>
			</output>
		</layer>
		<layer id="417" name="5267527122698" type="Const" version="opset1">
			<data offset="0" size="4" shape="" element_type="f32"/>
			<output>
				<port id="0" precision="FP32"/>
			</output>
		</layer>
		<layer id="418" name="5268527225140" type="Const" version="opset1">
			<data offset="1592" size="4" shape="" element_type="f32"/>
			<output>
				<port id="0" precision="FP32"/>
			</output>
		</layer>
		<layer id="419" name="2990299424222" type="Const" version="opset1">
			<data offset="0" size="4" shape="" element_type="f32"/>
			<output>
				<port id="0" precision="FP32"/>
			</output>
		</layer>
		<layer id="420" name="2991299524858" type="Const" version="opset1">
			<data offset="1596" size="4" shape="" element_type="f32"/>
			<output>
				<port id="0" precision="FP32"/>
			</output>
		</layer>
		<layer id="421" name="2992299622902" type="Const" version="opset1">
			<data offset="0" size="4" shape="" element_type="f32"/>
			<output>
				<port id="0" precision="FP32"/>
			</output>
		</layer>
		<layer id="422" name="2993299724396" type="Const" version="opset1">
			<data offset="1596" size="4" shape="" element_type="f32"/>
			<output>
				<port id="0" precision="FP32"/>
			</output>
		</layer>
		<layer id="423" name="4155415923955" type="Const" version="opset1">
			<data offset="0" size="4" shape="" element_type="f32"/>
			<output>
				<port id="0" precision="FP32"/>
			</output>
		</layer>
		<layer id="424" name="4156416023109" type="Const" version="opset1">
			<data offset="1600" size="4" shape="" element_type="f32"/>
			<output>
				<port id="0" precision="FP32"/>
			</output>
		</layer>
		<layer id="425" name="4157416125947" type="Const" version="opset1">
			<data offset="0" size="4" shape="" element_type="f32"/>
			<output>
				<port id="0" precision="FP32"/>
			</output>
		</layer>
		<layer id="426" name="4158416222848" type="Const" version="opset1">
			<data offset="1600" size="4" shape="" element_type="f32"/>
			<output>
				<port id="0" precision="FP32"/>
			</output>
		</layer>
		<layer id="427" name="4815481923241" type="Const" version="opset1">
			<data offset="1604" size="4" shape="" element_type="f32"/>
			<output>
				<port id="0" precision="FP32"/>
			</output>
		</layer>
		<layer id="428" name="4816482023202" type="Const" version="opset1">
			<data offset="1608" size="4" shape="" element_type="f32"/>
			<output>
				<port id="0" precision="FP32"/>
			</output>
		</layer>
		<layer id="429" name="4817482122638" type="Const" version="opset1">
			<data offset="1604" size="4" shape="" element_type="f32"/>
			<output>
				<port id="0" precision="FP32"/>
			</output>
		</layer>
		<layer id="430" name="4818482224456" type="Const" version="opset1">
			<data offset="1608" size="4" shape="" element_type="f32"/>
			<output>
				<port id="0" precision="FP32"/>
			</output>
		</layer>
		<layer id="431" name="2800280422764" type="Const" version="opset1">
			<data offset="0" size="4" shape="" element_type="f32"/>
			<output>
				<port id="0" precision="FP32"/>
			</output>
		</layer>
		<layer id="432" name="2801280523514" type="Const" version="opset1">
			<data offset="1612" size="4" shape="" element_type="f32"/>
			<output>
				<port id="0" precision="FP32"/>
			</output>
		</layer>
		<layer id="433" name="2802280624447" type="Const" version="opset1">
			<data offset="0" size="4" shape="" element_type="f32"/>
			<output>
				<port id="0" precision="FP32"/>
			</output>
		</layer>
		<layer id="434" name="2803280723457" type="Const" version="opset1">
			<data offset="1612" size="4" shape="" element_type="f32"/>
			<output>
				<port id="0" precision="FP32"/>
			</output>
		</layer>
		<layer id="435" name="2540254422503" type="Const" version="opset1">
			<data offset="0" size="4" shape="" element_type="f32"/>
			<output>
				<port id="0" precision="FP32"/>
			</output>
		</layer>
		<layer id="436" name="2541254524201" type="Const" version="opset1">
			<data offset="1616" size="4" shape="" element_type="f32"/>
			<output>
				<port id="0" precision="FP32"/>
			</output>
		</layer>
		<layer id="437" name="2542254626025" type="Const" version="opset1">
			<data offset="0" size="4" shape="" element_type="f32"/>
			<output>
				<port id="0" precision="FP32"/>
			</output>
		</layer>
		<layer id="438" name="2543254725557" type="Const" version="opset1">
			<data offset="1616" size="4" shape="" element_type="f32"/>
			<output>
				<port id="0" precision="FP32"/>
			</output>
		</layer>
		<layer id="439" name="4825482925473" type="Const" version="opset1">
			<data offset="0" size="4" shape="" element_type="f32"/>
			<output>
				<port id="0" precision="FP32"/>
			</output>
		</layer>
		<layer id="440" name="4826483024450" type="Const" version="opset1">
			<data offset="1620" size="4" shape="" element_type="f32"/>
			<output>
				<port id="0" precision="FP32"/>
			</output>
		</layer>
		<layer id="441" name="4827483126049" type="Const" version="opset1">
			<data offset="0" size="4" shape="" element_type="f32"/>
			<output>
				<port id="0" precision="FP32"/>
			</output>
		</layer>
		<layer id="442" name="4828483225272" type="Const" version="opset1">
			<data offset="1620" size="4" shape="" element_type="f32"/>
			<output>
				<port id="0" precision="FP32"/>
			</output>
		</layer>
		<layer id="443" name="3110311422854" type="Const" version="opset1">
			<data offset="1624" size="4" shape="" element_type="f32"/>
			<output>
				<port id="0" precision="FP32"/>
			</output>
		</layer>
		<layer id="444" name="3111311524531" type="Const" version="opset1">
			<data offset="1628" size="4" shape="" element_type="f32"/>
			<output>
				<port id="0" precision="FP32"/>
			</output>
		</layer>
		<layer id="445" name="3112311624006" type="Const" version="opset1">
			<data offset="1624" size="4" shape="" element_type="f32"/>
			<output>
				<port id="0" precision="FP32"/>
			</output>
		</layer>
		<layer id="446" name="3113311723010" type="Const" version="opset1">
			<data offset="1628" size="4" shape="" element_type="f32"/>
			<output>
				<port id="0" precision="FP32"/>
			</output>
		</layer>
		<layer id="447" name="4855485924615" type="Const" version="opset1">
			<data offset="0" size="4" shape="" element_type="f32"/>
			<output>
				<port id="0" precision="FP32"/>
			</output>
		</layer>
		<layer id="448" name="4856486024291" type="Const" version="opset1">
			<data offset="1632" size="4" shape="" element_type="f32"/>
			<output>
				<port id="0" precision="FP32"/>
			</output>
		</layer>
		<layer id="449" name="4857486122566" type="Const" version="opset1">
			<data offset="0" size="4" shape="" element_type="f32"/>
			<output>
				<port id="0" precision="FP32"/>
			</output>
		</layer>
		<layer id="450" name="4858486222752" type="Const" version="opset1">
			<data offset="1632" size="4" shape="" element_type="f32"/>
			<output>
				<port id="0" precision="FP32"/>
			</output>
		</layer>
		<layer id="451" name="5345534923598" type="Const" version="opset1">
			<data offset="0" size="4" shape="" element_type="f32"/>
			<output>
				<port id="0" precision="FP32"/>
			</output>
		</layer>
		<layer id="452" name="5346535025515" type="Const" version="opset1">
			<data offset="1636" size="4" shape="" element_type="f32"/>
			<output>
				<port id="0" precision="FP32"/>
			</output>
		</layer>
		<layer id="453" name="5347535125659" type="Const" version="opset1">
			<data offset="0" size="4" shape="" element_type="f32"/>
			<output>
				<port id="0" precision="FP32"/>
			</output>
		</layer>
		<layer id="454" name="5348535223289" type="Const" version="opset1">
			<data offset="1636" size="4" shape="" element_type="f32"/>
			<output>
				<port id="0" precision="FP32"/>
			</output>
		</layer>
		<layer id="455" name="3120312422770" type="Const" version="opset1">
			<data offset="0" size="4" shape="" element_type="f32"/>
			<output>
				<port id="0" precision="FP32"/>
			</output>
		</layer>
		<layer id="456" name="3121312523793" type="Const" version="opset1">
			<data offset="1640" size="4" shape="" element_type="f32"/>
			<output>
				<port id="0" precision="FP32"/>
			</output>
		</layer>
		<layer id="457" name="3122312622995" type="Const" version="opset1">
			<data offset="0" size="4" shape="" element_type="f32"/>
			<output>
				<port id="0" precision="FP32"/>
			</output>
		</layer>
		<layer id="458" name="3123312724552" type="Const" version="opset1">
			<data offset="1640" size="4" shape="" element_type="f32"/>
			<output>
				<port id="0" precision="FP32"/>
			</output>
		</layer>
		<layer id="459" name="5305530925797" type="Const" version="opset1">
			<data offset="1644" size="4" shape="" element_type="f32"/>
			<output>
				<port id="0" precision="FP32"/>
			</output>
		</layer>
		<layer id="460" name="5306531025287" type="Const" version="opset1">
			<data offset="1648" size="4" shape="" element_type="f32"/>
			<output>
				<port id="0" precision="FP32"/>
			</output>
		</layer>
		<layer id="461" name="5307531124090" type="Const" version="opset1">
			<data offset="1644" size="4" shape="" element_type="f32"/>
			<output>
				<port id="0" precision="FP32"/>
			</output>
		</layer>
		<layer id="462" name="5308531224690" type="Const" version="opset1">
			<data offset="1648" size="4" shape="" element_type="f32"/>
			<output>
				<port id="0" precision="FP32"/>
			</output>
		</layer>
		<layer id="463" name="5695569922452" type="Const" version="opset1">
			<data offset="0" size="4" shape="" element_type="f32"/>
			<output>
				<port id="0" precision="FP32"/>
			</output>
		</layer>
		<layer id="464" name="5696570025098" type="Const" version="opset1">
			<data offset="1652" size="4" shape="" element_type="f32"/>
			<output>
				<port id="0" precision="FP32"/>
			</output>
		</layer>
		<layer id="465" name="5697570124225" type="Const" version="opset1">
			<data offset="0" size="4" shape="" element_type="f32"/>
			<output>
				<port id="0" precision="FP32"/>
			</output>
		</layer>
		<layer id="466" name="5698570224195" type="Const" version="opset1">
			<data offset="1652" size="4" shape="" element_type="f32"/>
			<output>
				<port id="0" precision="FP32"/>
			</output>
		</layer>
		<layer id="467" name="4435443925740" type="Const" version="opset1">
			<data offset="0" size="4" shape="" element_type="f32"/>
			<output>
				<port id="0" precision="FP32"/>
			</output>
		</layer>
		<layer id="468" name="4436444022686" type="Const" version="opset1">
			<data offset="1656" size="4" shape="" element_type="f32"/>
			<output>
				<port id="0" precision="FP32"/>
			</output>
		</layer>
		<layer id="469" name="4437444123067" type="Const" version="opset1">
			<data offset="0" size="4" shape="" element_type="f32"/>
			<output>
				<port id="0" precision="FP32"/>
			</output>
		</layer>
		<layer id="470" name="4438444225695" type="Const" version="opset1">
			<data offset="1656" size="4" shape="" element_type="f32"/>
			<output>
				<port id="0" precision="FP32"/>
			</output>
		</layer>
		<layer id="471" name="5315531924852" type="Const" version="opset1">
			<data offset="0" size="4" shape="" element_type="f32"/>
			<output>
				<port id="0" precision="FP32"/>
			</output>
		</layer>
		<layer id="472" name="5316532023259" type="Const" version="opset1">
			<data offset="1660" size="4" shape="" element_type="f32"/>
			<output>
				<port id="0" precision="FP32"/>
			</output>
		</layer>
		<layer id="473" name="5317532123985" type="Const" version="opset1">
			<data offset="0" size="4" shape="" element_type="f32"/>
			<output>
				<port id="0" precision="FP32"/>
			</output>
		</layer>
		<layer id="474" name="5318532226181" type="Const" version="opset1">
			<data offset="1660" size="4" shape="" element_type="f32"/>
			<output>
				<port id="0" precision="FP32"/>
			</output>
		</layer>
		<layer id="475" name="3580358423700" type="Const" version="opset1">
			<data offset="1664" size="4" shape="" element_type="f32"/>
			<output>
				<port id="0" precision="FP32"/>
			</output>
		</layer>
		<layer id="476" name="3581358524702" type="Const" version="opset1">
			<data offset="1668" size="4" shape="" element_type="f32"/>
			<output>
				<port id="0" precision="FP32"/>
			</output>
		</layer>
		<layer id="477" name="3582358623706" type="Const" version="opset1">
			<data offset="1664" size="4" shape="" element_type="f32"/>
			<output>
				<port id="0" precision="FP32"/>
			</output>
		</layer>
		<layer id="478" name="3583358724249" type="Const" version="opset1">
			<data offset="1668" size="4" shape="" element_type="f32"/>
			<output>
				<port id="0" precision="FP32"/>
			</output>
		</layer>
		<layer id="479" name="4755475925059" type="Const" version="opset1">
			<data offset="0" size="4" shape="" element_type="f32"/>
			<output>
				<port id="0" precision="FP32"/>
			</output>
		</layer>
		<layer id="480" name="4756476024636" type="Const" version="opset1">
			<data offset="1672" size="4" shape="" element_type="f32"/>
			<output>
				<port id="0" precision="FP32"/>
			</output>
		</layer>
		<layer id="481" name="4757476122431" type="Const" version="opset1">
			<data offset="0" size="4" shape="" element_type="f32"/>
			<output>
				<port id="0" precision="FP32"/>
			</output>
		</layer>
		<layer id="482" name="4758476223568" type="Const" version="opset1">
			<data offset="1672" size="4" shape="" element_type="f32"/>
			<output>
				<port id="0" precision="FP32"/>
			</output>
		</layer>
		<layer id="483" name="3410341425734" type="Const" version="opset1">
			<data offset="0" size="4" shape="" element_type="f32"/>
			<output>
				<port id="0" precision="FP32"/>
			</output>
		</layer>
		<layer id="484" name="3411341523475" type="Const" version="opset1">
			<data offset="1676" size="4" shape="" element_type="f32"/>
			<output>
				<port id="0" precision="FP32"/>
			</output>
		</layer>
		<layer id="485" name="3412341625158" type="Const" version="opset1">
			<data offset="0" size="4" shape="" element_type="f32"/>
			<output>
				<port id="0" precision="FP32"/>
			</output>
		</layer>
		<layer id="486" name="3413341724660" type="Const" version="opset1">
			<data offset="1676" size="4" shape="" element_type="f32"/>
			<output>
				<port id="0" precision="FP32"/>
			</output>
		</layer>
		<layer id="487" name="3590359423145" type="Const" version="opset1">
			<data offset="0" size="4" shape="" element_type="f32"/>
			<output>
				<port id="0" precision="FP32"/>
			</output>
		</layer>
		<layer id="488" name="3591359525497" type="Const" version="opset1">
			<data offset="1680" size="4" shape="" element_type="f32"/>
			<output>
				<port id="0" precision="FP32"/>
			</output>
		</layer>
		<layer id="489" name="3592359622587" type="Const" version="opset1">
			<data offset="0" size="4" shape="" element_type="f32"/>
			<output>
				<port id="0" precision="FP32"/>
			</output>
		</layer>
		<layer id="490" name="3593359726073" type="Const" version="opset1">
			<data offset="1680" size="4" shape="" element_type="f32"/>
			<output>
				<port id="0" precision="FP32"/>
			</output>
		</layer>
		<layer id="491" name="2920292422575" type="Const" version="opset1">
			<data offset="1684" size="4" shape="" element_type="f32"/>
			<output>
				<port id="0" precision="FP32"/>
			</output>
		</layer>
		<layer id="492" name="2921292525818" type="Const" version="opset1">
			<data offset="1688" size="4" shape="" element_type="f32"/>
			<output>
				<port id="0" precision="FP32"/>
			</output>
		</layer>
		<layer id="493" name="2922292622767" type="Const" version="opset1">
			<data offset="1684" size="4" shape="" element_type="f32"/>
			<output>
				<port id="0" precision="FP32"/>
			</output>
		</layer>
		<layer id="494" name="2923292723250" type="Const" version="opset1">
			<data offset="1688" size="4" shape="" element_type="f32"/>
			<output>
				<port id="0" precision="FP32"/>
			</output>
		</layer>
		<layer id="495" name="3560356425836" type="Const" version="opset1">
			<data offset="0" size="4" shape="" element_type="f32"/>
			<output>
				<port id="0" precision="FP32"/>
			</output>
		</layer>
		<layer id="496" name="3561356524258" type="Const" version="opset1">
			<data offset="1692" size="4" shape="" element_type="f32"/>
			<output>
				<port id="0" precision="FP32"/>
			</output>
		</layer>
		<layer id="497" name="3562356623391" type="Const" version="opset1">
			<data offset="0" size="4" shape="" element_type="f32"/>
			<output>
				<port id="0" precision="FP32"/>
			</output>
		</layer>
		<layer id="498" name="3563356725803" type="Const" version="opset1">
			<data offset="1692" size="4" shape="" element_type="f32"/>
			<output>
				<port id="0" precision="FP32"/>
			</output>
		</layer>
		<layer id="499" name="2500250425614" type="Const" version="opset1">
			<data offset="0" size="4" shape="" element_type="f32"/>
			<output>
				<port id="0" precision="FP32"/>
			</output>
		</layer>
		<layer id="500" name="2501250522542" type="Const" version="opset1">
			<data offset="1696" size="4" shape="" element_type="f32"/>
			<output>
				<port id="0" precision="FP32"/>
			</output>
		</layer>
		<layer id="501" name="2502250624768" type="Const" version="opset1">
			<data offset="0" size="4" shape="" element_type="f32"/>
			<output>
				<port id="0" precision="FP32"/>
			</output>
		</layer>
		<layer id="502" name="2503250724741" type="Const" version="opset1">
			<data offset="1696" size="4" shape="" element_type="f32"/>
			<output>
				<port id="0" precision="FP32"/>
			</output>
		</layer>
		<layer id="503" name="2930293426031" type="Const" version="opset1">
			<data offset="0" size="4" shape="" element_type="f32"/>
			<output>
				<port id="0" precision="FP32"/>
			</output>
		</layer>
		<layer id="504" name="2931293522965" type="Const" version="opset1">
			<data offset="1700" size="4" shape="" element_type="f32"/>
			<output>
				<port id="0" precision="FP32"/>
			</output>
		</layer>
		<layer id="505" name="2932293622521" type="Const" version="opset1">
			<data offset="0" size="4" shape="" element_type="f32"/>
			<output>
				<port id="0" precision="FP32"/>
			</output>
		</layer>
		<layer id="506" name="2933293722425" type="Const" version="opset1">
			<data offset="1700" size="4" shape="" element_type="f32"/>
			<output>
				<port id="0" precision="FP32"/>
			</output>
		</layer>
		<layer id="507" name="4023402825383" type="Const" version="opset1">
			<data offset="1704" size="4" shape="" element_type="f32"/>
			<output>
				<port id="0" precision="FP32"/>
			</output>
		</layer>
		<layer id="508" name="4024402924498" type="Const" version="opset1">
			<data offset="1708" size="4" shape="" element_type="f32"/>
			<output>
				<port id="0" precision="FP32"/>
			</output>
		</layer>
		<layer id="509" name="4026403023319" type="Const" version="opset1">
			<data offset="1704" size="4" shape="" element_type="f32"/>
			<output>
				<port id="0" precision="FP32"/>
			</output>
		</layer>
		<layer id="510" name="4027403122971" type="Const" version="opset1">
			<data offset="1708" size="4" shape="" element_type="f32"/>
			<output>
				<port id="0" precision="FP32"/>
			</output>
		</layer>
		<layer id="511" name="5735573925851" type="Const" version="opset1">
			<data offset="0" size="4" shape="" element_type="f32"/>
			<output>
				<port id="0" precision="FP32"/>
			</output>
		</layer>
		<layer id="512" name="5736574023100" type="Const" version="opset1">
			<data offset="1712" size="4" shape="" element_type="f32"/>
			<output>
				<port id="0" precision="FP32"/>
			</output>
		</layer>
		<layer id="513" name="5737574124786" type="Const" version="opset1">
			<data offset="0" size="4" shape="" element_type="f32"/>
			<output>
				<port id="0" precision="FP32"/>
			</output>
		</layer>
		<layer id="514" name="5738574223424" type="Const" version="opset1">
			<data offset="1712" size="4" shape="" element_type="f32"/>
			<output>
				<port id="0" precision="FP32"/>
			</output>
		</layer>
		<layer id="515" name="3370337426103" type="Const" version="opset1">
			<data offset="0" size="4" shape="" element_type="f32"/>
			<output>
				<port id="0" precision="FP32"/>
			</output>
		</layer>
		<layer id="516" name="3371337524471" type="Const" version="opset1">
			<data offset="1716" size="4" shape="" element_type="f32"/>
			<output>
				<port id="0" precision="FP32"/>
			</output>
		</layer>
		<layer id="517" name="3372337622788" type="Const" version="opset1">
			<data offset="0" size="4" shape="" element_type="f32"/>
			<output>
				<port id="0" precision="FP32"/>
			</output>
		</layer>
		<layer id="518" name="3373337725173" type="Const" version="opset1">
			<data offset="1716" size="4" shape="" element_type="f32"/>
			<output>
				<port id="0" precision="FP32"/>
			</output>
		</layer>
		<layer id="519" name="5145514925707" type="Const" version="opset1">
			<data offset="0" size="4" shape="" element_type="f32"/>
			<output>
				<port id="0" precision="FP32"/>
			</output>
		</layer>
		<layer id="520" name="5146515022437" type="Const" version="opset1">
			<data offset="1720" size="4" shape="" element_type="f32"/>
			<output>
				<port id="0" precision="FP32"/>
			</output>
		</layer>
		<layer id="521" name="5147515125470" type="Const" version="opset1">
			<data offset="0" size="4" shape="" element_type="f32"/>
			<output>
				<port id="0" precision="FP32"/>
			</output>
		</layer>
		<layer id="522" name="5148515223175" type="Const" version="opset1">
			<data offset="1720" size="4" shape="" element_type="f32"/>
			<output>
				<port id="0" precision="FP32"/>
			</output>
		</layer>
		<layer id="523" name="2420242423313" type="Const" version="opset1">
			<data offset="1724" size="4" shape="" element_type="f32"/>
			<output>
				<port id="0" precision="FP32"/>
			</output>
		</layer>
		<layer id="524" name="2421242524681" type="Const" version="opset1">
			<data offset="1728" size="4" shape="" element_type="f32"/>
			<output>
				<port id="0" precision="FP32"/>
			</output>
		</layer>
		<layer id="525" name="2422242624126" type="Const" version="opset1">
			<data offset="1724" size="4" shape="" element_type="f32"/>
			<output>
				<port id="0" precision="FP32"/>
			</output>
		</layer>
		<layer id="526" name="2423242725242" type="Const" version="opset1">
			<data offset="1728" size="4" shape="" element_type="f32"/>
			<output>
				<port id="0" precision="FP32"/>
			</output>
		</layer>
		<layer id="527" name="3430343422704" type="Const" version="opset1">
			<data offset="0" size="4" shape="" element_type="f32"/>
			<output>
				<port id="0" precision="FP32"/>
			</output>
		</layer>
		<layer id="528" name="3431343523604" type="Const" version="opset1">
			<data offset="1732" size="4" shape="" element_type="f32"/>
			<output>
				<port id="0" precision="FP32"/>
			</output>
		</layer>
		<layer id="529" name="3432343623778" type="Const" version="opset1">
			<data offset="0" size="4" shape="" element_type="f32"/>
			<output>
				<port id="0" precision="FP32"/>
			</output>
		</layer>
		<layer id="530" name="3433343724138" type="Const" version="opset1">
			<data offset="1732" size="4" shape="" element_type="f32"/>
			<output>
				<port id="0" precision="FP32"/>
			</output>
		</layer>
		<layer id="531" name="4084408823004" type="Const" version="opset1">
			<data offset="0" size="4" shape="" element_type="f32"/>
			<output>
				<port id="0" precision="FP32"/>
			</output>
		</layer>
		<layer id="532" name="4085408924804" type="Const" version="opset1">
			<data offset="1736" size="4" shape="" element_type="f32"/>
			<output>
				<port id="0" precision="FP32"/>
			</output>
		</layer>
		<layer id="533" name="4086409023745" type="Const" version="opset1">
			<data offset="0" size="4" shape="" element_type="f32"/>
			<output>
				<port id="0" precision="FP32"/>
			</output>
		</layer>
		<layer id="534" name="4087409125584" type="Const" version="opset1">
			<data offset="1736" size="4" shape="" element_type="f32"/>
			<output>
				<port id="0" precision="FP32"/>
			</output>
		</layer>
		<layer id="535" name="2430243423904" type="Const" version="opset1">
			<data offset="0" size="4" shape="" element_type="f32"/>
			<output>
				<port id="0" precision="FP32"/>
			</output>
		</layer>
		<layer id="536" name="2431243524564" type="Const" version="opset1">
			<data offset="1740" size="4" shape="" element_type="f32"/>
			<output>
				<port id="0" precision="FP32"/>
			</output>
		</layer>
		<layer id="537" name="2432243626091" type="Const" version="opset1">
			<data offset="0" size="4" shape="" element_type="f32"/>
			<output>
				<port id="0" precision="FP32"/>
			</output>
		</layer>
		<layer id="538" name="2433243724111" type="Const" version="opset1">
			<data offset="1740" size="4" shape="" element_type="f32"/>
			<output>
				<port id="0" precision="FP32"/>
			</output>
		</layer>
		<layer id="539" name="3940394425920" type="Const" version="opset1">
			<data offset="1744" size="4" shape="" element_type="f32"/>
			<output>
				<port id="0" precision="FP32"/>
			</output>
		</layer>
		<layer id="540" name="3941394523901" type="Const" version="opset1">
			<data offset="1748" size="4" shape="" element_type="f32"/>
			<output>
				<port id="0" precision="FP32"/>
			</output>
		</layer>
		<layer id="541" name="3942394622653" type="Const" version="opset1">
			<data offset="1744" size="4" shape="" element_type="f32"/>
			<output>
				<port id="0" precision="FP32"/>
			</output>
		</layer>
		<layer id="542" name="3943394722608" type="Const" version="opset1">
			<data offset="1748" size="4" shape="" element_type="f32"/>
			<output>
				<port id="0" precision="FP32"/>
			</output>
		</layer>
		<layer id="543" name="2970297423337" type="Const" version="opset1">
			<data offset="0" size="4" shape="" element_type="f32"/>
			<output>
				<port id="0" precision="FP32"/>
			</output>
		</layer>
		<layer id="544" name="2971297525209" type="Const" version="opset1">
			<data offset="1752" size="4" shape="" element_type="f32"/>
			<output>
				<port id="0" precision="FP32"/>
			</output>
		</layer>
		<layer id="545" name="2972297625284" type="Const" version="opset1">
			<data offset="0" size="4" shape="" element_type="f32"/>
			<output>
				<port id="0" precision="FP32"/>
			</output>
		</layer>
		<layer id="546" name="2973297725341" type="Const" version="opset1">
			<data offset="1752" size="4" shape="" element_type="f32"/>
			<output>
				<port id="0" precision="FP32"/>
			</output>
		</layer>
		<layer id="547" name="4965496922629" type="Const" version="opset1">
			<data offset="0" size="4" shape="" element_type="f32"/>
			<output>
				<port id="0" precision="FP32"/>
			</output>
		</layer>
		<layer id="548" name="4966497024525" type="Const" version="opset1">
			<data offset="1756" size="4" shape="" element_type="f32"/>
			<output>
				<port id="0" precision="FP32"/>
			</output>
		</layer>
		<layer id="549" name="4967497124150" type="Const" version="opset1">
			<data offset="0" size="4" shape="" element_type="f32"/>
			<output>
				<port id="0" precision="FP32"/>
			</output>
		</layer>
		<layer id="550" name="4968497225848" type="Const" version="opset1">
			<data offset="1756" size="4" shape="" element_type="f32"/>
			<output>
				<port id="0" precision="FP32"/>
			</output>
		</layer>
		<layer id="551" name="3950395422827" type="Const" version="opset1">
			<data offset="0" size="4" shape="" element_type="f32"/>
			<output>
				<port id="0" precision="FP32"/>
			</output>
		</layer>
		<layer id="552" name="3951395526037" type="Const" version="opset1">
			<data offset="1760" size="4" shape="" element_type="f32"/>
			<output>
				<port id="0" precision="FP32"/>
			</output>
		</layer>
		<layer id="553" name="3952395623907" type="Const" version="opset1">
			<data offset="0" size="4" shape="" element_type="f32"/>
			<output>
				<port id="0" precision="FP32"/>
			</output>
		</layer>
		<layer id="554" name="3953395726067" type="Const" version="opset1">
			<data offset="1760" size="4" shape="" element_type="f32"/>
			<output>
				<port id="0" precision="FP32"/>
			</output>
		</layer>
		<layer id="555" name="3310331425350" type="Const" version="opset1">
			<data offset="1764" size="4" shape="" element_type="f32"/>
			<output>
				<port id="0" precision="FP32"/>
			</output>
		</layer>
		<layer id="556" name="3311331522614" type="Const" version="opset1">
			<data offset="1768" size="4" shape="" element_type="f32"/>
			<output>
				<port id="0" precision="FP32"/>
			</output>
		</layer>
		<layer id="557" name="3312331623439" type="Const" version="opset1">
			<data offset="1764" size="4" shape="" element_type="f32"/>
			<output>
				<port id="0" precision="FP32"/>
			</output>
		</layer>
		<layer id="558" name="3313331725794" type="Const" version="opset1">
			<data offset="1768" size="4" shape="" element_type="f32"/>
			<output>
				<port id="0" precision="FP32"/>
			</output>
		</layer>
		<layer id="559" name="5475547924393" type="Const" version="opset1">
			<data offset="0" size="4" shape="" element_type="f32"/>
			<output>
				<port id="0" precision="FP32"/>
			</output>
		</layer>
		<layer id="560" name="5476548023601" type="Const" version="opset1">
			<data offset="1772" size="4" shape="" element_type="f32"/>
			<output>
				<port id="0" precision="FP32"/>
			</output>
		</layer>
		<layer id="561" name="5477548125194" type="Const" version="opset1">
			<data offset="0" size="4" shape="" element_type="f32"/>
			<output>
				<port id="0" precision="FP32"/>
			</output>
		</layer>
		<layer id="562" name="5478548224708" type="Const" version="opset1">
			<data offset="1772" size="4" shape="" element_type="f32"/>
			<output>
				<port id="0" precision="FP32"/>
			</output>
		</layer>
		<layer id="563" name="2940294425764" type="Const" version="opset1">
			<data offset="0" size="4" shape="" element_type="f32"/>
			<output>
				<port id="0" precision="FP32"/>
			</output>
		</layer>
		<layer id="564" name="2941294524093" type="Const" version="opset1">
			<data offset="1776" size="4" shape="" element_type="f32"/>
			<output>
				<port id="0" precision="FP32"/>
			</output>
		</layer>
		<layer id="565" name="2942294625080" type="Const" version="opset1">
			<data offset="0" size="4" shape="" element_type="f32"/>
			<output>
				<port id="0" precision="FP32"/>
			</output>
		</layer>
		<layer id="566" name="2943294723340" type="Const" version="opset1">
			<data offset="1776" size="4" shape="" element_type="f32"/>
			<output>
				<port id="0" precision="FP32"/>
			</output>
		</layer>
		<layer id="567" name="3320332424684" type="Const" version="opset1">
			<data offset="0" size="4" shape="" element_type="f32"/>
			<output>
				<port id="0" precision="FP32"/>
			</output>
		</layer>
		<layer id="568" name="3321332525620" type="Const" version="opset1">
			<data offset="1780" size="4" shape="" element_type="f32"/>
			<output>
				<port id="0" precision="FP32"/>
			</output>
		</layer>
		<layer id="569" name="3322332625890" type="Const" version="opset1">
			<data offset="0" size="4" shape="" element_type="f32"/>
			<output>
				<port id="0" precision="FP32"/>
			</output>
		</layer>
		<layer id="570" name="3323332724243" type="Const" version="opset1">
			<data offset="1780" size="4" shape="" element_type="f32"/>
			<output>
				<port id="0" precision="FP32"/>
			</output>
		</layer>
		<layer id="571" name="5245524923352" type="Const" version="opset1">
			<data offset="1784" size="4" shape="" element_type="f32"/>
			<output>
				<port id="0" precision="FP32"/>
			</output>
		</layer>
		<layer id="572" name="5246525023946" type="Const" version="opset1">
			<data offset="1788" size="4" shape="" element_type="f32"/>
			<output>
				<port id="0" precision="FP32"/>
			</output>
		</layer>
		<layer id="573" name="5247525124516" type="Const" version="opset1">
			<data offset="1784" size="4" shape="" element_type="f32"/>
			<output>
				<port id="0" precision="FP32"/>
			</output>
		</layer>
		<layer id="574" name="5248525225962" type="Const" version="opset1">
			<data offset="1788" size="4" shape="" element_type="f32"/>
			<output>
				<port id="0" precision="FP32"/>
			</output>
		</layer>
		<layer id="575" name="5575557925494" type="Const" version="opset1">
			<data offset="0" size="4" shape="" element_type="f32"/>
			<output>
				<port id="0" precision="FP32"/>
			</output>
		</layer>
		<layer id="576" name="5576558023922" type="Const" version="opset1">
			<data offset="1792" size="4" shape="" element_type="f32"/>
			<output>
				<port id="0" precision="FP32"/>
			</output>
		</layer>
		<layer id="577" name="5577558122581" type="Const" version="opset1">
			<data offset="0" size="4" shape="" element_type="f32"/>
			<output>
				<port id="0" precision="FP32"/>
			</output>
		</layer>
		<layer id="578" name="5578558222881" type="Const" version="opset1">
			<data offset="1792" size="4" shape="" element_type="f32"/>
			<output>
				<port id="0" precision="FP32"/>
			</output>
		</layer>
		<layer id="579" name="4615461925377" type="Const" version="opset1">
			<data offset="0" size="4" shape="" element_type="f32"/>
			<output>
				<port id="0" precision="FP32"/>
			</output>
		</layer>
		<layer id="580" name="4616462024579" type="Const" version="opset1">
			<data offset="1796" size="4" shape="" element_type="f32"/>
			<output>
				<port id="0" precision="FP32"/>
			</output>
		</layer>
		<layer id="581" name="4617462122761" type="Const" version="opset1">
			<data offset="0" size="4" shape="" element_type="f32"/>
			<output>
				<port id="0" precision="FP32"/>
			</output>
		</layer>
		<layer id="582" name="4618462222809" type="Const" version="opset1">
			<data offset="1796" size="4" shape="" element_type="f32"/>
			<output>
				<port id="0" precision="FP32"/>
			</output>
		</layer>
		<layer id="583" name="5635563922710" type="Const" version="opset1">
			<data offset="0" size="4" shape="" element_type="f32"/>
			<output>
				<port id="0" precision="FP32"/>
			</output>
		</layer>
		<layer id="584" name="5636564026196" type="Const" version="opset1">
			<data offset="1800" size="4" shape="" element_type="f32"/>
			<output>
				<port id="0" precision="FP32"/>
			</output>
		</layer>
		<layer id="585" name="5637564125767" type="Const" version="opset1">
			<data offset="0" size="4" shape="" element_type="f32"/>
			<output>
				<port id="0" precision="FP32"/>
			</output>
		</layer>
		<layer id="586" name="5638564223520" type="Const" version="opset1">
			<data offset="1800" size="4" shape="" element_type="f32"/>
			<output>
				<port id="0" precision="FP32"/>
			</output>
		</layer>
		<layer id="587" name="5445544925236" type="Const" version="opset1">
			<data offset="1804" size="4" shape="" element_type="f32"/>
			<output>
				<port id="0" precision="FP32"/>
			</output>
		</layer>
		<layer id="588" name="5446545025014" type="Const" version="opset1">
			<data offset="1808" size="4" shape="" element_type="f32"/>
			<output>
				<port id="0" precision="FP32"/>
			</output>
		</layer>
		<layer id="589" name="5447545125923" type="Const" version="opset1">
			<data offset="1804" size="4" shape="" element_type="f32"/>
			<output>
				<port id="0" precision="FP32"/>
			</output>
		</layer>
		<layer id="590" name="5448545225995" type="Const" version="opset1">
			<data offset="1808" size="4" shape="" element_type="f32"/>
			<output>
				<port id="0" precision="FP32"/>
			</output>
		</layer>
		<layer id="591" name="5715571924714" type="Const" version="opset1">
			<data offset="0" size="4" shape="" element_type="f32"/>
			<output>
				<port id="0" precision="FP32"/>
			</output>
		</layer>
		<layer id="592" name="5716572025407" type="Const" version="opset1">
			<data offset="1812" size="4" shape="" element_type="f32"/>
			<output>
				<port id="0" precision="FP32"/>
			</output>
		</layer>
		<layer id="593" name="5717572125635" type="Const" version="opset1">
			<data offset="0" size="4" shape="" element_type="f32"/>
			<output>
				<port id="0" precision="FP32"/>
			</output>
		</layer>
		<layer id="594" name="5718572225809" type="Const" version="opset1">
			<data offset="1812" size="4" shape="" element_type="f32"/>
			<output>
				<port id="0" precision="FP32"/>
			</output>
		</layer>
		<layer id="595" name="3660366425719" type="Const" version="opset1">
			<data offset="0" size="4" shape="" element_type="f32"/>
			<output>
				<port id="0" precision="FP32"/>
			</output>
		</layer>
		<layer id="596" name="3661366525872" type="Const" version="opset1">
			<data offset="1816" size="4" shape="" element_type="f32"/>
			<output>
				<port id="0" precision="FP32"/>
			</output>
		</layer>
		<layer id="597" name="3662366624891" type="Const" version="opset1">
			<data offset="0" size="4" shape="" element_type="f32"/>
			<output>
				<port id="0" precision="FP32"/>
			</output>
		</layer>
		<layer id="598" name="3663366724369" type="Const" version="opset1">
			<data offset="1816" size="4" shape="" element_type="f32"/>
			<output>
				<port id="0" precision="FP32"/>
			</output>
		</layer>
		<layer id="599" name="5455545922932" type="Const" version="opset1">
			<data offset="0" size="4" shape="" element_type="f32"/>
			<output>
				<port id="0" precision="FP32"/>
			</output>
		</layer>
		<layer id="600" name="5456546023862" type="Const" version="opset1">
			<data offset="1820" size="4" shape="" element_type="f32"/>
			<output>
				<port id="0" precision="FP32"/>
			</output>
		</layer>
		<layer id="601" name="5457546122947" type="Const" version="opset1">
			<data offset="0" size="4" shape="" element_type="f32"/>
			<output>
				<port id="0" precision="FP32"/>
			</output>
		</layer>
		<layer id="602" name="5458546223625" type="Const" version="opset1">
			<data offset="1820" size="4" shape="" element_type="f32"/>
			<output>
				<port id="0" precision="FP32"/>
			</output>
		</layer>
		<layer id="603" name="4515451926058" type="Const" version="opset1">
			<data offset="1824" size="4" shape="" element_type="f32"/>
			<output>
				<port id="0" precision="FP32"/>
			</output>
		</layer>
		<layer id="604" name="4516452023142" type="Const" version="opset1">
			<data offset="1828" size="4" shape="" element_type="f32"/>
			<output>
				<port id="0" precision="FP32"/>
			</output>
		</layer>
		<layer id="605" name="4517452125914" type="Const" version="opset1">
			<data offset="1824" size="4" shape="" element_type="f32"/>
			<output>
				<port id="0" precision="FP32"/>
			</output>
		</layer>
		<layer id="606" name="4518452224228" type="Const" version="opset1">
			<data offset="1828" size="4" shape="" element_type="f32"/>
			<output>
				<port id="0" precision="FP32"/>
			</output>
		</layer>
		<layer id="607" name="3150315425386" type="Const" version="opset1">
			<data offset="0" size="4" shape="" element_type="f32"/>
			<output>
				<port id="0" precision="FP32"/>
			</output>
		</layer>
		<layer id="608" name="3151315523733" type="Const" version="opset1">
			<data offset="1832" size="4" shape="" element_type="f32"/>
			<output>
				<port id="0" precision="FP32"/>
			</output>
		</layer>
		<layer id="609" name="3152315622677" type="Const" version="opset1">
			<data offset="0" size="4" shape="" element_type="f32"/>
			<output>
				<port id="0" precision="FP32"/>
			</output>
		</layer>
		<layer id="610" name="3153315725245" type="Const" version="opset1">
			<data offset="1832" size="4" shape="" element_type="f32"/>
			<output>
				<port id="0" precision="FP32"/>
			</output>
		</layer>
		<layer id="611" name="5185518922527" type="Const" version="opset1">
			<data offset="0" size="4" shape="" element_type="f32"/>
			<output>
				<port id="0" precision="FP32"/>
			</output>
		</layer>
		<layer id="612" name="5186519024915" type="Const" version="opset1">
			<data offset="1836" size="4" shape="" element_type="f32"/>
			<output>
				<port id="0" precision="FP32"/>
			</output>
		</layer>
		<layer id="613" name="5187519124807" type="Const" version="opset1">
			<data offset="0" size="4" shape="" element_type="f32"/>
			<output>
				<port id="0" precision="FP32"/>
			</output>
		</layer>
		<layer id="614" name="5188519226070" type="Const" version="opset1">
			<data offset="1836" size="4" shape="" element_type="f32"/>
			<output>
				<port id="0" precision="FP32"/>
			</output>
		</layer>
		<layer id="615" name="4525452923709" type="Const" version="opset1">
			<data offset="0" size="4" shape="" element_type="f32"/>
			<output>
				<port id="0" precision="FP32"/>
			</output>
		</layer>
		<layer id="616" name="4526453023220" type="Const" version="opset1">
			<data offset="1840" size="4" shape="" element_type="f32"/>
			<output>
				<port id="0" precision="FP32"/>
			</output>
		</layer>
		<layer id="617" name="4527453122962" type="Const" version="opset1">
			<data offset="0" size="4" shape="" element_type="f32"/>
			<output>
				<port id="0" precision="FP32"/>
			</output>
		</layer>
		<layer id="618" name="4528453223049" type="Const" version="opset1">
			<data offset="1840" size="4" shape="" element_type="f32"/>
			<output>
				<port id="0" precision="FP32"/>
			</output>
		</layer>
		<layer id="619" name="3390339423496" type="Const" version="opset1">
			<data offset="1844" size="4" shape="" element_type="f32"/>
			<output>
				<port id="0" precision="FP32"/>
			</output>
		</layer>
		<layer id="620" name="3391339523058" type="Const" version="opset1">
			<data offset="1848" size="4" shape="" element_type="f32"/>
			<output>
				<port id="0" precision="FP32"/>
			</output>
		</layer>
		<layer id="621" name="3392339624231" type="Const" version="opset1">
			<data offset="1844" size="4" shape="" element_type="f32"/>
			<output>
				<port id="0" precision="FP32"/>
			</output>
		</layer>
		<layer id="622" name="3393339723007" type="Const" version="opset1">
			<data offset="1848" size="4" shape="" element_type="f32"/>
			<output>
				<port id="0" precision="FP32"/>
			</output>
		</layer>
		<layer id="623" name="3860386426052" type="Const" version="opset1">
			<data offset="0" size="4" shape="" element_type="f32"/>
			<output>
				<port id="0" precision="FP32"/>
			</output>
		</layer>
		<layer id="624" name="3861386524822" type="Const" version="opset1">
			<data offset="1852" size="4" shape="" element_type="f32"/>
			<output>
				<port id="0" precision="FP32"/>
			</output>
		</layer>
		<layer id="625" name="3862386625161" type="Const" version="opset1">
			<data offset="0" size="4" shape="" element_type="f32"/>
			<output>
				<port id="0" precision="FP32"/>
			</output>
		</layer>
		<layer id="626" name="3863386725101" type="Const" version="opset1">
			<data offset="1852" size="4" shape="" element_type="f32"/>
			<output>
				<port id="0" precision="FP32"/>
			</output>
		</layer>
		<layer id="627" name="5225522923928" type="Const" version="opset1">
			<data offset="0" size="4" shape="" element_type="f32"/>
			<output>
				<port id="0" precision="FP32"/>
			</output>
		</layer>
		<layer id="628" name="5226523024051" type="Const" version="opset1">
			<data offset="1856" size="4" shape="" element_type="f32"/>
			<output>
				<port id="0" precision="FP32"/>
			</output>
		</layer>
		<layer id="629" name="5227523124744" type="Const" version="opset1">
			<data offset="0" size="4" shape="" element_type="f32"/>
			<output>
				<port id="0" precision="FP32"/>
			</output>
		</layer>
		<layer id="630" name="5228523223802" type="Const" version="opset1">
			<data offset="1856" size="4" shape="" element_type="f32"/>
			<output>
				<port id="0" precision="FP32"/>
			</output>
		</layer>
		<layer id="631" name="7406741023883" type="Const" version="opset1">
			<data offset="0" size="4" shape="" element_type="f32"/>
			<output>
				<port id="0" precision="FP32"/>
			</output>
		</layer>
		<layer id="632" name="7407741124312" type="Const" version="opset1">
			<data offset="1860" size="4" shape="" element_type="f32"/>
			<output>
				<port id="0" precision="FP32"/>
			</output>
		</layer>
		<layer id="633" name="7408741222545" type="Const" version="opset1">
			<data offset="0" size="4" shape="" element_type="f32"/>
			<output>
				<port id="0" precision="FP32"/>
			</output>
		</layer>
		<layer id="634" name="7409741325050" type="Const" version="opset1">
			<data offset="1860" size="4" shape="" element_type="f32"/>
			<output>
				<port id="0" precision="FP32"/>
			</output>
		</layer>
		<layer id="635" name="5655565922602" type="Const" version="opset1">
			<data offset="1864" size="4" shape="" element_type="f32"/>
			<output>
				<port id="0" precision="FP32"/>
			</output>
		</layer>
		<layer id="636" name="5656566025317" type="Const" version="opset1">
			<data offset="1868" size="4" shape="" element_type="f32"/>
			<output>
				<port id="0" precision="FP32"/>
			</output>
		</layer>
		<layer id="637" name="5657566123178" type="Const" version="opset1">
			<data offset="1864" size="4" shape="" element_type="f32"/>
			<output>
				<port id="0" precision="FP32"/>
			</output>
		</layer>
		<layer id="638" name="5658566225479" type="Const" version="opset1">
			<data offset="1868" size="4" shape="" element_type="f32"/>
			<output>
				<port id="0" precision="FP32"/>
			</output>
		</layer>
		<layer id="639" name="INPUTS" type="Parameter" version="opset1">
			<data shape="1,3,384,864" element_type="f32"/>
			<output>
				<port id="0" precision="FP32" names="INPUTS">
					<dim>1</dim>
					<dim>3</dim>
					<dim>384</dim>
					<dim>864</dim>
				</port>
			</output>
		</layer>
		<layer id="640" name="data_mul_879873522926" type="Const" version="opset1">
			<data offset="1872" size="12" shape="1,3,1,1" element_type="f32"/>
			<output>
				<port id="0" precision="FP32">
					<dim>1</dim>
					<dim>3</dim>
					<dim>1</dim>
					<dim>1</dim>
				</port>
			</output>
		</layer>
		<layer id="641" name="INPUTS/scale/Fused_Mul_" type="Multiply" version="opset1">
			<data auto_broadcast="numpy"/>
			<input>
				<port id="0">
					<dim>1</dim>
					<dim>3</dim>
					<dim>384</dim>
					<dim>864</dim>
				</port>
				<port id="1">
					<dim>1</dim>
					<dim>3</dim>
					<dim>1</dim>
					<dim>1</dim>
				</port>
			</input>
			<output>
				<port id="2" precision="FP32">
					<dim>1</dim>
					<dim>3</dim>
					<dim>384</dim>
					<dim>864</dim>
				</port>
			</output>
		</layer>
		<layer id="642" name="data_add_880073722938" type="Const" version="opset1">
			<data offset="1884" size="12" shape="1,3,1,1" element_type="f32"/>
			<output>
				<port id="0" precision="FP32">
					<dim>1</dim>
					<dim>3</dim>
					<dim>1</dim>
					<dim>1</dim>
				</port>
			</output>
		</layer>
		<layer id="643" name="INPUTS/mean/Fused_Add_" type="Add" version="opset1">
			<data auto_broadcast="numpy"/>
			<input>
				<port id="0">
					<dim>1</dim>
					<dim>3</dim>
					<dim>384</dim>
					<dim>864</dim>
				</port>
				<port id="1">
					<dim>1</dim>
					<dim>3</dim>
					<dim>1</dim>
					<dim>1</dim>
				</port>
			</input>
			<output>
				<port id="2" precision="FP32">
					<dim>1</dim>
					<dim>3</dim>
					<dim>384</dim>
					<dim>864</dim>
				</port>
			</output>
		</layer>
		<layer id="644" name="Conv_0/WithoutBiases/fq_input_0" type="FakeQuantize" version="opset1">
			<data levels="256" auto_broadcast="numpy"/>
			<input>
				<port id="0">
					<dim>1</dim>
					<dim>3</dim>
					<dim>384</dim>
					<dim>864</dim>
				</port>
				<port id="1"/>
				<port id="2"/>
				<port id="3"/>
				<port id="4"/>
			</input>
			<output>
				<port id="5" precision="FP32">
					<dim>1</dim>
					<dim>3</dim>
					<dim>384</dim>
					<dim>864</dim>
				</port>
			</output>
		</layer>
		<layer id="645" name="108273912032/quantized1648626136" type="Const" version="opset1">
			<data offset="1896" size="9408" shape="64,3,7,7" element_type="i8"/>
			<output>
				<port id="0" precision="I8">
					<dim>64</dim>
					<dim>3</dim>
					<dim>7</dim>
					<dim>7</dim>
				</port>
			</output>
		</layer>
		<layer id="646" name="108273912032/quantized/to_f32" type="Convert" version="opset1">
			<data destination_type="f32"/>
			<input>
				<port id="0">
					<dim>64</dim>
					<dim>3</dim>
					<dim>7</dim>
					<dim>7</dim>
				</port>
			</input>
			<output>
				<port id="1" precision="FP32">
					<dim>64</dim>
					<dim>3</dim>
					<dim>7</dim>
					<dim>7</dim>
				</port>
			</output>
		</layer>
		<layer id="647" name="Conv_0/WithoutBiases/fq_weights_1/zero_point1650523595" type="Const" version="opset1">
			<data offset="11304" size="256" shape="64,1,1,1" element_type="f32"/>
			<output>
				<port id="0" precision="FP32">
					<dim>64</dim>
					<dim>1</dim>
					<dim>1</dim>
					<dim>1</dim>
				</port>
			</output>
		</layer>
		<layer id="648" name="Conv_0/WithoutBiases/fq_weights_1/minus_zp" type="Subtract" version="opset1">
			<data auto_broadcast="numpy"/>
			<input>
				<port id="0">
					<dim>64</dim>
					<dim>3</dim>
					<dim>7</dim>
					<dim>7</dim>
				</port>
				<port id="1">
					<dim>64</dim>
					<dim>1</dim>
					<dim>1</dim>
					<dim>1</dim>
				</port>
			</input>
			<output>
				<port id="2" precision="FP32">
					<dim>64</dim>
					<dim>3</dim>
					<dim>7</dim>
					<dim>7</dim>
				</port>
			</output>
		</layer>
		<layer id="649" name="Conv_0/WithoutBiases/fq_weights_1/scale1649424030" type="Const" version="opset1">
			<data offset="11560" size="256" shape="64,1,1,1" element_type="f32"/>
			<output>
				<port id="0" precision="FP32">
					<dim>64</dim>
					<dim>1</dim>
					<dim>1</dim>
					<dim>1</dim>
				</port>
			</output>
		</layer>
		<layer id="650" name="Conv_0/WithoutBiases/fq_weights_1/mulpiply_by_scale" type="Multiply" version="opset1">
			<data auto_broadcast="numpy"/>
			<input>
				<port id="0">
					<dim>64</dim>
					<dim>3</dim>
					<dim>7</dim>
					<dim>7</dim>
				</port>
				<port id="1">
					<dim>64</dim>
					<dim>1</dim>
					<dim>1</dim>
					<dim>1</dim>
				</port>
			</input>
			<output>
				<port id="2" precision="FP32">
					<dim>64</dim>
					<dim>3</dim>
					<dim>7</dim>
					<dim>7</dim>
				</port>
			</output>
		</layer>
		<layer id="651" name="Conv_0/WithoutBiases" type="Convolution" version="opset1">
			<data auto_pad="explicit" strides="2,2" dilations="1,1" pads_begin="3,3" pads_end="3,3"/>
			<input>
				<port id="0">
					<dim>1</dim>
					<dim>3</dim>
					<dim>384</dim>
					<dim>864</dim>
				</port>
				<port id="1">
					<dim>64</dim>
					<dim>3</dim>
					<dim>7</dim>
					<dim>7</dim>
				</port>
			</input>
			<output>
				<port id="2" precision="FP32">
					<dim>1</dim>
					<dim>64</dim>
					<dim>192</dim>
					<dim>432</dim>
				</port>
			</output>
		</layer>
		<layer id="652" name="Conv_0/Dims496074124888" type="Const" version="opset1">
			<data offset="11816" size="256" shape="1,64,1,1" element_type="f32"/>
			<output>
				<port id="0" precision="FP32">
					<dim>1</dim>
					<dim>64</dim>
					<dim>1</dim>
					<dim>1</dim>
				</port>
			</output>
		</layer>
		<layer id="653" name="Conv_0" type="Add" version="opset1">
			<data auto_broadcast="numpy"/>
			<input>
				<port id="0">
					<dim>1</dim>
					<dim>64</dim>
					<dim>192</dim>
					<dim>432</dim>
				</port>
				<port id="1">
					<dim>1</dim>
					<dim>64</dim>
					<dim>1</dim>
					<dim>1</dim>
				</port>
			</input>
			<output>
				<port id="2" precision="FP32" names="1081">
					<dim>1</dim>
					<dim>64</dim>
					<dim>192</dim>
					<dim>432</dim>
				</port>
			</output>
		</layer>
		<layer id="654" name="Relu_1" type="ReLU" version="opset1">
			<input>
				<port id="0">
					<dim>1</dim>
					<dim>64</dim>
					<dim>192</dim>
					<dim>432</dim>
				</port>
			</input>
			<output>
				<port id="1" precision="FP32" names="669">
					<dim>1</dim>
					<dim>64</dim>
					<dim>192</dim>
					<dim>432</dim>
				</port>
			</output>
		</layer>
		<layer id="655" name="MaxPool_2/fq_input_0" type="FakeQuantize" version="opset1">
			<data levels="256" auto_broadcast="numpy"/>
			<input>
				<port id="0">
					<dim>1</dim>
					<dim>64</dim>
					<dim>192</dim>
					<dim>432</dim>
				</port>
				<port id="1"/>
				<port id="2"/>
				<port id="3"/>
				<port id="4"/>
			</input>
			<output>
				<port id="5" precision="FP32">
					<dim>1</dim>
					<dim>64</dim>
					<dim>192</dim>
					<dim>432</dim>
				</port>
			</output>
		</layer>
		<layer id="656" name="MaxPool_2" type="MaxPool" version="opset1">
			<data strides="2,2" kernel="3,3" pads_begin="1,1" pads_end="1,1" rounding_type="floor" auto_pad="explicit"/>
			<input>
				<port id="0">
					<dim>1</dim>
					<dim>64</dim>
					<dim>192</dim>
					<dim>432</dim>
				</port>
			</input>
			<output>
				<port id="1" precision="FP32" names="670">
					<dim>1</dim>
					<dim>64</dim>
					<dim>96</dim>
					<dim>216</dim>
				</port>
			</output>
		</layer>
		<layer id="657" name="108574512034/quantized1684622413" type="Const" version="opset1">
			<data offset="12072" size="16384" shape="256,64,1,1" element_type="i8"/>
			<output>
				<port id="0" precision="I8">
					<dim>256</dim>
					<dim>64</dim>
					<dim>1</dim>
					<dim>1</dim>
				</port>
			</output>
		</layer>
		<layer id="658" name="108574512034/quantized/to_f32" type="Convert" version="opset1">
			<data destination_type="f32"/>
			<input>
				<port id="0">
					<dim>256</dim>
					<dim>64</dim>
					<dim>1</dim>
					<dim>1</dim>
				</port>
			</input>
			<output>
				<port id="1" precision="FP32">
					<dim>256</dim>
					<dim>64</dim>
					<dim>1</dim>
					<dim>1</dim>
				</port>
			</output>
		</layer>
		<layer id="659" name="Conv_3/WithoutBiases/fq_weights_1/zero_point1686523577" type="Const" version="opset1">
			<data offset="28456" size="1024" shape="256,1,1,1" element_type="f32"/>
			<output>
				<port id="0" precision="FP32">
					<dim>256</dim>
					<dim>1</dim>
					<dim>1</dim>
					<dim>1</dim>
				</port>
			</output>
		</layer>
		<layer id="660" name="Conv_3/WithoutBiases/fq_weights_1/minus_zp" type="Subtract" version="opset1">
			<data auto_broadcast="numpy"/>
			<input>
				<port id="0">
					<dim>256</dim>
					<dim>64</dim>
					<dim>1</dim>
					<dim>1</dim>
				</port>
				<port id="1">
					<dim>256</dim>
					<dim>1</dim>
					<dim>1</dim>
					<dim>1</dim>
				</port>
			</input>
			<output>
				<port id="2" precision="FP32">
					<dim>256</dim>
					<dim>64</dim>
					<dim>1</dim>
					<dim>1</dim>
				</port>
			</output>
		</layer>
		<layer id="661" name="Conv_3/WithoutBiases/fq_weights_1/scale1685422911" type="Const" version="opset1">
			<data offset="29480" size="1024" shape="256,1,1,1" element_type="f32"/>
			<output>
				<port id="0" precision="FP32">
					<dim>256</dim>
					<dim>1</dim>
					<dim>1</dim>
					<dim>1</dim>
				</port>
			</output>
		</layer>
		<layer id="662" name="Conv_3/WithoutBiases/fq_weights_1/mulpiply_by_scale" type="Multiply" version="opset1">
			<data auto_broadcast="numpy"/>
			<input>
				<port id="0">
					<dim>256</dim>
					<dim>64</dim>
					<dim>1</dim>
					<dim>1</dim>
				</port>
				<port id="1">
					<dim>256</dim>
					<dim>1</dim>
					<dim>1</dim>
					<dim>1</dim>
				</port>
			</input>
			<output>
				<port id="2" precision="FP32">
					<dim>256</dim>
					<dim>64</dim>
					<dim>1</dim>
					<dim>1</dim>
				</port>
			</output>
		</layer>
		<layer id="663" name="Conv_3/WithoutBiases" type="Convolution" version="opset1">
			<data auto_pad="explicit" strides="1,1" dilations="1,1" pads_begin="0,0" pads_end="0,0"/>
			<input>
				<port id="0">
					<dim>1</dim>
					<dim>64</dim>
					<dim>96</dim>
					<dim>216</dim>
				</port>
				<port id="1">
					<dim>256</dim>
					<dim>64</dim>
					<dim>1</dim>
					<dim>1</dim>
				</port>
			</input>
			<output>
				<port id="2" precision="FP32">
					<dim>1</dim>
					<dim>256</dim>
					<dim>96</dim>
					<dim>216</dim>
				</port>
			</output>
		</layer>
		<layer id="664" name="Conv_3/Dims566874724072" type="Const" version="opset1">
			<data offset="30504" size="1024" shape="1,256,1,1" element_type="f32"/>
			<output>
				<port id="0" precision="FP32">
					<dim>1</dim>
					<dim>256</dim>
					<dim>1</dim>
					<dim>1</dim>
				</port>
			</output>
		</layer>
		<layer id="665" name="Conv_3" type="Add" version="opset1">
			<data auto_broadcast="numpy"/>
			<input>
				<port id="0">
					<dim>1</dim>
					<dim>256</dim>
					<dim>96</dim>
					<dim>216</dim>
				</port>
				<port id="1">
					<dim>1</dim>
					<dim>256</dim>
					<dim>1</dim>
					<dim>1</dim>
				</port>
			</input>
			<output>
				<port id="2" precision="FP32" names="1084">
					<dim>1</dim>
					<dim>256</dim>
					<dim>96</dim>
					<dim>216</dim>
				</port>
			</output>
		</layer>
		<layer id="666" name="Relu_4" type="ReLU" version="opset1">
			<input>
				<port id="0">
					<dim>1</dim>
					<dim>256</dim>
					<dim>96</dim>
					<dim>216</dim>
				</port>
			</input>
			<output>
				<port id="1" precision="FP32" names="673">
					<dim>1</dim>
					<dim>256</dim>
					<dim>96</dim>
					<dim>216</dim>
				</port>
			</output>
		</layer>
		<layer id="667" name="Conv_5/WithoutBiases/fq_input_0" type="FakeQuantize" version="opset1">
			<data levels="256" auto_broadcast="numpy"/>
			<input>
				<port id="0">
					<dim>1</dim>
					<dim>256</dim>
					<dim>96</dim>
					<dim>216</dim>
				</port>
				<port id="1"/>
				<port id="2"/>
				<port id="3"/>
				<port id="4"/>
			</input>
			<output>
				<port id="5" precision="FP32">
					<dim>1</dim>
					<dim>256</dim>
					<dim>96</dim>
					<dim>216</dim>
				</port>
			</output>
		</layer>
		<layer id="668" name="19757/value1975924327" type="Const" version="opset1">
			<data offset="31528" size="40" shape="5" element_type="i64"/>
			<output>
				<port id="0" precision="I64">
					<dim>5</dim>
				</port>
			</output>
		</layer>
		<layer id="669" name="108875012036/quantized1369625455" type="Const" version="opset1">
			<data offset="31568" size="18432" shape="256,8,3,3" element_type="i8"/>
			<output>
				<port id="0" precision="I8">
					<dim>256</dim>
					<dim>8</dim>
					<dim>3</dim>
					<dim>3</dim>
				</port>
			</output>
		</layer>
		<layer id="670" name="108875012036/quantized/to_f32" type="Convert" version="opset1">
			<data destination_type="f32"/>
			<input>
				<port id="0">
					<dim>256</dim>
					<dim>8</dim>
					<dim>3</dim>
					<dim>3</dim>
				</port>
			</input>
			<output>
				<port id="1" precision="FP32">
					<dim>256</dim>
					<dim>8</dim>
					<dim>3</dim>
					<dim>3</dim>
				</port>
			</output>
		</layer>
		<layer id="671" name="Conv_5/WithoutBiases/fq_weights_1/zero_point1371522998" type="Const" version="opset1">
			<data offset="50000" size="1024" shape="256,1,1,1" element_type="f32"/>
			<output>
				<port id="0" precision="FP32">
					<dim>256</dim>
					<dim>1</dim>
					<dim>1</dim>
					<dim>1</dim>
				</port>
			</output>
		</layer>
		<layer id="672" name="Conv_5/WithoutBiases/fq_weights_1/minus_zp" type="Subtract" version="opset1">
			<data auto_broadcast="numpy"/>
			<input>
				<port id="0">
					<dim>256</dim>
					<dim>8</dim>
					<dim>3</dim>
					<dim>3</dim>
				</port>
				<port id="1">
					<dim>256</dim>
					<dim>1</dim>
					<dim>1</dim>
					<dim>1</dim>
				</port>
			</input>
			<output>
				<port id="2" precision="FP32">
					<dim>256</dim>
					<dim>8</dim>
					<dim>3</dim>
					<dim>3</dim>
				</port>
			</output>
		</layer>
		<layer id="673" name="Conv_5/WithoutBiases/fq_weights_1/scale1370424273" type="Const" version="opset1">
			<data offset="51024" size="1024" shape="256,1,1,1" element_type="f32"/>
			<output>
				<port id="0" precision="FP32">
					<dim>256</dim>
					<dim>1</dim>
					<dim>1</dim>
					<dim>1</dim>
				</port>
			</output>
		</layer>
		<layer id="674" name="Conv_5/WithoutBiases/fq_weights_1/mulpiply_by_scale" type="Multiply" version="opset1">
			<data auto_broadcast="numpy"/>
			<input>
				<port id="0">
					<dim>256</dim>
					<dim>8</dim>
					<dim>3</dim>
					<dim>3</dim>
				</port>
				<port id="1">
					<dim>256</dim>
					<dim>1</dim>
					<dim>1</dim>
					<dim>1</dim>
				</port>
			</input>
			<output>
				<port id="2" precision="FP32">
					<dim>256</dim>
					<dim>8</dim>
					<dim>3</dim>
					<dim>3</dim>
				</port>
			</output>
		</layer>
		<layer id="675" name="19757" type="Reshape" version="opset1">
			<data special_zero="true"/>
			<input>
				<port id="0">
					<dim>256</dim>
					<dim>8</dim>
					<dim>3</dim>
					<dim>3</dim>
				</port>
				<port id="1">
					<dim>5</dim>
				</port>
			</input>
			<output>
				<port id="2" precision="FP32">
					<dim>32</dim>
					<dim>8</dim>
					<dim>8</dim>
					<dim>3</dim>
					<dim>3</dim>
				</port>
			</output>
		</layer>
		<layer id="676" name="Conv_5/WithoutBiases" type="GroupConvolution" version="opset1">
			<data auto_pad="explicit" strides="1,1" dilations="1,1" pads_begin="1,1" pads_end="1,1"/>
			<input>
				<port id="0">
					<dim>1</dim>
					<dim>256</dim>
					<dim>96</dim>
					<dim>216</dim>
				</port>
				<port id="1">
					<dim>32</dim>
					<dim>8</dim>
					<dim>8</dim>
					<dim>3</dim>
					<dim>3</dim>
				</port>
			</input>
			<output>
				<port id="2" precision="FP32">
					<dim>1</dim>
					<dim>256</dim>
					<dim>96</dim>
					<dim>216</dim>
				</port>
			</output>
		</layer>
		<layer id="677" name="Conv_5/Dims513475222467" type="Const" version="opset1">
			<data offset="52048" size="1024" shape="1,256,1,1" element_type="f32"/>
			<output>
				<port id="0" precision="FP32">
					<dim>1</dim>
					<dim>256</dim>
					<dim>1</dim>
					<dim>1</dim>
				</port>
			</output>
		</layer>
		<layer id="678" name="Conv_5" type="Add" version="opset1">
			<data auto_broadcast="numpy"/>
			<input>
				<port id="0">
					<dim>1</dim>
					<dim>256</dim>
					<dim>96</dim>
					<dim>216</dim>
				</port>
				<port id="1">
					<dim>1</dim>
					<dim>256</dim>
					<dim>1</dim>
					<dim>1</dim>
				</port>
			</input>
			<output>
				<port id="2" precision="FP32" names="1087">
					<dim>1</dim>
					<dim>256</dim>
					<dim>96</dim>
					<dim>216</dim>
				</port>
			</output>
		</layer>
		<layer id="679" name="Relu_6" type="ReLU" version="opset1">
			<input>
				<port id="0">
					<dim>1</dim>
					<dim>256</dim>
					<dim>96</dim>
					<dim>216</dim>
				</port>
			</input>
			<output>
				<port id="1" precision="FP32" names="676">
					<dim>1</dim>
					<dim>256</dim>
					<dim>96</dim>
					<dim>216</dim>
				</port>
			</output>
		</layer>
		<layer id="680" name="Conv_7/WithoutBiases/fq_input_0" type="FakeQuantize" version="opset1">
			<data levels="256" auto_broadcast="numpy"/>
			<input>
				<port id="0">
					<dim>1</dim>
					<dim>256</dim>
					<dim>96</dim>
					<dim>216</dim>
				</port>
				<port id="1"/>
				<port id="2"/>
				<port id="3"/>
				<port id="4"/>
			</input>
			<output>
				<port id="5" precision="FP32">
					<dim>1</dim>
					<dim>256</dim>
					<dim>96</dim>
					<dim>216</dim>
				</port>
			</output>
		</layer>
		<layer id="681" name="109175512038/quantized1507625977" type="Const" version="opset1">
			<data offset="53072" size="65536" shape="256,256,1,1" element_type="i8"/>
			<output>
				<port id="0" precision="I8">
					<dim>256</dim>
					<dim>256</dim>
					<dim>1</dim>
					<dim>1</dim>
				</port>
			</output>
		</layer>
		<layer id="682" name="109175512038/quantized/to_f32" type="Convert" version="opset1">
			<data destination_type="f32"/>
			<input>
				<port id="0">
					<dim>256</dim>
					<dim>256</dim>
					<dim>1</dim>
					<dim>1</dim>
				</port>
			</input>
			<output>
				<port id="1" precision="FP32">
					<dim>256</dim>
					<dim>256</dim>
					<dim>1</dim>
					<dim>1</dim>
				</port>
			</output>
		</layer>
		<layer id="683" name="Conv_7/WithoutBiases/fq_weights_1/zero_point1509524981" type="Const" version="opset1">
			<data offset="118608" size="1024" shape="256,1,1,1" element_type="f32"/>
			<output>
				<port id="0" precision="FP32">
					<dim>256</dim>
					<dim>1</dim>
					<dim>1</dim>
					<dim>1</dim>
				</port>
			</output>
		</layer>
		<layer id="684" name="Conv_7/WithoutBiases/fq_weights_1/minus_zp" type="Subtract" version="opset1">
			<data auto_broadcast="numpy"/>
			<input>
				<port id="0">
					<dim>256</dim>
					<dim>256</dim>
					<dim>1</dim>
					<dim>1</dim>
				</port>
				<port id="1">
					<dim>256</dim>
					<dim>1</dim>
					<dim>1</dim>
					<dim>1</dim>
				</port>
			</input>
			<output>
				<port id="2" precision="FP32">
					<dim>256</dim>
					<dim>256</dim>
					<dim>1</dim>
					<dim>1</dim>
				</port>
			</output>
		</layer>
		<layer id="685" name="Conv_7/WithoutBiases/fq_weights_1/scale1508424645" type="Const" version="opset1">
			<data offset="119632" size="1024" shape="256,1,1,1" element_type="f32"/>
			<output>
				<port id="0" precision="FP32">
					<dim>256</dim>
					<dim>1</dim>
					<dim>1</dim>
					<dim>1</dim>
				</port>
			</output>
		</layer>
…
		<edge from-layer="1800" from-port="0" to-layer="1801" to-port="1"/>
		<edge from-layer="1795" from-port="5" to-layer="1802" to-port="0"/>
		<edge from-layer="1801" from-port="2" to-layer="1802" to-port="1"/>
		<edge from-layer="1802" from-port="2" to-layer="1804" to-port="0"/>
		<edge from-layer="1803" from-port="0" to-layer="1804" to-port="1"/>
		<edge from-layer="1804" from-port="2" to-layer="1805" to-port="0"/>
		<edge from-layer="155" from-port="0" to-layer="1805" to-port="1"/>
		<edge from-layer="156" from-port="0" to-layer="1805" to-port="2"/>
		<edge from-layer="157" from-port="0" to-layer="1805" to-port="3"/>
		<edge from-layer="158" from-port="0" to-layer="1805" to-port="4"/>
		<edge from-layer="1805" from-port="5" to-layer="1806" to-port="0"/>
		<edge from-layer="1771" from-port="5" to-layer="1806" to-port="1"/>
		<edge from-layer="1806" from-port="2" to-layer="1807" to-port="0"/>
		<edge from-layer="1807" from-port="1" to-layer="1808" to-port="0"/>
		<edge from-layer="151" from-port="0" to-layer="1808" to-port="1"/>
		<edge from-layer="152" from-port="0" to-layer="1808" to-port="2"/>
		<edge from-layer="153" from-port="0" to-layer="1808" to-port="3"/>
		<edge from-layer="154" from-port="0" to-layer="1808" to-port="4"/>
		<edge from-layer="1809" from-port="0" to-layer="1810" to-port="0"/>
		<edge from-layer="1810" from-port="1" to-layer="1812" to-port="0"/>
		<edge from-layer="1811" from-port="0" to-layer="1812" to-port="1"/>
		<edge from-layer="1812" from-port="2" to-layer="1814" to-port="0"/>
		<edge from-layer="1813" from-port="0" to-layer="1814" to-port="1"/>
		<edge from-layer="1808" from-port="5" to-layer="1815" to-port="0"/>
		<edge from-layer="1814" from-port="2" to-layer="1815" to-port="1"/>
		<edge from-layer="1815" from-port="2" to-layer="1817" to-port="0"/>
		<edge from-layer="1816" from-port="0" to-layer="1817" to-port="1"/>
		<edge from-layer="1817" from-port="2" to-layer="1818" to-port="0"/>
		<edge from-layer="1818" from-port="1" to-layer="1819" to-port="0"/>
		<edge from-layer="147" from-port="0" to-layer="1819" to-port="1"/>
		<edge from-layer="148" from-port="0" to-layer="1819" to-port="2"/>
		<edge from-layer="149" from-port="0" to-layer="1819" to-port="3"/>
		<edge from-layer="150" from-port="0" to-layer="1819" to-port="4"/>
		<edge from-layer="1821" from-port="0" to-layer="1822" to-port="0"/>
		<edge from-layer="1822" from-port="1" to-layer="1824" to-port="0"/>
		<edge from-layer="1823" from-port="0" to-layer="1824" to-port="1"/>
		<edge from-layer="1824" from-port="2" to-layer="1826" to-port="0"/>
		<edge from-layer="1825" from-port="0" to-layer="1826" to-port="1"/>
		<edge from-layer="1826" from-port="2" to-layer="1827" to-port="0"/>
		<edge from-layer="1820" from-port="0" to-layer="1827" to-port="1"/>
		<edge from-layer="1819" from-port="5" to-layer="1828" to-port="0"/>
		<edge from-layer="1827" from-port="2" to-layer="1828" to-port="1"/>
		<edge from-layer="1828" from-port="2" to-layer="1830" to-port="0"/>
		<edge from-layer="1829" from-port="0" to-layer="1830" to-port="1"/>
		<edge from-layer="1830" from-port="2" to-layer="1831" to-port="0"/>
		<edge from-layer="1831" from-port="1" to-layer="1832" to-port="0"/>
		<edge from-layer="143" from-port="0" to-layer="1832" to-port="1"/>
		<edge from-layer="144" from-port="0" to-layer="1832" to-port="2"/>
		<edge from-layer="145" from-port="0" to-layer="1832" to-port="3"/>
		<edge from-layer="146" from-port="0" to-layer="1832" to-port="4"/>
		<edge from-layer="1833" from-port="0" to-layer="1834" to-port="0"/>
		<edge from-layer="1834" from-port="1" to-layer="1836" to-port="0"/>
		<edge from-layer="1835" from-port="0" to-layer="1836" to-port="1"/>
		<edge from-layer="1836" from-port="2" to-layer="1838" to-port="0"/>
		<edge from-layer="1837" from-port="0" to-layer="1838" to-port="1"/>
		<edge from-layer="1832" from-port="5" to-layer="1839" to-port="0"/>
		<edge from-layer="1838" from-port="2" to-layer="1839" to-port="1"/>
		<edge from-layer="1839" from-port="2" to-layer="1841" to-port="0"/>
		<edge from-layer="1840" from-port="0" to-layer="1841" to-port="1"/>
		<edge from-layer="1841" from-port="2" to-layer="1842" to-port="0"/>
		<edge from-layer="139" from-port="0" to-layer="1842" to-port="1"/>
		<edge from-layer="140" from-port="0" to-layer="1842" to-port="2"/>
		<edge from-layer="141" from-port="0" to-layer="1842" to-port="3"/>
		<edge from-layer="142" from-port="0" to-layer="1842" to-port="4"/>
		<edge from-layer="1847" from-port="0" to-layer="1848" to-port="0"/>
		<edge from-layer="1848" from-port="1" to-layer="1850" to-port="0"/>
		<edge from-layer="1849" from-port="0" to-layer="1850" to-port="1"/>
		<edge from-layer="1850" from-port="2" to-layer="1852" to-port="0"/>
		<edge from-layer="1851" from-port="0" to-layer="1852" to-port="1"/>
		<edge from-layer="1808" from-port="5" to-layer="1853" to-port="0"/>
		<edge from-layer="1852" from-port="2" to-layer="1853" to-port="1"/>
		<edge from-layer="1853" from-port="2" to-layer="1855" to-port="0"/>
		<edge from-layer="1854" from-port="0" to-layer="1855" to-port="1"/>
		<edge from-layer="1855" from-port="2" to-layer="1856" to-port="0"/>
		<edge from-layer="1843" from-port="0" to-layer="1856" to-port="1"/>
		<edge from-layer="1844" from-port="0" to-layer="1856" to-port="2"/>
		<edge from-layer="1845" from-port="0" to-layer="1856" to-port="3"/>
		<edge from-layer="1846" from-port="0" to-layer="1856" to-port="4"/>
		<edge from-layer="1842" from-port="5" to-layer="1857" to-port="0"/>
		<edge from-layer="1856" from-port="5" to-layer="1857" to-port="1"/>
		<edge from-layer="1857" from-port="2" to-layer="1858" to-port="0"/>
		<edge from-layer="1858" from-port="1" to-layer="1859" to-port="0"/>
		<edge from-layer="135" from-port="0" to-layer="1859" to-port="1"/>
		<edge from-layer="136" from-port="0" to-layer="1859" to-port="2"/>
		<edge from-layer="137" from-port="0" to-layer="1859" to-port="3"/>
		<edge from-layer="138" from-port="0" to-layer="1859" to-port="4"/>
		<edge from-layer="1860" from-port="0" to-layer="1861" to-port="0"/>
		<edge from-layer="1861" from-port="1" to-layer="1863" to-port="0"/>
		<edge from-layer="1862" from-port="0" to-layer="1863" to-port="1"/>
		<edge from-layer="1863" from-port="2" to-layer="1865" to-port="0"/>
		<edge from-layer="1864" from-port="0" to-layer="1865" to-port="1"/>
		<edge from-layer="1859" from-port="5" to-layer="1866" to-port="0"/>
		<edge from-layer="1865" from-port="2" to-layer="1866" to-port="1"/>
		<edge from-layer="1866" from-port="2" to-layer="1868" to-port="0"/>
		<edge from-layer="1867" from-port="0" to-layer="1868" to-port="1"/>
		<edge from-layer="1868" from-port="2" to-layer="1869" to-port="0"/>
		<edge from-layer="1869" from-port="1" to-layer="1870" to-port="0"/>
		<edge from-layer="131" from-port="0" to-layer="1870" to-port="1"/>
		<edge from-layer="132" from-port="0" to-layer="1870" to-port="2"/>
		<edge from-layer="133" from-port="0" to-layer="1870" to-port="3"/>
		<edge from-layer="134" from-port="0" to-layer="1870" to-port="4"/>
		<edge from-layer="1872" from-port="0" to-layer="1873" to-port="0"/>
		<edge from-layer="1873" from-port="1" to-layer="1875" to-port="0"/>
		<edge from-layer="1874" from-port="0" to-layer="1875" to-port="1"/>
		<edge from-layer="1875" from-port="2" to-layer="1877" to-port="0"/>
		<edge from-layer="1876" from-port="0" to-layer="1877" to-port="1"/>
		<edge from-layer="1877" from-port="2" to-layer="1878" to-port="0"/>
		<edge from-layer="1871" from-port="0" to-layer="1878" to-port="1"/>
		<edge from-layer="1870" from-port="5" to-layer="1879" to-port="0"/>
		<edge from-layer="1878" from-port="2" to-layer="1879" to-port="1"/>
		<edge from-layer="1879" from-port="2" to-layer="1881" to-port="0"/>
		<edge from-layer="1880" from-port="0" to-layer="1881" to-port="1"/>
		<edge from-layer="1881" from-port="2" to-layer="1882" to-port="0"/>
		<edge from-layer="1882" from-port="1" to-layer="1883" to-port="0"/>
		<edge from-layer="127" from-port="0" to-layer="1883" to-port="1"/>
		<edge from-layer="128" from-port="0" to-layer="1883" to-port="2"/>
		<edge from-layer="129" from-port="0" to-layer="1883" to-port="3"/>
		<edge from-layer="130" from-port="0" to-layer="1883" to-port="4"/>
		<edge from-layer="1884" from-port="0" to-layer="1885" to-port="0"/>
		<edge from-layer="1885" from-port="1" to-layer="1887" to-port="0"/>
		<edge from-layer="1886" from-port="0" to-layer="1887" to-port="1"/>
		<edge from-layer="1887" from-port="2" to-layer="1889" to-port="0"/>
		<edge from-layer="1888" from-port="0" to-layer="1889" to-port="1"/>
		<edge from-layer="1883" from-port="5" to-layer="1890" to-port="0"/>
		<edge from-layer="1889" from-port="2" to-layer="1890" to-port="1"/>
		<edge from-layer="1890" from-port="2" to-layer="1892" to-port="0"/>
		<edge from-layer="1891" from-port="0" to-layer="1892" to-port="1"/>
		<edge from-layer="1892" from-port="2" to-layer="1893" to-port="0"/>
		<edge from-layer="123" from-port="0" to-layer="1893" to-port="1"/>
		<edge from-layer="124" from-port="0" to-layer="1893" to-port="2"/>
		<edge from-layer="125" from-port="0" to-layer="1893" to-port="3"/>
		<edge from-layer="126" from-port="0" to-layer="1893" to-port="4"/>
		<edge from-layer="1893" from-port="5" to-layer="1894" to-port="0"/>
		<edge from-layer="1859" from-port="5" to-layer="1894" to-port="1"/>
		<edge from-layer="1894" from-port="2" to-layer="1895" to-port="0"/>
		<edge from-layer="1895" from-port="1" to-layer="1896" to-port="0"/>
		<edge from-layer="119" from-port="0" to-layer="1896" to-port="1"/>
		<edge from-layer="120" from-port="0" to-layer="1896" to-port="2"/>
		<edge from-layer="121" from-port="0" to-layer="1896" to-port="3"/>
		<edge from-layer="122" from-port="0" to-layer="1896" to-port="4"/>
		<edge from-layer="1897" from-port="0" to-layer="1898" to-port="0"/>
		<edge from-layer="1898" from-port="1" to-layer="1900" to-port="0"/>
		<edge from-layer="1899" from-port="0" to-layer="1900" to-port="1"/>
		<edge from-layer="1900" from-port="2" to-layer="1902" to-port="0"/>
		<edge from-layer="1901" from-port="0" to-layer="1902" to-port="1"/>
		<edge from-layer="1896" from-port="5" to-layer="1903" to-port="0"/>
		<edge from-layer="1902" from-port="2" to-layer="1903" to-port="1"/>
		<edge from-layer="1903" from-port="2" to-layer="1905" to-port="0"/>
		<edge from-layer="1904" from-port="0" to-layer="1905" to-port="1"/>
		<edge from-layer="1905" from-port="2" to-layer="1906" to-port="0"/>
		<edge from-layer="1906" from-port="1" to-layer="1907" to-port="0"/>
		<edge from-layer="115" from-port="0" to-layer="1907" to-port="1"/>
		<edge from-layer="116" from-port="0" to-layer="1907" to-port="2"/>
		<edge from-layer="117" from-port="0" to-layer="1907" to-port="3"/>
		<edge from-layer="118" from-port="0" to-layer="1907" to-port="4"/>
		<edge from-layer="1909" from-port="0" to-layer="1910" to-port="0"/>
		<edge from-layer="1910" from-port="1" to-layer="1912" to-port="0"/>
		<edge from-layer="1911" from-port="0" to-layer="1912" to-port="1"/>
		<edge from-layer="1912" from-port="2" to-layer="1914" to-port="0"/>
		<edge from-layer="1913" from-port="0" to-layer="1914" to-port="1"/>
		<edge from-layer="1914" from-port="2" to-layer="1915" to-port="0"/>
		<edge from-layer="1908" from-port="0" to-layer="1915" to-port="1"/>
		<edge from-layer="1907" from-port="5" to-layer="1916" to-port="0"/>
		<edge from-layer="1915" from-port="2" to-layer="1916" to-port="1"/>
		<edge from-layer="1916" from-port="2" to-layer="1918" to-port="0"/>
		<edge from-layer="1917" from-port="0" to-layer="1918" to-port="1"/>
		<edge from-layer="1918" from-port="2" to-layer="1919" to-port="0"/>
		<edge from-layer="1919" from-port="1" to-layer="1920" to-port="0"/>
		<edge from-layer="111" from-port="0" to-layer="1920" to-port="1"/>
		<edge from-layer="112" from-port="0" to-layer="1920" to-port="2"/>
		<edge from-layer="113" from-port="0" to-layer="1920" to-port="3"/>
		<edge from-layer="114" from-port="0" to-layer="1920" to-port="4"/>
		<edge from-layer="1921" from-port="0" to-layer="1922" to-port="0"/>
		<edge from-layer="1922" from-port="1" to-layer="1924" to-port="0"/>
		<edge from-layer="1923" from-port="0" to-layer="1924" to-port="1"/>
		<edge from-layer="1924" from-port="2" to-layer="1926" to-port="0"/>
		<edge from-layer="1925" from-port="0" to-layer="1926" to-port="1"/>
		<edge from-layer="1920" from-port="5" to-layer="1927" to-port="0"/>
		<edge from-layer="1926" from-port="2" to-layer="1927" to-port="1"/>
		<edge from-layer="1927" from-port="2" to-layer="1929" to-port="0"/>
		<edge from-layer="1928" from-port="0" to-layer="1929" to-port="1"/>
		<edge from-layer="1929" from-port="2" to-layer="1930" to-port="0"/>
		<edge from-layer="107" from-port="0" to-layer="1930" to-port="1"/>
		<edge from-layer="108" from-port="0" to-layer="1930" to-port="2"/>
		<edge from-layer="109" from-port="0" to-layer="1930" to-port="3"/>
		<edge from-layer="110" from-port="0" to-layer="1930" to-port="4"/>
		<edge from-layer="1930" from-port="5" to-layer="1931" to-port="0"/>
		<edge from-layer="1896" from-port="5" to-layer="1931" to-port="1"/>
		<edge from-layer="1931" from-port="2" to-layer="1932" to-port="0"/>
		<edge from-layer="1932" from-port="1" to-layer="1933" to-port="0"/>
		<edge from-layer="103" from-port="0" to-layer="1933" to-port="1"/>
		<edge from-layer="104" from-port="0" to-layer="1933" to-port="2"/>
		<edge from-layer="105" from-port="0" to-layer="1933" to-port="3"/>
		<edge from-layer="106" from-port="0" to-layer="1933" to-port="4"/>
		<edge from-layer="1934" from-port="0" to-layer="1935" to-port="0"/>
		<edge from-layer="1935" from-port="1" to-layer="1937" to-port="0"/>
		<edge from-layer="1936" from-port="0" to-layer="1937" to-port="1"/>
		<edge from-layer="1937" from-port="2" to-layer="1939" to-port="0"/>
		<edge from-layer="1938" from-port="0" to-layer="1939" to-port="1"/>
		<edge from-layer="1933" from-port="5" to-layer="1940" to-port="0"/>
		<edge from-layer="1939" from-port="2" to-layer="1940" to-port="1"/>
		<edge from-layer="1940" from-port="2" to-layer="1941" to-port="0"/>
		<edge from-layer="102" from-port="0" to-layer="1941" to-port="1"/>
		<edge from-layer="1941" from-port="2" to-layer="1942" to-port="0"/>
		<edge from-layer="1942" from-port="1" to-layer="1943" to-port="0"/>
		<edge from-layer="98" from-port="0" to-layer="1943" to-port="1"/>
		<edge from-layer="99" from-port="0" to-layer="1943" to-port="2"/>
		<edge from-layer="100" from-port="0" to-layer="1943" to-port="3"/>
		<edge from-layer="101" from-port="0" to-layer="1943" to-port="4"/>
		<edge from-layer="1944" from-port="0" to-layer="1945" to-port="0"/>
		<edge from-layer="1945" from-port="1" to-layer="1947" to-port="0"/>
		<edge from-layer="1946" from-port="0" to-layer="1947" to-port="1"/>
		<edge from-layer="1947" from-port="2" to-layer="1949" to-port="0"/>
		<edge from-layer="1948" from-port="0" to-layer="1949" to-port="1"/>
		<edge from-layer="1943" from-port="5" to-layer="1950" to-port="0"/>
		<edge from-layer="1949" from-port="2" to-layer="1950" to-port="1"/>
		<edge from-layer="1950" from-port="2" to-layer="1952" to-port="0"/>
		<edge from-layer="1951" from-port="0" to-layer="1952" to-port="1"/>
		<edge from-layer="1952" from-port="2" to-layer="1953" to-port="0"/>
		<edge from-layer="1953" from-port="1" to-layer="1954" to-port="0"/>
		<edge from-layer="94" from-port="0" to-layer="1954" to-port="1"/>
		<edge from-layer="95" from-port="0" to-layer="1954" to-port="2"/>
		<edge from-layer="96" from-port="0" to-layer="1954" to-port="3"/>
		<edge from-layer="97" from-port="0" to-layer="1954" to-port="4"/>
		<edge from-layer="1955" from-port="0" to-layer="1956" to-port="0"/>
		<edge from-layer="1956" from-port="1" to-layer="1958" to-port="0"/>
		<edge from-layer="1957" from-port="0" to-layer="1958" to-port="1"/>
		<edge from-layer="1958" from-port="2" to-layer="1960" to-port="0"/>
		<edge from-layer="1959" from-port="0" to-layer="1960" to-port="1"/>
		<edge from-layer="1954" from-port="5" to-layer="1961" to-port="0"/>
		<edge from-layer="1960" from-port="2" to-layer="1961" to-port="1"/>
		<edge from-layer="1961" from-port="2" to-layer="1963" to-port="0"/>
		<edge from-layer="1962" from-port="0" to-layer="1963" to-port="1"/>
		<edge from-layer="1963" from-port="2" to-layer="1964" to-port="0"/>
		<edge from-layer="90" from-port="0" to-layer="1964" to-port="1"/>
		<edge from-layer="91" from-port="0" to-layer="1964" to-port="2"/>
		<edge from-layer="92" from-port="0" to-layer="1964" to-port="3"/>
		<edge from-layer="93" from-port="0" to-layer="1964" to-port="4"/>
		<edge from-layer="1964" from-port="5" to-layer="1965" to-port="0"/>
		<edge from-layer="1943" from-port="5" to-layer="1965" to-port="1"/>
		<edge from-layer="1965" from-port="2" to-layer="1966" to-port="0"/>
		<edge from-layer="86" from-port="0" to-layer="1966" to-port="1"/>
		<edge from-layer="87" from-port="0" to-layer="1966" to-port="2"/>
		<edge from-layer="88" from-port="0" to-layer="1966" to-port="3"/>
		<edge from-layer="89" from-port="0" to-layer="1966" to-port="4"/>
		<edge from-layer="1965" from-port="2" to-layer="1967" to-port="0"/>
		<edge from-layer="1967" from-port="1" to-layer="1968" to-port="0"/>
		<edge from-layer="1968" from-port="1" to-layer="1970" to-port="0"/>
		<edge from-layer="1969" from-port="0" to-layer="1970" to-port="1"/>
		<edge from-layer="1970" from-port="2" to-layer="1972" to-port="0"/>
		<edge from-layer="1971" from-port="0" to-layer="1972" to-port="1"/>
		<edge from-layer="1972" from-port="2" to-layer="1973" to-port="0"/>
		<edge from-layer="1973" from-port="1" to-layer="1974" to-port="0"/>
		<edge from-layer="1974" from-port="1" to-layer="1978" to-port="0"/>
		<edge from-layer="1975" from-port="0" to-layer="1978" to-port="1"/>
		<edge from-layer="1976" from-port="0" to-layer="1978" to-port="2"/>
		<edge from-layer="1977" from-port="0" to-layer="1978" to-port="3"/>
		<edge from-layer="1966" from-port="5" to-layer="1979" to-port="0"/>
		<edge from-layer="1978" from-port="4" to-layer="1979" to-port="1"/>
		<edge from-layer="84" from-port="0" to-layer="1979" to-port="2"/>
		<edge from-layer="85" from-port="0" to-layer="1979" to-port="3"/>
		<edge from-layer="1979" from-port="4" to-layer="1980" to-port="0"/>
		<edge from-layer="80" from-port="0" to-layer="1980" to-port="1"/>
		<edge from-layer="81" from-port="0" to-layer="1980" to-port="2"/>
		<edge from-layer="82" from-port="0" to-layer="1980" to-port="3"/>
		<edge from-layer="83" from-port="0" to-layer="1980" to-port="4"/>
		<edge from-layer="1998" from-port="0" to-layer="1999" to-port="0"/>
		<edge from-layer="1999" from-port="1" to-layer="2001" to-port="0"/>
		<edge from-layer="2000" from-port="0" to-layer="2001" to-port="1"/>
		<edge from-layer="2001" from-port="2" to-layer="2003" to-port="0"/>
		<edge from-layer="2002" from-port="0" to-layer="2003" to-port="1"/>
		<edge from-layer="1808" from-port="5" to-layer="2004" to-port="0"/>
		<edge from-layer="2003" from-port="2" to-layer="2004" to-port="1"/>
		<edge from-layer="2004" from-port="2" to-layer="2005" to-port="0"/>
		<edge from-layer="1997" from-port="0" to-layer="2005" to-port="1"/>
		<edge from-layer="2005" from-port="2" to-layer="2006" to-port="0"/>
		<edge from-layer="2006" from-port="1" to-layer="2007" to-port="0"/>
		<edge from-layer="1993" from-port="0" to-layer="2007" to-port="1"/>
		<edge from-layer="1994" from-port="0" to-layer="2007" to-port="2"/>
		<edge from-layer="1995" from-port="0" to-layer="2007" to-port="3"/>
		<edge from-layer="1996" from-port="0" to-layer="2007" to-port="4"/>
		<edge from-layer="2008" from-port="0" to-layer="2009" to-port="0"/>
		<edge from-layer="2009" from-port="1" to-layer="2011" to-port="0"/>
		<edge from-layer="2010" from-port="0" to-layer="2011" to-port="1"/>
		<edge from-layer="2011" from-port="2" to-layer="2013" to-port="0"/>
		<edge from-layer="2012" from-port="0" to-layer="2013" to-port="1"/>
		<edge from-layer="2007" from-port="5" to-layer="2014" to-port="0"/>
		<edge from-layer="2013" from-port="2" to-layer="2014" to-port="1"/>
		<edge from-layer="2014" from-port="2" to-layer="2016" to-port="0"/>
		<edge from-layer="2015" from-port="0" to-layer="2016" to-port="1"/>
		<edge from-layer="2016" from-port="2" to-layer="2017" to-port="0"/>
		<edge from-layer="2017" from-port="1" to-layer="2018" to-port="0"/>
		<edge from-layer="1989" from-port="0" to-layer="2018" to-port="1"/>
		<edge from-layer="1990" from-port="0" to-layer="2018" to-port="2"/>
		<edge from-layer="1991" from-port="0" to-layer="2018" to-port="3"/>
		<edge from-layer="1992" from-port="0" to-layer="2018" to-port="4"/>
		<edge from-layer="2019" from-port="0" to-layer="2020" to-port="0"/>
		<edge from-layer="2020" from-port="1" to-layer="2022" to-port="0"/>
		<edge from-layer="2021" from-port="0" to-layer="2022" to-port="1"/>
		<edge from-layer="2022" from-port="2" to-layer="2024" to-port="0"/>
		<edge from-layer="2023" from-port="0" to-layer="2024" to-port="1"/>
		<edge from-layer="2018" from-port="5" to-layer="2025" to-port="0"/>
		<edge from-layer="2024" from-port="2" to-layer="2025" to-port="1"/>
		<edge from-layer="2025" from-port="2" to-layer="2027" to-port="0"/>
		<edge from-layer="2026" from-port="0" to-layer="2027" to-port="1"/>
		<edge from-layer="2027" from-port="2" to-layer="2028" to-port="0"/>
		<edge from-layer="1985" from-port="0" to-layer="2028" to-port="1"/>
		<edge from-layer="1986" from-port="0" to-layer="2028" to-port="2"/>
		<edge from-layer="1987" from-port="0" to-layer="2028" to-port="3"/>
		<edge from-layer="1988" from-port="0" to-layer="2028" to-port="4"/>
		<edge from-layer="2028" from-port="5" to-layer="2029" to-port="0"/>
		<edge from-layer="2007" from-port="5" to-layer="2029" to-port="1"/>
		<edge from-layer="2029" from-port="2" to-layer="2030" to-port="0"/>
		<edge from-layer="1981" from-port="0" to-layer="2030" to-port="1"/>
		<edge from-layer="1982" from-port="0" to-layer="2030" to-port="2"/>
		<edge from-layer="1983" from-port="0" to-layer="2030" to-port="3"/>
		<edge from-layer="1984" from-port="0" to-layer="2030" to-port="4"/>
		<edge from-layer="1980" from-port="5" to-layer="2031" to-port="0"/>
		<edge from-layer="2030" from-port="5" to-layer="2031" to-port="1"/>
		<edge from-layer="2031" from-port="2" to-layer="2032" to-port="0"/>
		<edge from-layer="2032" from-port="1" to-layer="2033" to-port="0"/>
		<edge from-layer="76" from-port="0" to-layer="2033" to-port="1"/>
		<edge from-layer="77" from-port="0" to-layer="2033" to-port="2"/>
		<edge from-layer="78" from-port="0" to-layer="2033" to-port="3"/>
		<edge from-layer="79" from-port="0" to-layer="2033" to-port="4"/>
		<edge from-layer="2034" from-port="0" to-layer="2035" to-port="0"/>
		<edge from-layer="2035" from-port="1" to-layer="2037" to-port="0"/>
		<edge from-layer="2036" from-port="0" to-layer="2037" to-port="1"/>
		<edge from-layer="2037" from-port="2" to-layer="2039" to-port="0"/>
		<edge from-layer="2038" from-port="0" to-layer="2039" to-port="1"/>
		<edge from-layer="2033" from-port="5" to-layer="2040" to-port="0"/>
		<edge from-layer="2039" from-port="2" to-layer="2040" to-port="1"/>
		<edge from-layer="2040" from-port="2" to-layer="2042" to-port="0"/>
		<edge from-layer="2041" from-port="0" to-layer="2042" to-port="1"/>
		<edge from-layer="2042" from-port="2" to-layer="2043" to-port="0"/>
		<edge from-layer="2043" from-port="1" to-layer="2044" to-port="0"/>
		<edge from-layer="72" from-port="0" to-layer="2044" to-port="1"/>
		<edge from-layer="73" from-port="0" to-layer="2044" to-port="2"/>
		<edge from-layer="74" from-port="0" to-layer="2044" to-port="3"/>
		<edge from-layer="75" from-port="0" to-layer="2044" to-port="4"/>
		<edge from-layer="2045" from-port="0" to-layer="2046" to-port="0"/>
		<edge from-layer="2046" from-port="1" to-layer="2048" to-port="0"/>
		<edge from-layer="2047" from-port="0" to-layer="2048" to-port="1"/>
		<edge from-layer="2048" from-port="2" to-layer="2050" to-port="0"/>
		<edge from-layer="2049" from-port="0" to-layer="2050" to-port="1"/>
		<edge from-layer="2044" from-port="5" to-layer="2051" to-port="0"/>
		<edge from-layer="2050" from-port="2" to-layer="2051" to-port="1"/>
		<edge from-layer="2051" from-port="2" to-layer="2053" to-port="0"/>
		<edge from-layer="2052" from-port="0" to-layer="2053" to-port="1"/>
		<edge from-layer="2053" from-port="2" to-layer="2054" to-port="0"/>
		<edge from-layer="68" from-port="0" to-layer="2054" to-port="1"/>
		<edge from-layer="69" from-port="0" to-layer="2054" to-port="2"/>
		<edge from-layer="70" from-port="0" to-layer="2054" to-port="3"/>
		<edge from-layer="71" from-port="0" to-layer="2054" to-port="4"/>
		<edge from-layer="2054" from-port="5" to-layer="2055" to-port="0"/>
		<edge from-layer="2033" from-port="5" to-layer="2055" to-port="1"/>
		<edge from-layer="2055" from-port="2" to-layer="2056" to-port="0"/>
		<edge from-layer="64" from-port="0" to-layer="2056" to-port="1"/>
		<edge from-layer="65" from-port="0" to-layer="2056" to-port="2"/>
		<edge from-layer="66" from-port="0" to-layer="2056" to-port="3"/>
		<edge from-layer="67" from-port="0" to-layer="2056" to-port="4"/>
		<edge from-layer="2055" from-port="2" to-layer="2057" to-port="0"/>
		<edge from-layer="2057" from-port="1" to-layer="2058" to-port="0"/>
		<edge from-layer="2058" from-port="1" to-layer="2060" to-port="0"/>
		<edge from-layer="2059" from-port="0" to-layer="2060" to-port="1"/>
		<edge from-layer="2060" from-port="2" to-layer="2062" to-port="0"/>
		<edge from-layer="2061" from-port="0" to-layer="2062" to-port="1"/>
		<edge from-layer="2062" from-port="2" to-layer="2063" to-port="0"/>
		<edge from-layer="2063" from-port="1" to-layer="2064" to-port="0"/>
		<edge from-layer="2064" from-port="1" to-layer="2068" to-port="0"/>
		<edge from-layer="2065" from-port="0" to-layer="2068" to-port="1"/>
		<edge from-layer="2066" from-port="0" to-layer="2068" to-port="2"/>
		<edge from-layer="2067" from-port="0" to-layer="2068" to-port="3"/>
		<edge from-layer="2056" from-port="5" to-layer="2069" to-port="0"/>
		<edge from-layer="2068" from-port="4" to-layer="2069" to-port="1"/>
		<edge from-layer="62" from-port="0" to-layer="2069" to-port="2"/>
		<edge from-layer="63" from-port="0" to-layer="2069" to-port="3"/>
		<edge from-layer="2069" from-port="4" to-layer="2070" to-port="0"/>
		<edge from-layer="58" from-port="0" to-layer="2070" to-port="1"/>
		<edge from-layer="59" from-port="0" to-layer="2070" to-port="2"/>
		<edge from-layer="60" from-port="0" to-layer="2070" to-port="3"/>
		<edge from-layer="61" from-port="0" to-layer="2070" to-port="4"/>
		<edge from-layer="2088" from-port="0" to-layer="2089" to-port="0"/>
		<edge from-layer="2089" from-port="1" to-layer="2091" to-port="0"/>
		<edge from-layer="2090" from-port="0" to-layer="2091" to-port="1"/>
		<edge from-layer="2091" from-port="2" to-layer="2093" to-port="0"/>
		<edge from-layer="2092" from-port="0" to-layer="2093" to-port="1"/>
		<edge from-layer="943" from-port="5" to-layer="2094" to-port="0"/>
		<edge from-layer="2093" from-port="2" to-layer="2094" to-port="1"/>
		<edge from-layer="2094" from-port="2" to-layer="2095" to-port="0"/>
		<edge from-layer="2087" from-port="0" to-layer="2095" to-port="1"/>
		<edge from-layer="2095" from-port="2" to-layer="2096" to-port="0"/>
		<edge from-layer="2096" from-port="1" to-layer="2097" to-port="0"/>
		<edge from-layer="2083" from-port="0" to-layer="2097" to-port="1"/>
		<edge from-layer="2084" from-port="0" to-layer="2097" to-port="2"/>
		<edge from-layer="2085" from-port="0" to-layer="2097" to-port="3"/>
		<edge from-layer="2086" from-port="0" to-layer="2097" to-port="4"/>
		<edge from-layer="2098" from-port="0" to-layer="2099" to-port="0"/>
		<edge from-layer="2099" from-port="1" to-layer="2101" to-port="0"/>
		<edge from-layer="2100" from-port="0" to-layer="2101" to-port="1"/>
		<edge from-layer="2101" from-port="2" to-layer="2103" to-port="0"/>
		<edge from-layer="2102" from-port="0" to-layer="2103" to-port="1"/>
		<edge from-layer="2097" from-port="5" to-layer="2104" to-port="0"/>
		<edge from-layer="2103" from-port="2" to-layer="2104" to-port="1"/>
		<edge from-layer="2104" from-port="2" to-layer="2106" to-port="0"/>
		<edge from-layer="2105" from-port="0" to-layer="2106" to-port="1"/>
		<edge from-layer="2106" from-port="2" to-layer="2107" to-port="0"/>
		<edge from-layer="2107" from-port="1" to-layer="2108" to-port="0"/>
		<edge from-layer="2079" from-port="0" to-layer="2108" to-port="1"/>
		<edge from-layer="2080" from-port="0" to-layer="2108" to-port="2"/>
		<edge from-layer="2081" from-port="0" to-layer="2108" to-port="3"/>
		<edge from-layer="2082" from-port="0" to-layer="2108" to-port="4"/>
		<edge from-layer="2109" from-port="0" to-layer="2110" to-port="0"/>
		<edge from-layer="2110" from-port="1" to-layer="2112" to-port="0"/>
		<edge from-layer="2111" from-port="0" to-layer="2112" to-port="1"/>
		<edge from-layer="2112" from-port="2" to-layer="2114" to-port="0"/>
		<edge from-layer="2113" from-port="0" to-layer="2114" to-port="1"/>
		<edge from-layer="2108" from-port="5" to-layer="2115" to-port="0"/>
		<edge from-layer="2114" from-port="2" to-layer="2115" to-port="1"/>
		<edge from-layer="2115" from-port="2" to-layer="2117" to-port="0"/>
		<edge from-layer="2116" from-port="0" to-layer="2117" to-port="1"/>
		<edge from-layer="2117" from-port="2" to-layer="2118" to-port="0"/>
		<edge from-layer="2075" from-port="0" to-layer="2118" to-port="1"/>
		<edge from-layer="2076" from-port="0" to-layer="2118" to-port="2"/>
		<edge from-layer="2077" from-port="0" to-layer="2118" to-port="3"/>
		<edge from-layer="2078" from-port="0" to-layer="2118" to-port="4"/>
		<edge from-layer="2118" from-port="5" to-layer="2119" to-port="0"/>
		<edge from-layer="2097" from-port="5" to-layer="2119" to-port="1"/>
		<edge from-layer="2119" from-port="2" to-layer="2120" to-port="0"/>
		<edge from-layer="2071" from-port="0" to-layer="2120" to-port="1"/>
		<edge from-layer="2072" from-port="0" to-layer="2120" to-port="2"/>
		<edge from-layer="2073" from-port="0" to-layer="2120" to-port="3"/>
		<edge from-layer="2074" from-port="0" to-layer="2120" to-port="4"/>
		<edge from-layer="2070" from-port="5" to-layer="2121" to-port="0"/>
		<edge from-layer="2120" from-port="5" to-layer="2121" to-port="1"/>
		<edge from-layer="2121" from-port="2" to-layer="2122" to-port="0"/>
		<edge from-layer="2122" from-port="1" to-layer="2123" to-port="0"/>
		<edge from-layer="54" from-port="0" to-layer="2123" to-port="1"/>
		<edge from-layer="55" from-port="0" to-layer="2123" to-port="2"/>
		<edge from-layer="56" from-port="0" to-layer="2123" to-port="3"/>
		<edge from-layer="57" from-port="0" to-layer="2123" to-port="4"/>
		<edge from-layer="2124" from-port="0" to-layer="2125" to-port="0"/>
		<edge from-layer="2125" from-port="1" to-layer="2127" to-port="0"/>
		<edge from-layer="2126" from-port="0" to-layer="2127" to-port="1"/>
		<edge from-layer="2127" from-port="2" to-layer="2129" to-port="0"/>
		<edge from-layer="2128" from-port="0" to-layer="2129" to-port="1"/>
		<edge from-layer="2123" from-port="5" to-layer="2130" to-port="0"/>
		<edge from-layer="2129" from-port="2" to-layer="2130" to-port="1"/>
		<edge from-layer="2130" from-port="2" to-layer="2132" to-port="0"/>
		<edge from-layer="2131" from-port="0" to-layer="2132" to-port="1"/>
		<edge from-layer="2132" from-port="2" to-layer="2133" to-port="0"/>
		<edge from-layer="2133" from-port="1" to-layer="2134" to-port="0"/>
		<edge from-layer="50" from-port="0" to-layer="2134" to-port="1"/>
		<edge from-layer="51" from-port="0" to-layer="2134" to-port="2"/>
		<edge from-layer="52" from-port="0" to-layer="2134" to-port="3"/>
		<edge from-layer="53" from-port="0" to-layer="2134" to-port="4"/>
		<edge from-layer="2135" from-port="0" to-layer="2136" to-port="0"/>
		<edge from-layer="2136" from-port="1" to-layer="2138" to-port="0"/>
		<edge from-layer="2137" from-port="0" to-layer="2138" to-port="1"/>
		<edge from-layer="2138" from-port="2" to-layer="2140" to-port="0"/>
		<edge from-layer="2139" from-port="0" to-layer="2140" to-port="1"/>
		<edge from-layer="2134" from-port="5" to-layer="2141" to-port="0"/>
		<edge from-layer="2140" from-port="2" to-layer="2141" to-port="1"/>
		<edge from-layer="2141" from-port="2" to-layer="2143" to-port="0"/>
		<edge from-layer="2142" from-port="0" to-layer="2143" to-port="1"/>
		<edge from-layer="2143" from-port="2" to-layer="2144" to-port="0"/>
		<edge from-layer="46" from-port="0" to-layer="2144" to-port="1"/>
		<edge from-layer="47" from-port="0" to-layer="2144" to-port="2"/>
		<edge from-layer="48" from-port="0" to-layer="2144" to-port="3"/>
		<edge from-layer="49" from-port="0" to-layer="2144" to-port="4"/>
		<edge from-layer="2144" from-port="5" to-layer="2145" to-port="0"/>
		<edge from-layer="2123" from-port="5" to-layer="2145" to-port="1"/>
		<edge from-layer="2145" from-port="2" to-layer="2146" to-port="0"/>
		<edge from-layer="42" from-port="0" to-layer="2146" to-port="1"/>
		<edge from-layer="43" from-port="0" to-layer="2146" to-port="2"/>
		<edge from-layer="44" from-port="0" to-layer="2146" to-port="3"/>
		<edge from-layer="45" from-port="0" to-layer="2146" to-port="4"/>
		<edge from-layer="2145" from-port="2" to-layer="2147" to-port="0"/>
		<edge from-layer="2147" from-port="1" to-layer="2148" to-port="0"/>
		<edge from-layer="2148" from-port="1" to-layer="2150" to-port="0"/>
		<edge from-layer="2149" from-port="0" to-layer="2150" to-port="1"/>
		<edge from-layer="2150" from-port="2" to-layer="2152" to-port="0"/>
		<edge from-layer="2151" from-port="0" to-layer="2152" to-port="1"/>
		<edge from-layer="2152" from-port="2" to-layer="2153" to-port="0"/>
		<edge from-layer="2153" from-port="1" to-layer="2154" to-port="0"/>
		<edge from-layer="2154" from-port="1" to-layer="2158" to-port="0"/>
		<edge from-layer="2155" from-port="0" to-layer="2158" to-port="1"/>
		<edge from-layer="2156" from-port="0" to-layer="2158" to-port="2"/>
		<edge from-layer="2157" from-port="0" to-layer="2158" to-port="3"/>
		<edge from-layer="2146" from-port="5" to-layer="2159" to-port="0"/>
		<edge from-layer="2158" from-port="4" to-layer="2159" to-port="1"/>
		<edge from-layer="40" from-port="0" to-layer="2159" to-port="2"/>
		<edge from-layer="41" from-port="0" to-layer="2159" to-port="3"/>
		<edge from-layer="2159" from-port="4" to-layer="2160" to-port="0"/>
		<edge from-layer="36" from-port="0" to-layer="2160" to-port="1"/>
		<edge from-layer="37" from-port="0" to-layer="2160" to-port="2"/>
		<edge from-layer="38" from-port="0" to-layer="2160" to-port="3"/>
		<edge from-layer="39" from-port="0" to-layer="2160" to-port="4"/>
		<edge from-layer="2178" from-port="0" to-layer="2179" to-port="0"/>
		<edge from-layer="2179" from-port="1" to-layer="2181" to-port="0"/>
		<edge from-layer="2180" from-port="0" to-layer="2181" to-port="1"/>
		<edge from-layer="2181" from-port="2" to-layer="2183" to-port="0"/>
		<edge from-layer="2182" from-port="0" to-layer="2183" to-port="1"/>
		<edge from-layer="781" from-port="5" to-layer="2184" to-port="0"/>
		<edge from-layer="2183" from-port="2" to-layer="2184" to-port="1"/>
		<edge from-layer="2184" from-port="2" to-layer="2185" to-port="0"/>
		<edge from-layer="2177" from-port="0" to-layer="2185" to-port="1"/>
		<edge from-layer="2185" from-port="2" to-layer="2186" to-port="0"/>
		<edge from-layer="2186" from-port="1" to-layer="2187" to-port="0"/>
		<edge from-layer="2173" from-port="0" to-layer="2187" to-port="1"/>
		<edge from-layer="2174" from-port="0" to-layer="2187" to-port="2"/>
		<edge from-layer="2175" from-port="0" to-layer="2187" to-port="3"/>
		<edge from-layer="2176" from-port="0" to-layer="2187" to-port="4"/>
		<edge from-layer="2188" from-port="0" to-layer="2189" to-port="0"/>
		<edge from-layer="2189" from-port="1" to-layer="2191" to-port="0"/>
		<edge from-layer="2190" from-port="0" to-layer="2191" to-port="1"/>
		<edge from-layer="2191" from-port="2" to-layer="2193" to-port="0"/>
		<edge from-layer="2192" from-port="0" to-layer="2193" to-port="1"/>
		<edge from-layer="2187" from-port="5" to-layer="2194" to-port="0"/>
		<edge from-layer="2193" from-port="2" to-layer="2194" to-port="1"/>
		<edge from-layer="2194" from-port="2" to-layer="2196" to-port="0"/>
		<edge from-layer="2195" from-port="0" to-layer="2196" to-port="1"/>
		<edge from-layer="2196" from-port="2" to-layer="2197" to-port="0"/>
		<edge from-layer="2197" from-port="1" to-layer="2198" to-port="0"/>
		<edge from-layer="2169" from-port="0" to-layer="2198" to-port="1"/>
		<edge from-layer="2170" from-port="0" to-layer="2198" to-port="2"/>
		<edge from-layer="2171" from-port="0" to-layer="2198" to-port="3"/>
		<edge from-layer="2172" from-port="0" to-layer="2198" to-port="4"/>
		<edge from-layer="2199" from-port="0" to-layer="2200" to-port="0"/>
		<edge from-layer="2200" from-port="1" to-layer="2202" to-port="0"/>
		<edge from-layer="2201" from-port="0" to-layer="2202" to-port="1"/>
		<edge from-layer="2202" from-port="2" to-layer="2204" to-port="0"/>
		<edge from-layer="2203" from-port="0" to-layer="2204" to-port="1"/>
		<edge from-layer="2198" from-port="5" to-layer="2205" to-port="0"/>
		<edge from-layer="2204" from-port="2" to-layer="2205" to-port="1"/>
		<edge from-layer="2205" from-port="2" to-layer="2207" to-port="0"/>
		<edge from-layer="2206" from-port="0" to-layer="2207" to-port="1"/>
		<edge from-layer="2207" from-port="2" to-layer="2208" to-port="0"/>
		<edge from-layer="2165" from-port="0" to-layer="2208" to-port="1"/>
		<edge from-layer="2166" from-port="0" to-layer="2208" to-port="2"/>
		<edge from-layer="2167" from-port="0" to-layer="2208" to-port="3"/>
		<edge from-layer="2168" from-port="0" to-layer="2208" to-port="4"/>
		<edge from-layer="2208" from-port="5" to-layer="2209" to-port="0"/>
		<edge from-layer="2187" from-port="5" to-layer="2209" to-port="1"/>
		<edge from-layer="2209" from-port="2" to-layer="2210" to-port="0"/>
		<edge from-layer="2161" from-port="0" to-layer="2210" to-port="1"/>
		<edge from-layer="2162" from-port="0" to-layer="2210" to-port="2"/>
		<edge from-layer="2163" from-port="0" to-layer="2210" to-port="3"/>
		<edge from-layer="2164" from-port="0" to-layer="2210" to-port="4"/>
		<edge from-layer="2160" from-port="5" to-layer="2211" to-port="0"/>
		<edge from-layer="2210" from-port="5" to-layer="2211" to-port="1"/>
		<edge from-layer="2211" from-port="2" to-layer="2212" to-port="0"/>
		<edge from-layer="2212" from-port="1" to-layer="2213" to-port="0"/>
		<edge from-layer="32" from-port="0" to-layer="2213" to-port="1"/>
		<edge from-layer="33" from-port="0" to-layer="2213" to-port="2"/>
		<edge from-layer="34" from-port="0" to-layer="2213" to-port="3"/>
		<edge from-layer="35" from-port="0" to-layer="2213" to-port="4"/>
		<edge from-layer="2214" from-port="0" to-layer="2215" to-port="0"/>
		<edge from-layer="2215" from-port="1" to-layer="2217" to-port="0"/>
		<edge from-layer="2216" from-port="0" to-layer="2217" to-port="1"/>
		<edge from-layer="2217" from-port="2" to-layer="2219" to-port="0"/>
		<edge from-layer="2218" from-port="0" to-layer="2219" to-port="1"/>
		<edge from-layer="2213" from-port="5" to-layer="2220" to-port="0"/>
		<edge from-layer="2219" from-port="2" to-layer="2220" to-port="1"/>
		<edge from-layer="2220" from-port="2" to-layer="2222" to-port="0"/>
		<edge from-layer="2221" from-port="0" to-layer="2222" to-port="1"/>
		<edge from-layer="2222" from-port="2" to-layer="2223" to-port="0"/>
		<edge from-layer="2223" from-port="1" to-layer="2224" to-port="0"/>
		<edge from-layer="28" from-port="0" to-layer="2224" to-port="1"/>
		<edge from-layer="29" from-port="0" to-layer="2224" to-port="2"/>
		<edge from-layer="30" from-port="0" to-layer="2224" to-port="3"/>
		<edge from-layer="31" from-port="0" to-layer="2224" to-port="4"/>
		<edge from-layer="2225" from-port="0" to-layer="2226" to-port="0"/>
		<edge from-layer="2226" from-port="1" to-layer="2228" to-port="0"/>
		<edge from-layer="2227" from-port="0" to-layer="2228" to-port="1"/>
		<edge from-layer="2228" from-port="2" to-layer="2230" to-port="0"/>
		<edge from-layer="2229" from-port="0" to-layer="2230" to-port="1"/>
		<edge from-layer="2224" from-port="5" to-layer="2231" to-port="0"/>
		<edge from-layer="2230" from-port="2" to-layer="2231" to-port="1"/>
		<edge from-layer="2231" from-port="2" to-layer="2233" to-port="0"/>
		<edge from-layer="2232" from-port="0" to-layer="2233" to-port="1"/>
		<edge from-layer="2233" from-port="2" to-layer="2234" to-port="0"/>
		<edge from-layer="24" from-port="0" to-layer="2234" to-port="1"/>
		<edge from-layer="25" from-port="0" to-layer="2234" to-port="2"/>
		<edge from-layer="26" from-port="0" to-layer="2234" to-port="3"/>
		<edge from-layer="27" from-port="0" to-layer="2234" to-port="4"/>
		<edge from-layer="2234" from-port="5" to-layer="2235" to-port="0"/>
		<edge from-layer="2213" from-port="5" to-layer="2235" to-port="1"/>
		<edge from-layer="2235" from-port="2" to-layer="2236" to-port="0"/>
		<edge from-layer="20" from-port="0" to-layer="2236" to-port="1"/>
		<edge from-layer="21" from-port="0" to-layer="2236" to-port="2"/>
		<edge from-layer="22" from-port="0" to-layer="2236" to-port="3"/>
		<edge from-layer="23" from-port="0" to-layer="2236" to-port="4"/>
		<edge from-layer="2235" from-port="2" to-layer="2237" to-port="0"/>
		<edge from-layer="2237" from-port="1" to-layer="2238" to-port="0"/>
		<edge from-layer="2238" from-port="1" to-layer="2240" to-port="0"/>
		<edge from-layer="2239" from-port="0" to-layer="2240" to-port="1"/>
		<edge from-layer="2240" from-port="2" to-layer="2242" to-port="0"/>
		<edge from-layer="2241" from-port="0" to-layer="2242" to-port="1"/>
		<edge from-layer="2242" from-port="2" to-layer="2243" to-port="0"/>
		<edge from-layer="2243" from-port="1" to-layer="2244" to-port="0"/>
		<edge from-layer="2244" from-port="1" to-layer="2248" to-port="0"/>
		<edge from-layer="2245" from-port="0" to-layer="2248" to-port="1"/>
		<edge from-layer="2246" from-port="0" to-layer="2248" to-port="2"/>
		<edge from-layer="2247" from-port="0" to-layer="2248" to-port="3"/>
		<edge from-layer="2236" from-port="5" to-layer="2249" to-port="0"/>
		<edge from-layer="2248" from-port="4" to-layer="2249" to-port="1"/>
		<edge from-layer="18" from-port="0" to-layer="2249" to-port="2"/>
		<edge from-layer="19" from-port="0" to-layer="2249" to-port="3"/>
		<edge from-layer="2249" from-port="4" to-layer="2250" to-port="0"/>
		<edge from-layer="14" from-port="0" to-layer="2250" to-port="1"/>
		<edge from-layer="15" from-port="0" to-layer="2250" to-port="2"/>
		<edge from-layer="16" from-port="0" to-layer="2250" to-port="3"/>
		<edge from-layer="17" from-port="0" to-layer="2250" to-port="4"/>
		<edge from-layer="2251" from-port="0" to-layer="2252" to-port="0"/>
		<edge from-layer="2252" from-port="1" to-layer="2254" to-port="0"/>
		<edge from-layer="2253" from-port="0" to-layer="2254" to-port="1"/>
		<edge from-layer="2254" from-port="2" to-layer="2256" to-port="0"/>
		<edge from-layer="2255" from-port="0" to-layer="2256" to-port="1"/>
		<edge from-layer="2250" from-port="5" to-layer="2257" to-port="0"/>
		<edge from-layer="2256" from-port="2" to-layer="2257" to-port="1"/>
		<edge from-layer="2257" from-port="2" to-layer="2259" to-port="0"/>
		<edge from-layer="2258" from-port="0" to-layer="2259" to-port="1"/>
		<edge from-layer="2259" from-port="2" to-layer="2260" to-port="0"/>
		<edge from-layer="10" from-port="0" to-layer="2260" to-port="1"/>
		<edge from-layer="11" from-port="0" to-layer="2260" to-port="2"/>
		<edge from-layer="12" from-port="0" to-layer="2260" to-port="3"/>
		<edge from-layer="13" from-port="0" to-layer="2260" to-port="4"/>
		<edge from-layer="2259" from-port="2" to-layer="2261" to-port="0"/>
		<edge from-layer="2261" from-port="1" to-layer="2262" to-port="0"/>
		<edge from-layer="2262" from-port="1" to-layer="2264" to-port="0"/>
		<edge from-layer="2263" from-port="0" to-layer="2264" to-port="1"/>
		<edge from-layer="2264" from-port="2" to-layer="2266" to-port="0"/>
		<edge from-layer="2265" from-port="0" to-layer="2266" to-port="1"/>
		<edge from-layer="2266" from-port="2" to-layer="2267" to-port="0"/>
		<edge from-layer="2267" from-port="1" to-layer="2268" to-port="0"/>
		<edge from-layer="2268" from-port="1" to-layer="2272" to-port="0"/>
		<edge from-layer="2269" from-port="0" to-layer="2272" to-port="1"/>
		<edge from-layer="2270" from-port="0" to-layer="2272" to-port="2"/>
		<edge from-layer="2271" from-port="0" to-layer="2272" to-port="3"/>
		<edge from-layer="2260" from-port="5" to-layer="2273" to-port="0"/>
		<edge from-layer="2272" from-port="4" to-layer="2273" to-port="1"/>
		<edge from-layer="8" from-port="0" to-layer="2273" to-port="2"/>
		<edge from-layer="9" from-port="0" to-layer="2273" to-port="3"/>
		<edge from-layer="2273" from-port="4" to-layer="2274" to-port="0"/>
		<edge from-layer="4" from-port="0" to-layer="2274" to-port="1"/>
		<edge from-layer="5" from-port="0" to-layer="2274" to-port="2"/>
		<edge from-layer="6" from-port="0" to-layer="2274" to-port="3"/>
		<edge from-layer="7" from-port="0" to-layer="2274" to-port="4"/>
		<edge from-layer="2275" from-port="0" to-layer="2276" to-port="0"/>
		<edge from-layer="2276" from-port="1" to-layer="2278" to-port="0"/>
		<edge from-layer="2277" from-port="0" to-layer="2278" to-port="1"/>
		<edge from-layer="2278" from-port="2" to-layer="2280" to-port="0"/>
		<edge from-layer="2279" from-port="0" to-layer="2280" to-port="1"/>
		<edge from-layer="2274" from-port="5" to-layer="2281" to-port="0"/>
		<edge from-layer="2280" from-port="2" to-layer="2281" to-port="1"/>
		<edge from-layer="2281" from-port="2" to-layer="2283" to-port="0"/>
		<edge from-layer="2282" from-port="0" to-layer="2283" to-port="1"/>
		<edge from-layer="2283" from-port="2" to-layer="2284" to-port="0"/>
		<edge from-layer="2284" from-port="1" to-layer="2285" to-port="0"/>
		<edge from-layer="0" from-port="0" to-layer="2285" to-port="1"/>
		<edge from-layer="1" from-port="0" to-layer="2285" to-port="2"/>
		<edge from-layer="2" from-port="0" to-layer="2285" to-port="3"/>
		<edge from-layer="3" from-port="0" to-layer="2285" to-port="4"/>
		<edge from-layer="2286" from-port="0" to-layer="2287" to-port="0"/>
		<edge from-layer="2287" from-port="1" to-layer="2289" to-port="0"/>
		<edge from-layer="2288" from-port="0" to-layer="2289" to-port="1"/>
		<edge from-layer="2289" from-port="2" to-layer="2291" to-port="0"/>
		<edge from-layer="2290" from-port="0" to-layer="2291" to-port="1"/>
		<edge from-layer="2285" from-port="5" to-layer="2292" to-port="0"/>
		<edge from-layer="2291" from-port="2" to-layer="2292" to-port="1"/>
		<edge from-layer="2292" from-port="2" to-layer="2294" to-port="0"/>
		<edge from-layer="2293" from-port="0" to-layer="2294" to-port="1"/>
		<edge from-layer="2294" from-port="2" to-layer="2295" to-port="0"/>
		<edge from-layer="2295" from-port="1" to-layer="2296" to-port="0"/>
	</edges>
	<meta_data>
		<MO_version value="2021.4.2-3974-e2a469a3450-releases/2021/4"/>
		<cli_parameters>
			<caffe_parser_path value="DIR"/>
			<data_type value="FP32"/>
			<disable_nhwc_to_nchw value="False"/>
			<disable_omitting_optional value="False"/>
			<disable_resnet_optimization value="False"/>
			<disable_weights_compression value="False"/>
			<enable_concat_optimization value="False"/>
			<enable_flattening_nested_params value="False"/>
			<enable_ssd_gluoncv value="False"/>
			<extensions value="DIR"/>
			<framework value="onnx"/>
			<freeze_placeholder_with_value value="{}"/>
			<generate_deprecated_IR_V7 value="False"/>
			<input value="INPUTS"/>
			<input_model value="DIR/midas384_864_150222_without_squeeze_intel_folded.onnx"/>
			<input_model_is_text value="False"/>
			<input_shape value="[1,3,384,864]"/>
			<k value="DIR/CustomLayersMapping.xml"/>
			<keep_shape_ops value="True"/>
			<legacy_ir_generation value="False"/>
			<legacy_mxnet_model value="False"/>
			<log_level value="ERROR"/>
			<mean_scale_values value="{'INPUTS': {'mean': array([123.675, 116.28 , 103.53 ]), 'scale': array([58.395, 57.12 , 57.375])}}"/>
			<mean_values value="INPUTS[123.675,116.28,103.53]"/>
			<model_name value="midas384_864_150222_without_squeeze_intel_folded"/>
			<output_dir value="DIR"/>
			<placeholder_data_types value="{}"/>
			<placeholder_shapes value="{'INPUTS': array([  1,   3, 384, 864])}"/>
			<progress value="True"/>
			<remove_memory value="False"/>
			<remove_output_softmax value="False"/>
			<reverse_input_channels value="True"/>
			<save_params_from_nd value="False"/>
			<scale_values value="INPUTS[58.395,57.12,57.375]"/>
			<silent value="False"/>
			<static_shape value="False"/>
			<stream_output value="True"/>
			<transform value=""/>
			<unset unset_cli_parameters="batch, counts, disable_fusing, disable_gfusing, finegrain_fusing, input_checkpoint, input_meta_graph, input_proto, input_symbol, mean_file, mean_file_offsets, move_to_preprocess, nd_prefix_name, output, pretrained_model_name, saved_model_dir, saved_model_tags, scale, tensorboard_logdir, tensorflow_custom_layer_libraries, tensorflow_custom_operations_config_update, tensorflow_object_detection_api_pipeline_config, tensorflow_use_custom_operations_config, transformations_config"/>
		</cli_parameters>
	</meta_data>
	<quantization_parameters>
		<config>{
		'compression': {
			'target_device': 'CPU',
			'algorithms': [
				{
					'name': 'DefaultQuantization',
					'params': {
						'preset': 'performance',
						'stat_subset_size': 500
					}
				}
			]
		},
		'engine': {
			'type': 'simplified',
			'data_source': 'PATH',
			'device': 'CPU'
		}
	}</config>
		<version value="1.0"/>
		<cli_params value="{'quantize': None, 'preset': None, 'model': None, 'weights': None, 'name': None, 'ac_config': None, 'max_drop': None, 'evaluate': False, 'output_dir': 'PATH', 'direct_dump': True, 'log_level': 'INFO', 'pbar': True, 'stream_output': False, 'keep_uncompressed_weights': False}"/>
	</quantization_parameters>
</net>
